src/chess_cv/weights/arrows.safetensors (safetensors, 645164 bytes, 10 tensors)

conv1.bias f4 [16]
000000 29 de 6b 3d 45 69 6b 3e 58 22 b5 bd 83 5e 81 3e
       0.057584915 0.22989376 -0.08844441 0.2526742
000010 94 b6 77 bd a1 e4 f4 ba c8 c1 9e bd 22 74 22 be
       -0.060476854 -0.0018683859 -0.077518046 -0.15864614
000020 bf e1 b6 be 61 67 db bc 39 cc 20 bd d3 2a 26 3d
       -0.35719106 -0.026782693 -0.039257262 0.040568184
000030 95 12 9f be 8b 97 99 3e 5b f9 d2 3c ec 08 d6 bd
       -0.31068864 0.2999843 0.025753668 -0.104509205

conv1.weight f4 [16, 3, 3, 3]
000000 c7 29 84 bd ca 52 1b 3c 7c 0c e7 3c 8b 45 a0 be
       -0.06453281 0.009480188 0.028204195 -0.31303057
000010 b9 a6 3c 3e 56 d3 92 3e de 97 30 be b8 df e8 3d
       0.18422975 0.28676862 -0.17245433 0.11370796
000020 37 db dc 3d 47 76 8a 39 c5 6b 10 3c 5c f8 20 bd
       0.107839994 0.00026409535 0.008814757 -0.039299354
000030 b5 a0 84 be b0 7c 03 3e bf 76 5a 3e 01 1c 15 be
       -0.2590386 0.12840533 0.2133436 -0.14561464
000040 5a cb 79 3d 6a 99 b7 3d 0a 1b 41 38 06 ff 72 bd
       0.060984947 0.08964808 4.6039968e-05 -0.05932524
000050 46 96 b6 bd 35 d6 0c 3d ed 30 9c 3d 6e 0a e7 3c
       -0.08915381 0.03438397 0.07626519 0.028203215
000060 7c 94 0d bd 72 b5 f3 3a 6b 0b 7e bd 2b 1e 1e 3e
       -0.034565434 0.0018593504 -0.062022608 0.15441196
000070 0f d4 85 bd 86 1b 31 bd e8 7e 84 3c ae b3 e3 3c
       -0.065345876 -0.04323914 0.016173795 0.027795639
000080 57 42 e3 3d 7d 44 13 3d fb c6 84 bc 08 d9 eb bc
       0.11096638 0.035953987 -0.016208163 -0.028790012
000090 43 e1 28 bf 1c 77 27 bf e0 e1 05 bf ce ec c6 bd
       -0.6596872 -0.6541612 -0.5229778 -0.09713136
0000a0 04 fe 06 bc 78 c5 b6 3d dc 59 89 3d 13 d3 58 3d
       -0.008239273 0.08924383 0.067065924 0.05293567
0000b0 93 87 53 3d 81 7c 70 bd cb 32 45 be cd f9 0a be
       0.051642966 -0.058712486 -0.19257657 -0.13571854
0000c0 7e 04 f3 3c 2b 95 94 3d 81 f6 08 3e 3a 45 02 bc
       0.029665228 0.07255014 0.13375284 -0.007951075
0000d0 24 46 50 3c 8a f0 5b bc b9 e8 1f 3c 9a 34 33 be
       0.012712035 -0.013424048 0.009760075 -0.17500535
0000e0 2e 60 40 3e 8a 35 1f 3e 87 82 9c be d3 48 3b 3e
       0.1878669 0.15547767 -0.30568334 0.18289499
0000f0 dd 64 e9 3d d5 ae 5e be 4b 3e bd 3d 32 eb 31 3e
       0.11396191 -0.2174638 0.09240397 0.17374876
000100 fa c6 94 be 15 4c 44 3e 33 e6 19 3e 9b 78 d0 be
       -0.29058057 0.19169648 0.1502922 -0.40717015
000110 61 db 03 3e 58 fb 33 3e 68 18 a8 be e5 99 1a 3e
       0.12876655 0.17576349 -0.3283112 0.15097769
000120 94 e2 42 3d 62 c4 6e be 60 c0 a9 3d 87 ae 1e 3e
       0.047579363 -0.23317102 0.08288646 0.15496264
000130 8f 25 a8 be 08 40 2a 3e b7 2c 96 3d 56 8f 7e be
       -0.32841155 0.16625988 0.073327474 -0.24859366
000140 4f ee 27 3e c8 1a bf 3d b3 29 bb 3d 04 c8 88 3c
       0.16399501 0.0933128 0.09138813 0.016696937
000150 ae 1d c9 b9 3e 42 85 3c 06 05 93 3d cf 36 3e be
       -0.0003835982 0.016266938 0.071786925 -0.18575595
000160 e9 99 36 be a2 19 bf bd a3 23 ad 3d 33 89 a3 3d
       -0.1783215 -0.09331061 0.08454063 0.07985153
000170 d3 e8 7e 3d 36 63 a3 3c be 66 ed 3b 99 fb 9e 3d
       0.062233757 0.019944768 0.007244914 0.07762832
000180 5e 66 9f be 2c ca aa be cb 58 50 be 29 57 87 bd
       -0.31132787 -0.3335737 -0.20346372 -0.06608421
000190 54 26 4b bd 34 1f 01 bd be ed fd 3b bd 7b db 3c
       -0.0495971 -0.0315239 0.0077492883 0.026792401
0001a0 ec 99 70 3c 03 f9 8f 3d e8 04 17 3c 05 71 46 bc
       0.014685135 0.07029917 0.009217478 -0.012111907
0001b0 2c bf f8 bc 41 d9 da bc 6d 1a 77 bc ce 02 97 3d
       -0.030364595 -0.026714923 -0.015081984 0.07373582
0001c0 99 85 4a 3b 28 22 42 bd b9 2e 6b 3e d3 50 52 3d
       0.0030902384 -0.047395855 0.22967042 0.05134661
0001d0 ba ee 07 be 51 51 26 3e c9 32 06 3d be f6 85 bd
       -0.1327466 0.16241957 0.032763276 -0.06541203
0001e0 cf 7b 08 bf 8c 4f 9e be 3d 06 e6 3e 0d bb e0 be
       -0.53313917 -0.30920064 0.44926634 -0.43892708
0001f0 e8 c5 89 be c5 7c c8 3e fb 94 2e 3e 29 bd 34 3c
       -0.26908803 0.39157692 0.17049019 0.011031427
000200 36 f8 0d be 42 32 d5 be 92 00 8f be 8e de d4 3e
       -0.13864216 -0.41639906 -0.27930123 0.41576046
000210 ae ce 89 be 4e ca 41 be 8e 7d ae 3e 87 5b f8 bb
       -0.26915497 -0.1892483 0.34080166 -0.0075792703
000220 6d 99 43 bd 4e 8f 26 bb c2 43 a7 3d f2 6d 2e bd
       -0.04775374 -0.0025415006 0.08167221 -0.04258532
000230 b5 34 81 3c 1b 8d 6d 3c 9e 50 9a bd 51 54 48 3c
       0.015772203 0.014498974 -0.07534908 0.012227134
000240 c9 6f d3 3d dd f8 6b bd d5 68 c5 bc e7 dd 9e 3e
       0.10324056 -0.05761038 -0.02409784 0.31028673
000250 a1 4d 07 be 8b b4 22 be c2 39 3d 3e cf af f4 bd
       -0.13213207 -0.15889184 0.18479064 -0.11947595
000260 cb 83 a6 bd 7d d7 78 3d 88 4b 70 bd 08 d8 80 bd
       -0.08130606 0.06075238 -0.058665782 -0.06291205
000270 2e 8a 82 3e 28 f8 d5 bd 1a 49 1c be b7 66 2a 3e
       0.25496048 -0.10447723 -0.15262261 0.16640745
000280 34 9a 01 be ea ac 02 be b1 94 97 3e dc 4b f9 bd
       -0.1265648 -0.12761274 0.2960563 -0.12172672
000290 31 ba 5e be 6a 48 59 3e e2 cd a6 bd 21 b7 1b be
       -0.21750714 0.2121903 -0.08144738 -0.15206577
0002a0 ca 10 43 3c a5 be ff bc c9 3c 30 3c bf 1b 57 3e
       0.011905858 -0.031218836 0.01075668 0.21006678
0002b0 79 ec c9 bd 11 1c 0e be 01 d9 1f 3e f5 26 1d bd
       -0.09859557 -0.13877894 0.15610124 -0.03836723
0002c0 9d 03 4c bd 8f 54 9b bb 3b b2 6a bc 52 9f a7 3d
       -0.049808133 -0.004740305 -0.01432472 0.08184685
0002d0 3b cb 86 bc b3 d4 1e 3c 13 11 de 3c f8 49 49 bd
       -0.01645433 0.009694266 0.027107751 -0.049142808
0002e0 b2 2e 94 3b 51 26 c8 3d 1c 9e d7 bd 26 8b 8e bb
       0.004522168 0.09772933 -0.10528204 -0.004350084
0002f0 04 84 96 3c 54 07 e8 bd 4a fb 5b 3e 6c 71 0e be
       0.018373497 -0.11329523 0.21482578 -0.13910455
000300 38 ff 17 bd a0 4e 95 3e 60 53 9d be c0 4a 0a be
       -0.03710863 0.2916155 -0.30727673 -0.13505077
000310 cd 0e 5d 3e 1b 90 3d be 67 1f c4 bc fc a7 43 3e
       0.21587677 -0.18512003 -0.023940755 0.1910705
000320 90 ca 57 be 33 63 89 3d e6 b6 dc 3e c6 b3 d2 be
       -0.21073365 0.06708374 0.4310829 -0.4115278
000330 59 7f 25 bd 78 69 4c 3e 95 6a 4c be 54 13 91 bd
       -0.04040465 0.19962108 -0.19962533 -0.07083765
000340 6e 04 cc 3d 89 a9 83 bd 11 ab 58 bd 5b ca cb 3d
       0.099617824 -0.06428821 -0.052897517 0.099507056
000350 e0 46 f5 bd 8c a8 8d bd dd 2b 19 3e 2b e8 b0 bd
       -0.11976409 -0.069169134 0.14958139 -0.086380325
000360 5b 6f 11 3e 0e 2e 0d 3e d7 92 e8 3d 7b 8c 09 3e
       0.14202635 0.137871 0.113561325 0.13432495
000370 b9 36 ed 3d 81 28 34 3e ce 25 9b bc 23 e9 28 bc
       0.11582703 0.17593576 -0.018938925 -0.01030949
000380 f9 da 33 bd 74 65 f4 3d 86 b8 c6 3d d9 e1 03 3e
       -0.04391 0.11933413 0.09703164 0.12879123
000390 d7 cf e9 3d 8f 07 f0 3d 08 cb 0d 3e 55 76 78 3c
       0.114165954 0.11720192 0.13846982 0.015164931
0003a0 9b 64 58 bc f4 3c 90 3c 5d 0c e0 bc 63 2a 58 bc
       -0.01320758 0.01760719 -0.027349645 -0.0131936995
0003b0 72 3a 86 bc 30 90 4e bc f1 97 1e 3c 0d d6 9f 3c
       -0.01638529 -0.012607619 0.00967978 0.019511247
0003c0 07 c4 70 bd 4a 17 6a bd cf ef 3e bb 49 6f 3e be
       -0.058780696 -0.057151116 -0.0029134636 -0.1859714
0003d0 58 0f 19 3e 92 61 ca bc 6c 2a 82 be 6e cf 0b 3e
       0.1494726 -0.024704728 -0.2542299 0.13653347
0003e0 45 43 09 3e bf 18 bc bd 3a d7 ae 3d ed 84 8a bd
       0.13404568 -0.091844074 0.08537145 -0.06763635
0003f0 d5 14 c7 be 72 35 4e 3e 4c 53 2e 3e 3b 31 ca be
       -0.3888308 0.20137575 0.17023963 -0.39490685

conv2.bias f4 [32]
000000 d5 62 8a be 6a 4f 01 3f f6 82 59 3d f5 a9 97 be
       -0.27028528 0.505118 0.05310341 -0.29621854
000010 fa 2e 90 3e 30 0d c3 3e a9 00 46 3e 27 2e f3 3e
       0.2816084 0.38096 0.1933619 0.4749615
000020 00 00 13 3f 91 b8 4e be b1 c9 a2 3e 7d 1b 6c bf
       0.57421875 -0.20187594 0.31794503 -0.92229444
000030 d3 db 48 be 0d ff 80 3e a6 ae 1d be 82 25 93 3e
       -0.19615106 0.25194588 -0.15398654 0.28739554
000040 37 b8 01 3f 85 45 34 3d fc 41 e2 3e 2f 55 88 be
       0.50671715 0.04401161 0.44190967 -0.2662749
000050 3a c0 26 3f 3f 06 71 bd c8 2d 4d be ee 24 02 3e
       0.65137064 -0.058843847 -0.20036995 0.127094
000060 2e c3 80 3e 08 30 8e be c9 13 fe bd 3b 46 cb 3e
       0.2514891 -0.2777102 -0.124061175 0.3970202
000070 3c 5b b4 3d 09 89 5b 3e 13 de a7 3e e1 fc 74 3e
       0.08806464 0.21438994 0.32786617 0.2392459

conv2.weight f4 [32, 3, 3, 16]
000000 f7 e5 b6 be bd 6f 4a be 41 75 1c 3f 9d 7e 37 be
       -0.35722324 -0.19769187 0.61116415 -0.17919393
000010 b9 8a 96 be 89 3b 49 3e 0f d5 0d be 4b 37 08 bf
       -0.29402712 0.19651617 -0.13850807 -0.5320937
000020 ac 79 b9 bd 87 ae 22 bf 7e db aa bd 9b 49 40 3d
       -0.0905641 -0.6354756 -0.08342646 0.046945196
000030 cf 87 55 be 63 a8 cf 3d e1 37 bf bd 95 22 04 be
       -0.20852588 0.10139539 -0.0933683 -0.12903817
000040 01 94 97 be 89 4e 9f be 36 ce 82 be 88 de 14 3d
       -0.29605106 -0.31114605 -0.2554795 0.036345035
000050 13 c3 21 be 7a 68 cd 3d 00 37 24 3e 26 3c 29 3c
       -0.15797071 0.10029693 0.16036606 0.010329282
000060 95 c5 c0 3d 70 15 75 3d a5 0a b1 3b c6 54 77 3e
       0.09412686 0.059834898 0.0054028803 0.24153432
000070 90 e0 96 3d e9 7d 40 bd 8d 97 98 bc c6 72 90 bd
       0.07367051 -0.046995077 -0.018626953 -0.07053141
000080 fd 48 fe 3d 43 60 69 3c c9 01 31 be 99 0f 78 bb
       0.12416265 0.014244142 -0.17285837 -0.0037851094
000090 5c f4 8f bd bc 93 43 3e e6 4e c0 bd dd 0e 3d bd
       -0.0702903 0.19099325 -0.09390049 -0.046156753
0000a0 b4 5a b0 3d 31 9e 33 3e 91 8b 15 be 5c 71 f7 bc
       0.0861105 0.17540814 -0.14604022 -0.030205421
0000b0 0d 8f e3 bc f5 83 c4 3d 6b f7 7e 3d f6 bf 46 bd
       -0.027778173 0.09595481 0.062247675 -0.048522912
0000c0 39 a8 2c 3e 82 58 96 3d 90 b5 90 bd 3b 36 d7 bd
       0.16861047 0.073411 -0.0706588 -0.105083905
0000d0 38 e3 d2 bd 1d d9 7f 3e e6 51 bd 3e 3f 7c cf 3c
       -0.10297245 0.24985166 0.36976546 0.0253278
0000e0 db 37 23 3e 8c 5c 06 bf 19 e6 35 bd 68 f4 e8 bd
       0.15939276 -0.52484965 -0.04440889 -0.11374742
0000f0 ec e4 80 3e f2 b8 6d 3c c1 91 0e be 0c 0e 9a 3a
       0.25174654 0.014509426 -0.13922788 0.0011753454
000100 db f3 32 3f 2c 33 a1 be 5d 47 fa be d2 c6 39 3e
       0.69903344 -0.31484354 -0.4888257 0.1814225
000110 fa e2 cc 3e 00 7c 18 bf a8 d2 9f 3d ce b3 a8 3e
       0.4001692 -0.5956421 0.07803851 0.3294968
000120 15 d0 33 bd ce e5 14 3f 64 43 1f bf b7 06 35 3e
       -0.043899614 0.58163154 -0.62212205 0.17678343
000130 7b 70 05 be ba 8f ee be a3 0f 8c 3e 6c 2f 71 bd
       -0.13031189 -0.4659403 0.2735568 -0.058883116
000140 63 85 bc 3e d5 d3 b3 3d 23 34 ff bd 0b 89 15 3d
       0.36820516 0.08780638 -0.12461116 0.036507647
000150 87 e9 89 bd 29 75 4e 3e 32 94 39 3e 36 55 42 3e
       -0.06733995 0.2016188 0.18122938 0.18977818
000160 19 8c 27 be 74 87 35 3e 27 6d 1c be 75 5b 9c 3e
       -0.16362037 0.17727453 -0.15276013 0.30538526
000170 ec d4 a0 3d 51 d1 40 be 0a 5c a1 be 4d 36 08 3e
       0.078531116 -0.18829848 -0.31515533 0.13301964
000180 3b 64 cb 3e 67 0d 5b be b6 f2 0b be e5 90 7d 3b
       0.39724907 -0.21391831 -0.13666806 0.00386911
000190 14 98 11 be 7d 1a a5 bb c4 55 87 3d ea db b9 3b
       -0.1421817 -0.005038558 0.06608155 0.0056719678
0001a0 ab 43 a3 3d 37 b7 dd be 7d a2 c6 3d c0 e5 80 be
       0.07971891 -0.43303844 0.09698961 -0.25175285
0001b0 77 ea c3 3d 65 f2 88 3d c7 21 4a be fe 88 74 bd
       0.09566205 0.06686858 -0.19739448 -0.05970096
0001c0 da 74 9e 3e 0f 83 91 be 7f 9f 46 3d cd 3e c4 3d
       0.30948526 -0.28420302 0.04849195 0.09582291
0001d0 d7 c8 1b be 7b 6d 8e 3d ee 78 cc bb 5a 9f 85 3d
       -0.15213333 0.069544755 -0.006240002 0.065245345
0001e0 52 f8 0a be 4a d0 8e 3e ee 8e bf bd 1a 71 1e 3f
       -0.13571289 0.27893287 -0.093534335 0.6189133
0001f0 6f 8b 9a 3d be ff 9d be d1 42 2e bd a1 7d 5d 3e
       0.07546126 -0.30859178 -0.04254419 0.21629955
000200 cc 43 ab 3d 61 fa ca be 64 84 3b bd ae 6f e3 bd
       0.083625406 -0.3964415 -0.045780554 -0.111052856
000210 5b 36 1f 3b 67 6d 69 bd 43 a5 9b 3e 85 0f 12 3e
       0.0024293873 -0.0569891 0.30399522 0.14263733
000220 fb de cb bd 62 0a 4a 3e 9d ff 0b be fd 0b db 3e
       -0.099546395 0.19730523 -0.13671727 0.42782584
000230 6b 69 13 bc 52 96 9c bc 27 db b8 3d 43 2e f2 bd
       -0.008997302 -0.019114647 0.09026175 -0.1182523
000240 fb 4e 16 3e b9 c6 41 be 96 9a 3e bc d4 ac a7 3e
       0.14678566 -0.18923463 -0.011633536 0.32749045
000250 ad 03 6f be 9d 8b 4e be 45 54 10 3e b8 f4 10 3e
       -0.23341246 -0.20170446 0.14094646 0.14155853
000260 a9 c7 45 bc 62 65 aa 3e ab a7 bb 3d 81 18 ef 3e
       -0.0120715285 0.33280474 0.091628395 0.46698382
000270 22 e9 8e 3d 2e 16 87 bd f3 b2 80 be b0 41 39 bc
       0.0697806 -0.06596027 -0.25136527 -0.011307165
000280 7f 88 b1 bc 04 a0 2a bd 2c 37 50 bf 1a 7f b9 3d
       -0.021671532 -0.04165651 -0.81334186 0.09057446
000290 03 67 5b bf 04 9e ac be 18 c2 91 bd ca 36 d3 bd
       -0.8570406 -0.33714306 -0.071170986 -0.103131846
0002a0 80 7c 62 3d 1f 3a 2b bf 05 d0 f8 bd 7f 24 20 3e
       0.055294514 -0.6688556 -0.121490516 0.15638922
0002b0 4d 71 85 3d 25 c6 dc bd 87 f7 2e bf c3 ed 67 3e
       0.06515751 -0.107799806 -0.68346447 0.22649293
0002c0 a2 42 ef 3d 65 8e 6f 3d 4c 81 0a bf 40 7a 48 3d
       0.11682631 0.058485407 -0.5410354 0.04894471
0002d0 d5 db 97 be 8f ce 1d be 57 ea 45 bc 08 75 69 bd
       -0.29659906 -0.15410827 -0.012079797 -0.056996375
0002e0 a9 db 65 3d 5a 92 1b bf 85 36 8a 3d 79 d3 c3 3e
       0.056117687 -0.6077019 0.0674868 0.38247278
0002f0 8d f2 ac bd 54 da 5d 3e ba c2 67 bf f1 1e 11 3e
       -0.084447004 0.21665317 -0.90531504 0.1417196
000300 f9 24 46 be 52 38 b2 bd 30 ea cd be 2f 1e 1a 3e
       -0.19350041 -0.087021485 -0.40217733 0.15050577
000310 22 7d 70 bf 0c 0b 44 be 5e ea 0d bd 91 30 be bd
       -0.9394094 -0.19144839 -0.034647338 -0.09286607
000320 bf f2 3a bc f2 bb c0 bd 40 73 f5 3d 39 da 83 3e
       -0.011410414 -0.09410848 0.11984873 0.25752428
000330 62 9f b5 bc c8 d2 b5 bd 9b a6 29 bf e0 d3 f9 bc
       -0.022170726 -0.08878094 -0.66269845 -0.030496538
000340 a5 a4 fa bd 04 d4 e8 bd ce d3 20 bf b2 a7 4b 3d
       -0.12238435 -0.11368564 -0.6282319 0.049720474
000350 cd 04 f3 be b7 61 cf bd 7e 43 54 be e5 46 24 3d
       -0.474646 -0.101260595 -0.20728871 0.040106673
000360 f7 ac 16 be c9 1d aa be cc 6b 1b be 41 d6 a9 3e
       -0.14714418 -0.3322585 -0.1517784 0.33171275
000370 76 54 05 3d 5e 46 21 be fa 84 60 bf 72 99 a1 bd
       0.03255125 -0.15749499 -0.87702906 -0.078905955
000380 ed a3 14 be 66 cf 49 be 46 06 98 be c2 33 8c 3b
       -0.14515658 -0.19708022 -0.29692286 0.004278631
000390 75 36 a3 be ce 5d 35 3e d0 8a 51 3e 99 b9 fb 3d
       -0.31877485 0.17711565 0.20463109 0.12291259
0003a0 1c 76 12 be af 52 90 3d 28 1f ec bd 8e e3 02 3f
       -0.14302868 0.07047021 -0.1152938 0.5112847
0003b0 b9 72 cf 3c 28 81 3c bb c5 05 87 bf 9e 08 da 3d
       0.025323259 -0.0028763507 -1.0548636 0.10646175
0003c0 52 51 5b 3c cd 20 b6 bd dc 54 25 bf 84 e0 1b 3e
       0.0133860875 -0.08892975 -0.6458261 0.15222365
0003d0 33 14 5d bd 10 b2 41 be af 52 98 bd c2 1d a1 bc
       -0.05397434 -0.18915582 -0.07437646 -0.01966751
0003e0 90 39 16 3a 66 0f 3e be a9 41 3f 3e 0d 95 11 3f
       0.00057306234 -0.18560562 0.18677391 0.5686806
0003f0 df 76 87 bc 38 28 88 3d 71 71 bf be 13 2d 23 3e
       -0.016536174 0.06648296 -0.37391236 0.15935163

conv3.bias f4 [64]
000000 f6 21 7d be fd 04 1a be 45 90 ed bd 46 3f 79 be
       -0.24719986 -0.15040965 -0.11599783 -0.24340543
000010 1f d3 34 be e6 15 7d be 38 88 ae bd 66 db b5 be
       -0.17658661 -0.24715385 -0.085220754 -0.3551895
000020 c5 e8 93 3d 40 bb 59 be ee 1e 9f 3d c2 9f b4 bd
       0.07222132 -0.21262836 0.07769571 -0.08819534
000030 86 65 43 be 9b d8 9f bd 78 de 80 bd 41 0f 6b be
       -0.19081697 -0.07804986 -0.062924325 -0.22955038
000040 81 c4 a5 3e 00 ca 3b be 1c ca d0 be 8a cd 28 be
       0.32376483 -0.18338776 -0.40779197 -0.16484657
000050 c8 e9 4a bd 95 5d d8 be fc a7 35 3d a0 ef 21 be
       -0.049539357 -0.42258897 0.044349656 -0.15814066
000060 de 31 bf be 15 2a 8d be 23 1b e7 bd 8b 19 17 be
       -0.37342733 -0.2757117 -0.11284473 -0.14755838
000070 8e 27 6a be c2 de a3 bd af a5 0d be 56 44 91 be
       -0.22866651 -0.08001472 -0.13832735 -0.2837245
000080 31 9c 26 be 55 47 f1 be 4a b7 e3 bc 57 b4 ad bd
       -0.1627052 -0.47124735 -0.02779736 -0.08481663
000090 91 5c 23 bd 73 2a 86 be cf 65 30 be 17 57 46 3c
       -0.0398832 -0.2620426 -0.17226337 0.012105725
0000a0 f2 8b d2 bd 22 73 6b bd 7c 5e 65 bd f4 1e 4f be
       -0.10280599 -0.057482846 -0.05599831 -0.20226651
0000b0 d5 74 a9 3e 16 83 b3 bd f3 7d 0a be 0a 2e 47 bd
       0.33096948 -0.08765237 -0.13524608 -0.04862789
0000c0 c9 27 de be 06 8f 8f bd 3d 44 08 3d 81 ab 78 bc
       -0.4338973 -0.070097014 0.033268202 -0.0151776085
0000d0 2b c7 27 3d 16 b1 0a be e1 2d b5 bd 4d 00 44 be
       0.040961426 -0.13544115 -0.08846641 -0.1914074
0000e0 98 9c 50 be ef c4 85 bd 0b 00 0c bd 5f 3c ec bd
       -0.20372236 -0.06531703 -0.03417973 -0.11534952
0000f0 c9 9b f7 bc a8 4e 1e bd 52 e4 48 bc ae 1c 6d be
       -0.030225651 -0.03864923 -0.012261467 -0.23155472

conv3.weight f4 [64, 3, 3, 32]
000000 4e 9c a5 3e 42 f1 a2 3d 45 f9 a1 3c c4 21 bd 3d
       0.32345814 0.079561725 0.019772181 0.09234956
000010 2a bd c3 bd f8 ca 90 3e 00 d5 b2 be f7 c4 da 3d
       -0.095575646 0.28279853 -0.3492813 0.10682099
000020 2d 77 47 bf 7f ba 5a be db 93 a7 be 5e 2c f6 be
       -0.7791622 -0.21360205 -0.32729992 -0.48080724
000030 fc b1 0d 3e 01 3e 3d 3d cc bb da be 27 5d 10 be
       0.13837427 0.04620171 -0.42721403 -0.14098035
000040 91 da 3c 3e 64 2c 03 bf 50 79 94 be 05 bf ba be
       0.18442751 -0.5123961 -0.28998804 -0.3647386
000050 84 2a 76 3e 2d ef b2 be e6 67 f5 be 02 e6 13 3e
       0.24039656 -0.34948102 -0.4793083 0.1444321
000060 32 81 cc 3e 77 8b eb bd 04 21 43 bf 8c 4e 4f be
       0.39942318 -0.1150121 -0.7622225 -0.20244807
000070 0f dd 93 be cd 01 0b 3d 1b ed 1e be 77 b1 30 3e
       -0.28879592 0.033937264 -0.15520136 0.17255197
000080 44 ea 60 3e 78 ac a9 be 1b 7f 41 bf ce 22 e3 be
       0.21964365 -0.33139396 -0.7558457 -0.4436249
000090 2f 16 0e bf 23 56 dc 3e da 7b 14 bf 53 98 35 bf
       -0.555026 0.43034467 -0.5800148 -0.70935553
0000a0 f3 e8 05 bf 0e 47 f6 be f2 d8 18 be 20 45 8c be
       -0.5230858 -0.48101085 -0.14926508 -0.27396488
0000b0 da de 43 3e 4b 39 74 3e 9c 2c 81 3d d0 83 24 be
       0.1912798 0.2384998 0.06307337 -0.16065907
0000c0 db 8f a5 3e 64 47 33 bc 39 5d 24 be 9e e3 ee be
       0.32336316 -0.010942314 -0.16051187 -0.46658033
0000d0 58 e4 66 3e c6 6f e5 3c 02 a6 28 bf c0 13 e8 bd
       0.22548044 0.0280074 -0.6587831 -0.11331892
0000e0 70 82 b2 bd e9 37 4c be 28 7c 13 3e 82 5f e6 3e
       -0.08716285 -0.19943203 0.1440283 0.44994742
0000f0 33 68 a2 b8 7c 62 39 3e 7e f3 16 be e2 a1 48 be
       -7.7441706e-05 0.18103975 -0.14741322 -0.19593003
000100 58 25 b4 3c 2b ee 03 bf 5d 4b 69 be ec d6 50 bd
       0.021990463 -0.5153529 -0.22782655 -0.050986215
000110 6d 5d b2 be 51 bf 2b 3f c3 16 7b 3e 69 2c 09 be
       -0.34836903 0.670888 0.24520402 -0.13395847
000120 bf 91 b7 be f1 6a 4c be e3 83 3f 3d 71 8f 73 bd
       -0.35853383 -0.1996267 0.046756636 -0.05946297
000130 bd 9c 44 be 36 7b ad bd 85 f9 aa 3d 8b 7b 12 3e
       -0.19200416 -0.08470766 0.08348373 0.1430494
000140 71 10 0b 3e 1f 49 95 3e e1 9f c1 be 68 06 d8 3c
       0.1358049 0.2915735 -0.3781729 0.026370242
000150 59 14 62 3d 17 d6 0f 3f 6c 60 11 bf 23 ae ae be
       0.055195186 0.5618605 -0.56787753 -0.3411723
000160 87 80 16 bf 4f c3 a7 3e ca 60 9c 3e 86 fa 0f 3f
       -0.5878987 0.32766196 0.30542594 0.56241643
000170 8f d6 26 3d 01 2f 1e 3e 3d 56 6e 3e 1c fc cd 3e
       0.040731963 0.15447618 0.23275085 0.40231407
000180 b5 88 9e 3d 89 ec 1b bf 36 2c 9a be 98 6c 16 be
       0.077409185 -0.609078 -0.30111855 -0.14689863
000190 8c 4f 54 be 43 01 09 3f 6f 59 ae bc ce d4 15 bc
       -0.2073347 0.5351755 -0.02128288 -0.009144975
0001a0 09 d5 88 bd d8 a7 03 be 8f fe 8f 3d 10 fb c1 be
       -0.06681258 -0.12856996 0.07030975 -0.37886858
0001b0 36 b3 ba bd d8 09 13 bf de cf b7 3c f8 7e 13 be
       -0.09116213 -0.57436895 0.022437986 -0.14403903
0001c0 a7 b8 d6 bd 5a 77 80 3e cf 07 09 be e0 59 41 3e
       -0.104844384 0.25091058 -0.13381885 0.18881941
0001d0 fd 64 53 3d b5 87 c3 3e b0 50 30 bf 6b 9d da be
       0.05160998 0.38189474 -0.6887312 -0.42698225
0001e0 5c e8 89 be 71 15 d3 bd 87 c6 8f 3e 5e 09 2a 3f
       -0.2693509 -0.10306824 0.28081152 0.66420543
0001f0 f8 c5 0f be 5e 3d f2 3e 73 2b b2 bd 00 13 f5 bc
       -0.14040363 0.47312444 -0.086996935 -0.029916286
000200 e8 43 1a 3e bd 1e 8d 3d ee a9 6e be a7 74 14 3e
       0.15064967 0.068906285 -0.2330701 0.14497624
000210 fd 43 9c be 01 ca 45 be 8e 5f 78 3e 5d 3c 8e 3e
       -0.3052062 -0.1931534 0.24255201 0.2778043
000220 8c 4e 14 3d f6 2d 99 3e 59 e4 9d bb de c2 c1 3e
       0.03620772 0.29917878 -0.004818481 0.37843984
000230 5b 4a 94 3e 03 c4 0e bf 5c 51 b0 3e d9 bd c5 bb
       0.2896298 -0.5576784 0.34437072 -0.0060345945
000240 97 c7 9a be e4 be 26 3e 5f be e4 3c 8b c7 29 3e
       -0.302304 0.16283756 0.027922807 0.16580026
000250 02 3c 1f bf e9 1b 73 be 19 33 19 3c 62 a2 30 3d
       -0.6220094 -0.23741116 0.009350562 0.04312361
000260 38 fc db be a1 f9 66 be 9f 64 ef 3e f1 06 1d be
       -0.42965865 -0.22556163 0.46756455 -0.15334679
000270 e0 69 bb be 29 0a d5 bd b8 10 c0 bd 99 de 82 be
       -0.36604214 -0.104023285 -0.09378189 -0.25560454
000280 47 cb 7a 3d af 7e f6 3e 8c 19 aa be 79 8b 6a 3d
       0.061229017 0.48143527 -0.33222616 0.057261918
000290 48 b0 d0 3b 9e a9 de be 14 eb 08 bd 22 61 04 3c
       0.0063686706 -0.43488783 -0.033427313 0.008079799
0002a0 f6 b1 4b 3e b7 73 2b 3e 72 c3 0b be 51 c1 fd 3d
       0.19892105 0.1674336 -0.13648775 0.12390388
0002b0 ac e2 a2 3e c2 0e 09 bf 36 bd 08 bf 55 63 69 3b
       0.31813562 -0.53538144 -0.5341371 0.0035612185
0002c0 57 91 be 3e 41 85 8b be 44 22 f4 3d f1 fc 01 3e
       0.3722026 -0.27250102 0.11920598 0.12694146
0002d0 13 68 75 bf 03 0b 08 bf 5d cb b3 3e 8f 25 f1 bc
       -0.9586193 -0.531418 0.3511609 -0.029436855
0002e0 2d d4 c5 3c b6 4b c2 be b1 13 1d be 98 9d 37 bf
       0.024149025 -0.37948388 -0.15339543 -0.71724844
0002f0 cd e1 22 bf ec 02 e1 bd a1 3f 85 be f1 4e aa be
       -0.63625795 -0.109868854 -0.26025108 -0.33263353
000300 4e ea 9c be 69 ea c4 3e 78 01 06 3e ad d3 80 3b
       -0.3064751 0.3846009 0.13086498 0.0039314837
000310 0e c0 2c bb 57 01 d4 be fa b7 2a 3e a1 9b 32 3e
       -0.002635959 -0.41407272 0.16671744 0.1744218
000320 e9 8c 21 bd 76 ee 32 3e 42 12 7a bd ce 0a 13 3c
       -0.039441023 0.17473778 -0.06105257 0.008974744
000330 d4 62 0d bd 6b bd 56 3e df 38 63 3e 1f 06 6b 3e
       -0.034518078 0.20970695 0.22189663 0.22951554
000340 0e c3 25 be 5c 7e 75 3d 0a f9 ae 3e 6f c0 82 3e
       -0.16187689 0.05993496 0.34174377 0.2553744
000350 a2 e7 a4 bd 14 fe 30 bf 60 1f ec 3e 21 14 0b bd
       -0.08051993 -0.6913769 0.46117687 -0.033954743
000360 ee a9 58 be 69 53 0b 3d de 2e 81 3e 75 ee 18 bf
       -0.21158573 0.034015093 0.2523107 -0.59738857
000370 a9 37 12 bd ef b4 32 bf 52 5a 9d 3e 60 d9 32 be
       -0.035697613 -0.6980733 0.3073297 -0.17465734
000380 5f 04 75 be 2d ac d1 3d 1f 88 40 3e 65 6f d5 3c
       -0.23927449 0.10237918 0.18801926 0.026054094
000390 a1 c7 06 3e 78 bf 45 be ab 5e 9a be 63 8b c3 be
       0.1316209 -0.19311321 -0.3015035 -0.3819228
0003a0 67 76 dd 3d 5d b0 9e be 57 22 00 be ba ae 15 bd
       0.10813599 -0.3099393 -0.125131 -0.036543585
0003b0 5a d5 b2 be be 37 aa be c0 06 c7 be fa ff d4 3d
       -0.349284 -0.33245653 -0.38872337 0.10400386
0003c0 22 03 4e bd 38 28 9c be 3b 35 7e 3e bb 90 aa 3c
       -0.050295956 -0.30499434 0.24824993 0.020820966
0003d0 1b a8 06 3e 4c d2 84 bd 31 de 9e 3d 6f 61 83 be
       0.13150065 -0.064854234 0.077572234 -0.25660273
0003e0 84 5c 5d 3e d8 c8 07 3e 96 ed 05 bf b9 ce 2f be
       0.21617323 0.1326021 -0.5231565 -0.17168702
0003f0 20 01 eb 3d 89 13 8c bd 27 57 f6 3e 02 0d ee 3d
       0.11474824 -0.068396635 0.48113367 0.11623575

fc1.bias f4 [128]
000000 20 ae ca bc 78 93 5c be e2 42 84 3d 66 3f 31 bd
       -0.024741232 -0.2154063 0.064580694 -0.043273352
000010 10 8e 39 bd 99 84 15 be 3f e0 2a be 77 e1 50 3e
       -0.045301497 -0.14601363 -0.16687106 0.20398508
000020 3b 47 3c bd a8 76 0e bd fe f6 f0 bd 93 7b 1a 3d
       -0.04596637 -0.03478113 -0.1176586 0.037715506
000030 dc 54 86 bc ff 81 ce bd 29 92 db bd 9a 8a 6f bd
       -0.016397886 -0.100833885 -0.10721237 -0.05848179
000040 6f eb 96 3c c2 9a 5a 3d 08 e2 9a bb 34 0c 59 3b
       0.01842281 0.053370245 -0.004726652 0.0033118846
000050 95 0c e4 bd 04 01 ae 3d eb 46 b1 bc 38 3c 09 be
       -0.11135212 0.084962875 -0.021640262 -0.13401878
000060 ee 38 6f bd 5b 50 e1 3d 43 b2 15 be 9b 3d c9 3e
       -0.0584039 0.11001655 -0.14618783 0.39304814
000070 22 4b 1a bd 19 72 8b 3d 89 49 43 bd 78 ba 22 3e
       -0.03766931 0.06808872 -0.04767755 0.15891445
000080 95 03 7d 3d c8 80 0a bc f1 79 04 be cf 1d 96 be
       0.061770994 -0.008453555 -0.12937142 -0.29319617
000090 95 c8 23 be a6 9e 2d bd 36 50 91 3e aa 0e 0c bd
       -0.15994485 -0.042387627 0.2838151 -0.034193672
0000a0 d2 24 dd bd 34 5b e7 bd ed 82 16 bd 7b 09 87 be
       -0.107980385 -0.112966925 -0.036745954 -0.2637442
0000b0 e1 aa 9a bd 11 94 22 3d 9c 14 23 3e bf 06 25 3e
       -0.07552124 0.03969199 0.1592583 0.16115855
0000c0 2f 1a f7 bc 27 65 c4 bd 78 44 8a be 0f 26 59 be
       -0.030163852 -0.09589606 -0.27005363 -0.21205924
0000d0 3a ae 6f bd 58 41 46 3e 1b 39 2d be 0e af a2 3d
       -0.058515765 0.19360864 -0.16916315 0.07943545
0000e0 ee db b3 bc 56 9b d9 bd 37 58 e5 bd 09 94 87 3e
       -0.021955457 -0.10625331 -0.11198466 0.2648013
0000f0 86 02 b8 3d 7c 9e a8 bd ab fc 4c 3e 00 de 21 bd
       0.08984856 -0.082333535 0.2001826 -0.039518356
000100 57 c2 ce 3d 93 b2 16 3c 89 03 f7 3d 11 8b 86 be
       0.10095661 0.009197849 0.12061221 -0.26277974
000110 3b 25 98 3d 1b 9c 9c be c9 0d 96 bd 83 ea da be
       0.07428976 -0.3058785 -0.07326848 -0.42757043
000120 3a a6 e2 bd e2 63 40 be 1c c4 15 3d ed a8 b2 3e
       -0.110668615 -0.18788102 0.036563978 0.34894505
000130 33 d7 2d 3e 01 58 0a 3e e3 89 64 bc 1e 7d a9 be
       0.16976623 0.13510133 -0.01394889 -0.3310327
000140 eb ce fa bb b9 27 20 be 12 7d ef be f4 10 ea bd
       -0.007654061 -0.15640153 -0.4677511 -0.11429015
000150 9a 22 a1 3d 97 5a 9f 3d 1b e1 e4 bd 29 26 8c 3d
       0.07867928 0.077809505 -0.11175748 0.06843216
000160 4e d2 58 be b2 3c aa 3d d1 75 9a 3d fe 6d 11 bd
       -0.21173975 0.08312358 0.07542003 -0.035505287
000170 d1 5c f7 bd 48 9d 32 3e 50 9b 14 3e 30 c5 3a ba
       -0.1207825 0.1744281 0.14512372 -0.000712472
000180 7c 08 c0 bc c4 6b 91 3e 61 38 05 bd 1c a4 c6 be
       -0.023441546 0.2840253 -0.03252447 -0.3879708
000190 bd 6d 53 be c0 b5 4f 3c f2 4f 4e 3e 33 dd 80 be
       -0.2064733 0.01267761 0.20147684 -0.25168762
0001a0 3f a8 b9 bb 8e 7a c4 3e c7 1a 04 3e 45 16 1f 3e
       -0.0056658085 0.38374752 0.1290084 0.15535839
0001b0 d5 28 3e bd 13 0a 55 bd 37 76 dd bc 2f 10 24 3e
       -0.04642566 -0.05201156 -0.027033908 0.16021799
0001c0 ed 1f 39 bd b5 64 9e bd 6c 87 1f bd 5d 97 10 be
       -0.045196462 -0.07734052 -0.038947508 -0.1412024
0001d0 c3 39 86 3e 37 fc 52 bd 99 c0 13 3d 6a e2 4c 3e
       0.26215944 -0.051510062 0.036072347 0.20008245
0001e0 2d 04 af 3d ce be 17 be 5d 3a 96 be 1d 2c ba 3e
       0.08545718 -0.1481888 -0.29341403 0.3636178
0001f0 49 a0 89 3d a6 1c 9c 3d c5 f9 bc 3a 2d 70 8c be
       0.06720025 0.07622652 0.0014417699 -0.27429333

fc1.weight f4 [128, 1024]
000000 a6 3f 5f 3e 4a 3b cd bd ee 07 b8 3d d8 68 87 bd
       0.21801624 -0.10021074 0.089858875 -0.06611794
000010 d0 59 0a be 38 08 1b 3e c8 74 82 bc d2 b3 1d 3e
       -0.13510823 0.15139854 -0.015924826 0.15400627
000020 75 6e 01 3e ec 82 fb 3e 72 ee ae 3d 76 09 0d 3e
       0.12639792 0.49123323 0.085415736 0.1377314
000030 ee c0 e9 3e 5f ea a9 3c cf eb d2 3e 0f 70 cb bd
       0.45655006 0.02074164 0.41195533 -0.09933483
000040 2f 5e c1 be c3 ec d8 bb 17 ef 17 3f 22 a3 6e 3e
       -0.3776717 -0.006620021 0.593492 0.23304418
000050 e1 74 59 be 09 6f 97 3e db 9c 6e be ef 22 ab 3e
       -0.21235992 0.295769 -0.23302023 0.3342509
000060 68 4a 9a 3e c9 ca 58 be 87 4f c1 3e 0d 33 d2 be
       0.30134892 -0.21171106 0.37755987 -0.41054574
000070 a2 bc a3 bd 70 14 20 bc df cc b1 3c 00 a6 0e 3f
       -0.07994963 -0.009770498 0.021704135 0.55722046
000080 33 77 44 bd 3a 47 07 3e fb 92 b3 3e 0e a2 4b 3d
       -0.04796524 0.13210765 0.35073075 0.049715094
000090 65 b8 41 3e 4a 27 be 3e fc 64 db 3e 48 98 d6 3e
       0.18917997 0.3713935 0.42850482 0.41913056
0000a0 fd 54 b8 bc da 1a d5 3c 60 9a 0d bc 8e 4b 6c 3c
       -0.022501463 0.02601378 -0.008642763 0.0144223105
0000b0 8a d5 97 3e ef 7d d8 3e 92 a9 c5 3e 72 e9 c3 3c
       0.29655105 0.4228358 0.38605934 0.023915026
0000c0 ea 3f cf 3e 58 4f a7 bc 22 76 ec be df 56 b1 3c
       0.4047845 -0.020423576 -0.46183878 0.021647869
0000d0 47 f4 e0 3d 7e 26 6d 3e d4 2b 6a bc db fe 7d 3c
       0.10984092 0.23159215 -0.014292676 0.015502657
0000e0 7c 3b 00 3d 32 81 c0 3c 01 d9 11 bd 87 d3 30 3e
       0.03130673 0.023499105 -0.03560734 0.17268191
0000f0 27 ba 8e 3c d7 93 58 3d 26 70 e4 bc b4 4e 2b 3e
       0.017422749 0.052875366 -0.027885508 0.16729242
000100 88 d8 4b 3e 80 7a 6b be 71 08 88 bf 68 34 27 3a
       0.19906819 -0.22995949 -1.0627576 0.00063783536
000110 70 54 73 3e 3d 8c ac be 99 e2 98 bc 5d 2c f3 bd
       0.23762679 -0.33700743 -0.018662738 -0.11873696
000120 2f dd 87 be b8 53 b7 be de 96 07 3e 7f 41 52 be
       -0.26535937 -0.3580606 0.13241145 -0.20532797
000130 93 66 6e 3e 0e c7 e5 3c 7a cd a6 3e ee eb c3 b8
       0.23281316 0.028049018 0.3257864 -9.34227e-05
000140 c5 6c d8 bd 2d 1c 98 3e 35 04 23 3e 43 99 06 3f
       -0.10567621 0.29708996 0.15919574 0.5257761
000150 05 e9 5f 3d 26 75 48 3e c3 5b 35 3e b5 b2 12 3f
       0.054665584 0.19575939 0.17710786 0.57303935
000160 2a 1a 29 3e c4 b2 e0 bd 81 fc d2 bd 4b 39 e5 be
       0.16513887 -0.10971597 -0.103020675 -0.44770274
000170 c2 ea 05 be a6 33 f4 3c c5 84 4a be d6 08 26 3f
       -0.13077834 0.029809784 -0.1977721 0.6485723
000180 b7 3e a1 3c 05 6c f1 3d 27 c8 b0 3e 2c f2 06 3f
       0.019683225 0.11788181 0.34527704 0.52713275
000190 92 96 d9 3d 21 2f 32 3e 14 d5 bd be 42 77 4e 3b
       0.10624422 0.17400791 -0.37076628 0.0031504189
0001a0 ad 00 88 3c 8a 26 e6 3c 4c 5b 80 bc ae f4 07 bf
       0.016601885 0.028094549 -0.015668534 -0.53107727
0001b0 1f eb 91 be 3e 45 07 3f 8b ef 87 3e e8 d5 d0 3b
       -0.28499696 0.5284003 0.26549944 0.006373156
0001c0 8f 3b ec 3d b2 d9 9f 3c 5c 35 99 be e7 3b 0f bc
       0.115347974 0.019512985 -0.29923522 -0.008742309
0001d0 e8 76 bf 3d ff 2c 75 3e 99 6f a3 bc 60 06 75 3d
       0.093488514 0.23942946 -0.019950675 0.059820533
0001e0 23 23 c7 3c 50 b1 a7 bc 3c 5a 4d 3e b9 01 89 3e
       0.024308747 -0.020470291 0.20053953 0.26759127
0001f0 01 6e 1d bc f1 62 4e 3d 4c 3f 97 3c f5 45 af be
       -0.0096087465 0.050387327 0.0184628 -0.3423306
000200 fc 46 15 be 49 f0 1f bd 2d 7a 10 3f 19 ef da bb
       -0.1457786 -0.039047513 0.56436425 -0.0066813347
000210 b4 b8 1d 3f 31 ee b6 3d 38 f8 d6 bc a5 ce 2b ba
       0.6160996 0.0893215 -0.026241407 -0.0006553925
000220 d8 87 81 3e 27 e9 7f be ff 6d af 3e ba 71 7e be
       0.25298953 -0.24991284 0.34263608 -0.2484807
000230 0e c5 3e 3e 90 ae 9e bc 44 99 8c be 02 74 bf bd
       0.18629858 -0.019370347 -0.27460682 -0.093482986
000240 de a2 b1 3e c2 03 bf 3e 6a cc 82 bc b5 3a 96 3e
       0.3469457 0.37307554 -0.015966613 0.29341665
000250 c7 08 98 bd 4f 8e ec 3c a1 79 14 be 5b ab 44 3f
       -0.07423549 0.028876452 -0.14499523 0.7682397
000260 d6 f9 8d 3d 14 0e 61 be 65 14 db be a4 63 10 3d
       0.06932418 -0.21978027 -0.42788997 0.035251275
000270 1d 26 38 3e 36 c6 d7 bc 40 ed 44 3e 03 0b 6c 3e
       0.17983289 -0.026339632 0.19231129 0.23051076
000280 90 64 d1 bd 91 6b 1d be 41 56 90 3e f6 4e 85 3e
       -0.10224259 -0.15373065 0.28190807 0.26036805
000290 b3 35 6b 3e e4 59 95 be d8 92 5e 3d d6 7e 2f 3e
       0.22969703 -0.29170144 0.05433926 0.17138228
0002a0 29 f2 88 3c 88 dd 50 3c 12 ef f5 3c 20 0f 05 bd
       0.016717033 0.01274813 0.030021224 -0.032485127
0002b0 12 be 8c 3e ba fe 8e be 88 32 7f 3d 98 c1 98 bb
       0.27488762 -0.27928716 0.06230405 -0.00466175
0002c0 aa c4 84 3e c4 f0 7b bc 6f 8f 36 3e d4 06 94 bc
       0.25931293 -0.015377227 0.17828153 -0.018069662
0002d0 fe 57 82 bd 32 69 b4 be f6 d5 81 3c 13 65 9e bd
       -0.063644394 -0.35236508 0.015849095 -0.07734122
0002e0 01 c5 a9 bd 22 57 e1 bc a0 9e df 3c 08 30 1b 3e
       -0.08289529 -0.027507368 0.027297318 0.15155041
0002f0 06 2a 09 bc 41 00 3d 3b db 9f f4 bc d3 d7 99 be
       -0.008371836 0.0028839263 -0.029861381 -0.30047473
000300 a9 ce 81 3e 0e 39 27 3d ef 1e 94 3c 9d 63 cd 3d
       0.25352982 0.040825896 0.018081157 0.10028765
000310 fd 45 81 3e d0 df 63 3e 17 8f 3c bd 88 5c bd bc
       0.2524871 0.22253346 -0.0460349 -0.023115411
000320 18 11 b6 3e 7e 25 a1 be 4a a7 94 be d0 76 8f be
       0.35559916 -0.31473917 -0.2903388 -0.28020334
000330 d0 4b dd be 30 1f cf 3b 80 05 36 3e ca 99 01 bf
       -0.43221903 0.0063208565 0.17775536 -0.5062529
000340 96 a4 e4 3e da 0e dc 3e 32 bc ef bd 05 89 9b bd
       0.4465682 0.4298008 -0.11705817 -0.07594494
000350 0f bb ef bd a1 9f 01 bd 80 c0 3d 3d be d9 23 3d
       -0.117056005 -0.031646375 0.04632616 0.040002577
000360 d3 36 d0 bd 5c 02 2e 3e 60 1f 6e 3e 59 5b 50 3e
       -0.10166707 0.16993088 0.23254156 0.20347346
000370 15 c3 1a be 0e 32 b4 39 9b 38 6b 3d de c2 4b 3e
       -0.1511348 0.0003436957 0.05742703 0.19898555
000380 3e 9a 30 3e 6a 14 4b be 07 35 b1 be f1 08 b2 3d
       0.17246339 -0.19832006 -0.3461077 0.08693112
000390 f6 19 ee 3d 33 29 26 be 4d 49 96 3d 6f f2 45 be
       0.116260454 -0.16226654 0.073382 -0.19330762
0003a0 ab b2 00 bc c6 a5 9a 3c f6 64 f3 bb 07 54 be bd
       -0.007855098 0.018877875 -0.007427807 -0.09293371
0003b0 de e8 b8 3d 71 5b 8d be 92 73 a1 bd 69 bb a8 b9
       0.09028791 -0.27608827 -0.078833714 -0.00032183088
0003c0 5f a1 f5 bd f6 15 b1 3c 74 14 3c bd 05 49 b1 3c
       -0.1199367 0.021616917 -0.045917943 0.021641264
0003d0 83 3a 33 bd 14 21 4b 3c a6 1a a9 bc c6 40 d2 be
       -0.043756973 0.012398023 -0.02064259 -0.41065043
0003e0 2f bc e7 bd 20 2e 55 3c ad 20 fc be 0f 48 09 3e
       -0.1131519 0.013011485 -0.4924368 0.13406394
0003f0 50 a2 c6 3c f2 20 1a 3d 54 ba 7f 3c 31 41 ae 3e
       0.024247319 0.037629075 0.015608389 0.34034112

fc2.bias f4 [49]
000000 8c 92 30 bf 03 dd 5d bf f3 81 7b bf d2 fb 6d bf
       -0.6897361 -0.8666536 -0.9824516 -0.9296237
000010 a5 26 30 be ac 0f 44 be 7b 1e 25 bf 1d 15 c6 3d
       -0.17202242 -0.19146603 -0.64499635 0.09671996
000020 66 1b 16 bb 25 30 42 be f6 a3 a5 be c5 3b c1 be
       -0.0022904514 -0.18963678 -0.32351655 -0.37740913
000030 14 7c 1b be 16 b0 99 be 8c c3 44 be fb 10 0f bf
       -0.15184051 -0.30017155 -0.1921522 -0.55885285
000040 9a c5 81 be 7a b8 22 bf b0 82 f3 bd b7 dc bb be
       -0.2534607 -0.6356274 -0.11890161 -0.3669183
000050 97 25 af 3e 32 e2 c1 3d b7 84 16 bf 35 47 37 3e
       0.34208366 0.094669715 -0.58796257 0.17898257
000060 aa c1 f5 be b4 a3 53 3e aa 73 82 3c a4 48 ef 3d
       -0.47999316 0.20667917 0.015924294 0.11683777
000070 ca 31 e2 be 18 a7 7e be a5 52 f9 3e a8 40 8e 3e
       -0.4417861 -0.24868429 0.48695865 0.27783704
000080 16 73 30 be ff 37 09 bf 81 28 1d bf ad 85 24 bd
       -0.17231402 -0.5360107 -0.6138993 -0.040166546
000090 28 84 d5 be 15 60 46 be f5 32 f8 be c4 42 3e bf
       -0.4170239 -0.1937259 -0.48476377 -0.74320626
0000a0 77 e7 0c be f2 99 37 bf c9 fb aa be b9 bf 40 be
       -0.13760172 -0.71719277 -0.33395222 -0.18823136
0000b0 19 5f 2c bf 29 26 30 3d 3e f5 45 bf 91 8f 50 bf
       -0.6733261 0.043005142 -0.77327335 -0.81469065
0000c0 5d 0b 00 40
       2.0006936

fc2.weight f4 [49, 128]
000000 af 9c 69 3d aa 30 05 c0 f3 5e 02 3e 3c 8e d6 bc
       0.05703419 -2.0810952 0.12731533 -0.02619087
000010 10 7f 8b bd 18 81 10 c0 06 07 c3 bf 06 47 98 bf
       -0.068113446 -2.2578793 -1.5236518 -1.1896675
000020 a2 f1 c5 3c a7 99 8f 3d d3 6a cf bf ee 8e da bf
       0.024163071 0.07011729 -1.6204475 -1.7074869
000030 04 c0 70 bf ab 34 00 c0 49 7c 94 3d 46 2a d4 be
       -0.9404299 -2.0032146 0.07250268 -0.41438502
000040 89 a3 33 bf 62 78 34 bf ec 2a 42 bd 52 37 9b 3d
       -0.7017141 -0.7049619 -0.047404215 0.07578911
000050 58 c7 87 3d 1a ed 89 bf 5f d0 44 bd 14 0d 31 bf
       0.06629819 -1.0775483 -0.04805028 -0.6916058
000060 b9 6b 81 bf 42 fc e5 bf 6b ed e7 c0 f9 ed 84 bf
       -1.0110999 -1.7967608 -7.2477317 -1.0385123
000070 da b9 41 3c 6a 44 a6 bf 75 2d 1e bf 95 0c 80 3d
       0.011824096 -1.2989628 -0.6178811 0.062524
000080 f1 dc 78 bd d4 8b 38 bf da 7d 11 c1 ce 4f 21 bd
       -0.06075758 -0.7208836 -9.0932255 -0.03938275
000090 10 25 cb bf c6 a4 b6 bf 12 30 c4 be 71 8d 84 c0
       -1.5870686 -1.4269035 -0.38317925 -4.142266
0000a0 26 19 df 3d 56 9c 2c 3d 12 8a 92 3d 9c d8 08 c0
       0.108934686 0.04214128 0.07155241 -2.1382208
0000b0 dd c3 78 bf e6 d7 20 bf db 36 e9 3c a4 9a 0d c1
       -0.97173864 -0.62829435 0.02846854 -8.850254
0000c0 0a e8 27 bd d7 46 a8 bd b5 09 98 bc a9 d7 fa bb
       -0.040992774 -0.08216637 -0.018559316 -0.007655103
0000d0 d9 f0 d4 bf d5 77 b9 bd a9 af 84 3d a5 3a 8c bd
       -1.6636001 -0.09056059 0.06478817 -0.06847123
0000e0 28 2d 03 bd bf ca bd bf 10 a1 fb bf 42 25 db bc
       -0.032025486 -1.4827498 -1.9658527 -0.026751164
0000f0 23 ef e9 bd f1 77 1b be fd c8 68 be 69 c1 89 3d
       -0.11422565 -0.15182473 -0.22732921 0.06726343
000100 10 55 a4 bf 41 32 a9 be d5 8f a2 bf 9e 02 5a bf
       -1.2838459 -0.33046153 -1.2700144 -0.85160244
000110 8c 39 80 bd 26 02 3c be fe 2b 97 bf e9 e0 2d bc
       -0.06260976 -0.18360195 -1.18103 -0.010612705
000120 ab ff 96 3d e5 f7 67 3d e1 55 b5 3c a4 d8 80 bf
       0.073729835 0.056632895 0.022135677 -1.0066113
000130 e4 94 99 bf 2b 47 00 bf 4b 02 a2 bc 5f c5 2a c0
       -1.1998563 -0.50108594 -0.019776484 -2.6682966
000140 0d 98 a1 3c 8d 2c ec bc 62 33 59 3c 0b bf c4 bf
       0.019725824 -0.028829837 0.0132568795 -1.5370802
000150 bd 50 cd 3c 23 a9 5f bf ea fa fb bf 98 9c c8 bf
       0.025062913 -0.8736746 -1.9685948 -1.5672789
000160 1d 15 61 bf 94 37 07 c0 77 a2 8b c0 4b a1 8d bd
       -0.8792284 -2.1127672 -4.363582 -0.0691553
000170 86 5c 28 bf d6 74 d4 c0 d2 c5 a6 bf aa 1b 3d bc
       -0.6576618 -6.639262 -1.302912 -0.01154224
000180 56 04 f1 bc 42 19 e5 bf 81 27 04 bd ec 7b 95 bf
       -0.029421013 -1.7898333 -0.032264236 -1.1678443
000190 6f 33 8a bf fe ba e1 bb ab 22 ce bf 85 aa c3 bb
       -1.0796946 -0.0068887463 -1.610433 -0.0059712552
0001a0 66 04 d2 bf a1 6d e6 bf d5 ee cb bf 1b e2 cc bf
       -1.6407592 -1.8002206 -1.5932261 -1.6006502
0001b0 39 cf 95 bd 1f b2 49 bd 3e ef 7c bd 95 0d 90 bd
       -0.07314915 -0.049242135 -0.061751597 -0.070338406
0001c0 c3 68 4e bd 16 7e 91 bf 1f 59 1f c0 1c 15 d1 bf
       -0.050392877 -1.1366603 -2.4898145 -1.6334567
0001d0 81 f3 dd be 63 8e 2f 3d 8e e7 cc bc 04 ee 7f be
       -0.4334984 0.0428604 -0.025012758 -0.2499314
0001e0 4e 1a e7 bf 31 d7 f9 bf ce 7e cb bd 4e df a4 3d
       -1.8054903 -1.9518796 -0.099362954 0.080504045
0001f0 36 46 d8 3c ca 54 d4 bf 8b f2 a7 bf e6 72 75 3d
       0.026400667 -1.6588376 -1.3120893 0.05992403
000200 e8 e9 d3 3c f0 11 a9 bf 89 aa ee be b0 59 8f bd
       0.025868371 -1.3208599 -0.46614483 -0.069995284
000210 8b 31 83 bc 41 62 dc bf 9d 67 0a c0 1d cd 35 bd
       -0.016014835 -1.7217485 -2.162574 -0.044385064
000220 aa ea c6 38 5c e9 ee bc 01 6a fb bd fd 57 81 bc
       9.485085e-05 -0.029164009 -0.12276078 -0.015789026
000230 88 83 8b c0 ca 32 20 bc 60 4f fc 3d 37 b4 f1 bd
       -4.359806 -0.009777734 0.12319827 -0.118019514
000240 7f 24 87 c0 29 89 48 bd e5 4b 2d bf ca a0 a5 3d
       -4.223205 -0.04895893 -0.6769393 0.08087309
000250 6f cd 54 3d 18 86 df bc f2 a5 fa bc 0e 9a 44 bf
       0.05195373 -0.02728562 -0.030596707 -0.7679757
000260 99 44 df bf 89 f9 59 3d 95 48 83 bf cd 13 58 bf
       -1.7442809 0.05321649 -1.0256525 -0.84405214
000270 87 2f 88 bd e1 f4 08 c0 e7 94 b4 3d 08 6c 8f bf
       -0.0664969 -2.1399462 0.08817463 -1.1204844
000280 76 aa 83 be 5c e9 3b bf 9a 1f 30 c0 7b 48 ef bd
       -0.2571599 -0.73402953 -2.7519288 -0.116837464
000290 ba f2 04 c0 71 78 e9 3c b9 82 95 bd 74 30 92 c0
       -2.0773149 0.028499814 -0.07300324 -4.5684147
0002a0 fa 9f c0 3c e0 1c c1 be b1 13 68 3d 66 de ef bf
       0.023513783 -0.37717342 0.056659404 -1.8739746
0002b0 c5 c0 92 c0 fc 1b ac bd e2 be 9a 3d 26 3e 21 c0
       -4.5860314 -0.08403775 0.07555939 -2.5194182
0002c0 30 c5 88 3c 48 71 37 bf 81 41 09 3d 42 56 0a bd
       0.016695589 -0.7165723 0.033509735 -0.033773668
0002d0 fa 53 69 bf 85 e0 32 bf f6 dd d4 be 3a 78 2f bf
       -0.91143763 -0.6987384 -0.41575593 -0.68542826
0002e0 04 29 3e 3d 41 fb 00 be 71 ef 14 c0 5e 54 65 bf
       0.046425834 -0.12595846 -2.3271143 -0.8958186
0002f0 3d 07 3e be 99 46 2c be ca 0b 25 bf 2b 35 d3 3c
       -0.18557449 -0.16823806 -0.64471114 0.025782188
000300 80 1e 76 be 26 d0 30 bf 3c 00 bd bd 3b 35 11 c0
       -0.24035072 -0.6906761 -0.0922856 -2.268874
000310 65 34 06 c0 21 6a 9d c0 5b 0b d1 3c 92 3d e1 3c
       -2.096948 -4.919205 0.02551811 0.02749518
000320 f6 4e 78 3d f1 ca 06 3d 6d 22 b5 bf 67 66 28 c0
       0.060622178 0.032908384 -1.4151131 -2.6312501
000330 ea 5d ce bf 02 90 4c bf f0 f8 94 bd cd c4 b5 bf
       -1.612241 -0.7990724 -0.072740436 -1.4200684
000340 50 5f a3 bd dc de d0 3d 08 af ec bf 0e 22 08 c0
       -0.07977164 0.10198757 -1.8490915 -2.1270785
000350 1b ff e6 3c 56 9e a4 be d5 20 c3 bf 00 9e 93 bf
       0.028197816 -0.3215205 -1.5244395 -1.1532593
000360 59 3a b0 be a0 63 ce bf a7 2f ca c0 e0 92 4b bd
       -0.34419516 -1.6124153 -6.318317 -0.049700618
000370 1b a5 57 bf 80 04 06 c0 6a 01 e7 bb 11 ca 0f bd
       -0.84236306 -2.0940247 -0.007049729 -0.035104815
000380 90 66 5f 3d 14 3c 3d bf bf 87 a8 bd 50 92 6f bf
       0.05454117 -0.73919797 -0.082290165 -0.9358263
000390 69 07 b6 3c ee a9 d6 bf b0 43 9c bf ec f0 1f bd
       0.02222033 -1.6770608 -1.2208157 -0.03904812
0003a0 a5 82 87 bf 74 1d 7d bf 1e ca 57 c0 3e a9 f8 bf
       -1.0586745 -0.98873067 -3.3717113 -1.9426649
0003b0 b8 d6 a9 bd d5 93 b9 bd 16 d1 4e bc a5 55 0f bd
       -0.082929075 -0.090614 -0.012623092 -0.034993786
0003c0 14 c0 ab bf 8c 7e e6 be 58 4c 24 c0 da 34 98 be
       -1.3417993 -0.45018423 -2.5671597 -0.29727823
0003d0 a5 00 5c bf 62 5d 5c 3d 83 34 ae bf f9 c2 84 bf
       -0.85938483 0.053799994 -1.3609775 -1.0372001
0003e0 a3 96 a1 bf 75 72 a6 c0 d2 29 ec bd b6 7f c4 bc
       -1.2624096 -5.201472 -0.11531414 -0.023986679
0003f0 b5 05 b1 bf 34 93 57 c0 58 85 e4 bc 7b 3a 02 3d
       -1.3829867 -3.3683596 -0.027895615 0.031794053
