src/chess_cv/weights/arrows.safetensors (safetensors, 645195 bytes, 10 tensors)

conv1.bias f4 [16]
000000 86 f5 0b 3e 68 2b 89 bc 18 79 9d 3d 2b 06 be bd
       0.13667879 -0.01674433 0.076891124 -0.0927852
000010 6a e1 91 be d1 be 9a bd 85 94 4f bf 5c 9a 72 3e
       -0.2849229 -0.075559266 -0.81086 0.23691696
000020 1c 7c f2 bd b7 91 ee 3b 1c 6a d4 3d 68 e7 90 bd
       -0.11840078 0.007280554 0.10371801 -0.07075387
000030 80 ef 73 3e 63 28 cb bd 5e 88 57 be 5f 1d fc bc
       0.23821831 -0.099198125 -0.21048114 -0.030775724

conv1.weight f4 [16, 3, 3, 3]
000000 9a fd 61 be bf b1 32 3d 29 fa 9a 3d 56 c3 8b be
       -0.22069398 0.043626543 0.075672455 -0.27297467
000010 dd ee bd 3c e8 83 1c 3d 0c fe 60 be ff d6 34 bc
       0.023185188 0.038211733 -0.21971911 -0.011037587
000020 21 d4 a5 3d 32 37 85 be e5 95 51 bd 4f 02 f9 3d
       0.08097101 -0.26018673 -0.05116834 0.121586435
000030 22 74 83 bc 10 56 f1 3d 77 ea 3c 3d a8 01 aa be
       -0.016046587 0.11783993 0.04612204 -0.3320439
000040 24 fc 4e 3d bb 3e 4f 3d f4 f8 00 bc b1 9c 34 bd
       0.05053343 0.050596934 -0.007871855 -0.044094745
000050 56 db e2 bd 5e 4f 6f be 23 a3 db bb 10 b6 f3 3c
       -0.11076991 -0.2337012 -0.006702797 0.0297499
000060 86 f2 66 be 2b b2 1d bd 20 7f 10 3d c9 6b 0f 3c
       -0.22553453 -0.038499992 0.035277486 0.008753725
000070 36 fb 1e be 80 08 e9 3d 01 bc d4 3a 3a 01 05 be
       -0.15525517 0.11378574 0.0016230346 -0.12988749
000080 4d 52 14 3e c2 24 ca bc 5d 48 24 be ef f1 0a 3e
       0.1448452 -0.02467573 -0.1604323 0.13568853
000090 5b f0 25 3b 81 88 01 be bf 78 0b 3e e0 41 b6 3c
       0.0025320265 -0.12649728 0.1362028 0.022248209
0000a0 a2 65 3e be 1c 73 4c 3e 0a 1c bc 3c 32 9d 05 be
       -0.18593457 0.19965786 0.022962589 -0.13048247
0000b0 bb 8c 01 3e e5 04 ce 3a ba fc 22 be 7c f4 de 3d
       0.1265134 0.0015718011 -0.1591672 0.108864754
0000c0 0d 4a 32 bc 81 9c cd bd 2a f6 ef 3d 4e 79 80 3c
       -0.010881913 -0.100396164 0.11716874 0.015682843
0000d0 0f 39 17 be 3f aa ce 3d ca 9f 9c 3d 1f a2 74 bd
       -0.1476786 0.100910656 0.07647665 -0.059724923
0000e0 53 ea 24 bd b4 fb ce 3d 19 c8 7e bd 10 0d 51 bd
       -0.04026253 0.10106602 -0.062202547 -0.051037848
0000f0 2d 99 cc 3d 65 f5 7f bd 76 ef e5 bc cf c3 d5 3d
       0.099901535 -0.062489886 -0.028068285 0.10437738
000100 54 75 8a bd 28 cc 05 bd 81 5f 24 3e 27 a4 cf bd
       -0.0676066 -0.0326654 0.16052057 -0.101387314
000110 19 40 8e bd d7 a7 c8 3d 0b 34 37 bd 4e d3 6b bd
       -0.069458194 0.09797638 -0.044727366 -0.057574563
000120 40 d0 c5 3d 42 c3 90 bd 32 73 43 bd 2e 81 df 3d
       0.09658861 -0.070684925 -0.04771728 0.10913311
000130 53 f2 84 bd ec 13 40 bd 6f ca b6 3d d0 4b 95 bd
       -0.06491532 -0.046894 0.0892533 -0.07289851
000140 d9 b0 21 bd e1 4e b7 bd 35 85 be 3b 20 84 66 3d
       -0.039475296 -0.08950592 0.0058142194 0.056278348
000150 9f 3f bc bd 68 79 90 bd fa 88 e7 ba 46 cc 06 bf
       -0.09191822 -0.070544064 -0.0017664724 -0.52655447
000160 53 8a 67 3c 3e fc a3 3d 1f 06 39 3e 4a 28 93 3c
       0.0141321 0.08007096 0.18068741 0.017963547
000170 b7 91 66 bd 73 39 a6 3e f4 ed cf 3c 63 91 c7 bc
       -0.05629131 0.32465705 0.02538202 -0.024361318
000180 ac 74 98 bd 6d d2 1c be 02 16 15 be d6 38 ff 3d
       -0.074441284 -0.15314646 -0.14559177 0.124620125
000190 35 8a ad bb be 12 a8 3c d7 ea 2b 3e 96 5d c1 3c
       -0.0052960166 0.02051675 0.16788803 0.023604196
0001a0 60 26 4d 3c a7 97 ac bc 1c bd 58 bd 63 0c 89 bc
       0.012521356 -0.021068407 -0.052914724 -0.01672954
0001b0 35 44 b9 3c 61 01 16 3d d3 f6 75 3c 9b 4d f4 3c
       0.022615531 0.03662241 0.015012461 0.029822161
0001c0 ce 60 15 3d 6d 1b be 3b 51 8a 94 3c c9 ab 82 3c
       0.036469273 0.0058016093 0.01813236 0.015951054
0001d0 38 16 fd bb b1 76 4f 3d cb 32 66 3d ff a7 da 3c
       -0.007723596 0.050650302 0.056200784 0.026691435
0001e0 4e 13 69 3d 23 a2 9a 3d 0f 41 69 3d 82 fe fc 3c
       0.056903176 0.075504564 0.05694681 0.030883078
0001f0 41 6a 0d 3d da bc 38 3c 87 45 89 3d ad 73 93 3d
       0.03452516 0.0112754945 0.067027144 0.07199798
000200 ec d9 06 3d 8d 09 8d 3d fb 24 a9 3d c1 d1 ff 3c
       0.03292267 0.06886587 0.082590066 0.031227948
000210 1e 71 16 3d a1 3e 58 3d 3a 15 1c 3c 95 07 d4 be
       0.03672897 0.052794103 0.009526545 -0.41412035
000220 c5 96 c1 be d8 9c 80 be a9 b9 21 bd 1f 84 ae bc
       -0.3781034 -0.25119662 -0.0394837 -0.021303235
000230 eb 93 68 bd 61 26 5a 3b e9 c6 5a bc 4a c6 bb 3c
       -0.05678169 0.0033287036 -0.013353088 0.0229217
000240 e2 01 3d 3d ff 55 8e 3c 1e 39 2f 3d f4 c5 37 3e
       0.046144374 0.01737499 0.04277908 0.17946607
000250 47 c4 26 3e ee a6 d9 3d f2 8a ba 3d 65 2e b9 3d
       0.16285811 0.106275424 0.09108533 0.09042052
000260 39 5c 81 3d b9 de 2c bd bf a3 12 bd d6 e7 81 bc
       0.06316418 -0.042204592 -0.03580069 -0.015857618
000270 1e 49 35 3d ed 7e 54 3d bf 75 76 3c 05 f7 61 3d
       0.044259183 0.05187886 0.015042721 0.055167217
000280 bc 27 e6 bb f2 da bf ba bd 0f 6a 3e 28 ed fc bc
       -0.0070237797 -0.0014637394 0.22857566 -0.030874804
000290 a3 5f 2e ba da 45 cb 3d 14 46 eb bc d3 8a 83 3c
       -0.0006651824 0.099254325 -0.02871994 0.016057407
0002a0 66 32 19 3e e1 bb 1a bc 42 26 65 bd 33 5e e2 3d
       0.14960632 -0.009444208 -0.05594469 0.11053123
0002b0 e5 31 40 bd 8f c4 0f be f0 68 d0 3d f9 52 09 bd
       -0.046922583 -0.14039825 0.10176265 -0.033526395
0002c0 ba 1c 13 3e 0a 90 e8 3d 43 1c 7f bd 3a 7a 86 bc
       0.14366427 0.11355598 -0.06228281 -0.016415704
0002d0 da ac 3d 3e d7 74 76 bd ef 3d 51 3c 17 61 94 3d
       0.18522969 -0.06017002 0.012771114 0.07245081
0002e0 fd 6f 78 bd a3 c4 f4 bd 6b e6 64 3e 55 24 9e bc
       -0.060653675 -0.11951568 0.22353522 -0.019304434
0002f0 af 06 ef bc fd f3 93 3c 18 b0 b0 3c 76 57 3f 3d
       -0.029177992 0.018060679 0.021568343 0.04671427
000300 05 43 de bc a0 87 ad bb 03 63 75 3d 68 52 30 3d
       -0.027131567 -0.005295709 0.059908878 0.04304734
000310 9f 84 30 3b 73 d4 72 3c bd 66 54 3d 57 a9 63 3d
       0.0026934517 0.01482116 0.05185579 0.055581417
000320 9e cf 02 3e 21 06 af bd 8b 26 9e bd a8 42 df bc
       0.12774512 -0.08546091 -0.07722195 -0.027253464
000330 91 9e 91 3c c0 42 19 bd 4b f8 92 bb 3e d5 33 be
       0.017775806 -0.037417173 -0.0044851652 -0.17561814
000340 9c 01 34 be 54 19 12 bd 97 8c 77 be c9 ce 96 be
       -0.17578739 -0.035668686 -0.24174725 -0.2945464
000350 87 89 3b be d6 fa 1c be a2 40 16 be 88 09 ad bd
       -0.18314181 -0.15330061 -0.14673093 -0.084490836
000360 bf d6 fa bd e9 31 28 3c 54 e9 1e 3e 4e 65 4d be
       -0.12247991 0.010265806 0.15518695 -0.20058176
000370 e8 d8 29 3d 26 c8 c6 3d cc 0c 68 bd c3 6e 0a 3d
       0.041466624 0.09706144 -0.05665283 0.033797037
000380 02 2e 0e 3e bf 38 1a be d6 36 37 3d 53 97 01 3e
       0.13884738 -0.1506071 0.04473003 0.12655382
000390 5b 80 a9 be 68 2f b8 3d 89 b2 60 3e 37 a3 38 be
       -0.3310574 0.08993417 0.21943106 -0.18031012
0003a0 c6 a9 5f 3d 73 d8 e1 3d bc 2b 22 be a1 99 bc 3d
       0.054605268 0.110276125 -0.15836996 0.0920899
0003b0 81 20 bd 3d f1 ad 35 be cc 7f 4a 3d 05 86 d9 3d
       0.09234715 -0.17742135 0.049438283 0.10621265
0003c0 11 fd 2e be c1 76 ae 3c 8b a9 2a 3e 48 6a 5f 3c
       -0.17088725 0.02129686 0.16666238 0.013636179
0003d0 05 e0 bd 3d 93 f7 ce bd 89 d4 b9 3b 29 67 d8 3d
       0.09271244 -0.10105815 0.005671088 0.10566551
0003e0 23 bb f4 bd 33 7b 92 3c 1e 61 c6 3d a5 4c e3 bd
       -0.11949756 0.017881012 0.096864924 -0.11098603
0003f0 2a 59 50 ba 95 0d b4 3d 06 28 c8 bd 0c 93 d0 3c
       -0.0007947857 0.08791653 -0.09773259 0.025460742

conv2.bias f4 [32]
000000 42 25 ab 3c 2d 65 8d 3e a4 71 98 be e1 87 8e bc
       0.02089179 0.27616253 -0.297742 -0.017398776
000010 60 b9 9c bd 82 c1 4b 3e 2e 40 41 be 0e 92 30 3e
       -0.07652545 0.19898036 -0.18872139 0.17243215
000020 c3 e5 d8 3d 88 21 a6 bd d1 d6 15 be ed b5 2f be
       0.105906986 -0.08111864 -0.14632727 -0.17159243
000030 a9 c1 6c bd 0c 77 0c be d2 68 86 3d 28 53 50 bd
       -0.057801876 -0.13717288 0.06562962 -0.050860554
000040 40 78 3e 3d 1f 69 91 bd a8 2e a9 be 9c 01 84 be
       0.046501398 -0.071001284 -0.33043408 -0.25782478
000050 6b 49 1e be 56 c1 1a be dd b2 90 be 5f 69 73 3e
       -0.15457694 -0.15112814 -0.28261462 0.23770665
000060 bd eb 67 3e 86 77 3d 3e 5e c3 e0 3e f7 e1 db 3d
       0.22648521 0.18502626 0.43899053 0.10736459
000070 dd 85 b6 3e 7b 62 65 3d f0 29 c8 3e 3b bf ec bd
       0.35649005 0.05600212 0.39094496 -0.11559912

conv2.weight f4 [32, 3, 3, 16]
000000 d3 95 a3 bc f7 03 22 3e 0a f3 e1 3e 27 ac 5b bd
       -0.019968903 0.15821825 0.44130737 -0.053630974
000010 55 ad 98 be 18 5c e6 bb 9a 08 fd bd c2 dd e6 3d
       -0.29819742 -0.0070300214 -0.12355156 0.11272766
000020 8c 6c 11 be c2 df 98 be 0a b3 f9 bd 52 c5 25 bc
       -0.14201564 -0.29858214 -0.12192352 -0.010117846
000030 7a 58 f4 bc 53 84 69 bd d6 69 96 be 53 e7 1f bd
       -0.029827345 -0.05701096 -0.2937762 -0.039038967
000040 cb 07 2b bd 53 54 80 bd 02 71 9c be 5b f1 67 be
       -0.04175548 -0.062660836 -0.30554968 -0.22650664
000050 a7 52 d7 3d ff 48 69 be 0c bf 4b bd 00 46 1a 3e
       0.105138116 -0.22781752 -0.049742743 0.15065765
000060 3e 8f c9 3d 6c b4 7d bd 6b 56 b6 bd ec 77 97 3c
       0.098417744 -0.06193964 -0.08903202 0.0184898
000070 17 7e 4e bd a6 52 30 bd ed 1a 36 be e9 6c 2b 3e
       -0.050413217 -0.04304757 -0.17783709 0.16740765
000080 4f a3 42 3e b1 8c 9c 3d 00 8a 03 bf 59 ae 21 bc
       0.1900761 0.07644022 -0.51382446 -0.009868228
000090 06 3b 34 bd 06 5c 8e be bb 57 b0 bd e0 9e 16 bf
       -0.0440016 -0.27804583 -0.08610483 -0.58836174
0000a0 43 f6 15 3e fb 35 45 3e d4 0f 37 bf 7b 7e d8 be
       0.14644723 0.19258873 -0.71508527 -0.42283997
0000b0 50 00 ac be 21 73 8e be cf a6 28 be 67 2d 7f 3e
       -0.33593988 -0.2782221 -0.16469882 0.24919663
0000c0 c3 52 42 bf f0 ef dd be a0 d6 a3 3e c4 52 49 3c
       -0.75907534 -0.4334712 0.31999683 0.012287799
0000d0 9c 8f f0 3e 09 ab f7 3d 6f 77 a2 3e 46 70 38 3e
       0.46984565 0.12093169 0.31731746 0.18011579
0000e0 fc 5a fe be 37 61 69 bf de d7 33 bd 4f d6 14 3f
       -0.4967879 -0.91163963 -0.04390704 0.5813951
0000f0 e7 57 18 3e f6 f8 57 b9 dc 08 0c 3e 8e 9a ab be
       0.14877282 -0.00020596743 0.13675255 -0.33516353
000100 9a de f8 3d df 8f 74 ba 27 56 50 3e f1 cf 41 be
       0.12151833 -0.00093293 0.20345365 -0.1892698
000110 87 4d d0 3e 56 c8 5b bd 40 93 c5 bc 6c 8b 2b 3e
       0.4068415 -0.053657852 -0.024118066 0.16752404
000120 89 3d 86 3e 6d b2 7c 3e 43 bc c3 3d d0 d5 ac 3d
       0.26218823 0.24677439 0.095573924 0.08439219
000130 c0 36 c6 3e 18 64 8d be e2 6e 8e 3e 2b de be 3d
       0.38713646 -0.27615428 0.27818972 0.09319719
000140 bf d7 e8 3e 4c 8b 11 3f 0a 36 c3 be fb 06 7f be
       0.454771 0.56853175 -0.38127166 -0.24905007
000150 97 34 dc be d0 d8 0c bf 23 21 4b be 85 35 48 be
       -0.43008873 -0.5501833 -0.1983686 -0.19551666
000160 c5 a8 46 3e 20 94 f1 3e c9 5b 85 3e 4f 43 e1 be
       0.19400318 0.47183323 0.2604659 -0.43996665
000170 71 50 05 be e5 18 b0 bb 39 79 b7 bc 67 a2 8d 3e
       -0.13018967 -0.0053740614 -0.02239667 0.27662966
000180 36 97 24 3e 70 50 24 3e 13 1d 0a 3f 9b b6 02 bf
       0.16073307 0.1604631 0.53950614 -0.51059884
000190 b9 11 0e be cd 1b e6 bd 3b 90 53 bd 66 19 ab bd
       -0.13873948 -0.11235771 -0.05165122 -0.08354454
0001a0 a1 a2 d4 be d0 e6 4e be dc 9b 94 bf 11 10 1a 3d
       -0.41530326 -0.20205235 -1.1610065 0.03761298
0001b0 07 a3 1f be 27 9c 95 3d 3f aa 0f be c1 5b 28 be
       -0.15589534 0.07305174 -0.14029787 -0.16441251
0001c0 91 5d 87 be e6 d5 e8 bd 69 99 1d bc 44 05 9a be
       -0.26438573 -0.11368923 -0.009619095 -0.30082142
0001d0 39 f6 26 3e 85 60 6a bf 24 25 c3 bd a5 ed 87 3e
       0.16304864 -0.9155353 -0.095285684 0.26548496
0001e0 0c 26 60 3e cc 32 11 bd 9f 97 29 bf 91 9e 70 bd
       0.21889514 -0.035448834 -0.6624698 -0.05874497
0001f0 58 12 01 be 87 ee a6 be 0b d5 1e be a5 a7 d3 bd
       -0.12604654 -0.32603857 -0.15510957 -0.1033471
000200 af 90 38 be 6d b7 04 3d 71 49 0b bf 26 85 82 be
       -0.18023942 0.03240149 -0.5440894 -0.2549221
000210 05 ae 23 3d 95 fa dd be 20 74 38 38 97 05 ef be
       0.03996088 -0.4335524 4.397717e-05 -0.46683952
000220 80 0c 87 3e 87 cd 81 3e 71 45 b5 be f9 ad 84 be
       0.26376724 0.25352117 -0.35404542 -0.2591398
000230 d5 59 81 bc f9 1d 2b be 47 3c 41 bd 90 02 6c 3e
       -0.015789906 -0.16710652 -0.047176626 0.23047853
000240 3c f5 f6 3e 35 3b c8 3e 90 7e e3 bd fc f2 e8 3d
       0.48233974 0.3910767 -0.11108124 0.113744706
000250 3e 5a 3f bf 20 1e ed 3d 02 f2 47 be 56 9a 4f be
       -0.74747074 0.115780115 -0.19525912 -0.20273718
000260 4f 2b 32 3e f4 0d 52 3e 8a 16 69 bf b5 2a 46 bf
       0.17399333 0.20513135 -0.91050017 -0.77408916
000270 b8 d5 3e be 9b 5f b8 be 79 67 b4 be e3 25 27 3d
       -0.18636215 -0.3601044 -0.35235193 0.040807616
000280 d8 b9 41 3e 0a 2e 19 3d b8 a1 55 be 20 8b cb bd
       0.1891855 0.037397422 -0.20862472 -0.09938645
000290 c2 30 4b bf 1d 03 3f be 12 ac c3 3c 90 ee 77 be
       -0.79371274 -0.18653531 0.02388576 -0.24212098
0002a0 07 65 0c 3e 96 95 9d bd d9 1d 15 bf ab 03 2b bf
       0.13710414 -0.07694547 -0.5824867 -0.6680247
0002b0 46 61 0c be ca b2 6c bd b0 25 0f bf 27 d9 0e bd
       -0.13708982 -0.057787694 -0.5591688 -0.03487506
0002c0 bc ac a4 3e f9 fd ac 3e b1 76 a5 3d 57 53 44 3d
       0.32163036 0.33787516 0.08079279 0.04793104
0002d0 8b 6b 76 be 88 69 2a 3e ad 5e bb 3d d5 93 8d 3b
       -0.24064462 0.1664182 0.09148917 0.0043206015
0002e0 32 20 39 3e e7 b9 e8 3d b2 2c 5c be 74 fa b6 be
       0.18078688 0.11363583 -0.21501425 -0.35737956
0002f0 88 4a 63 be 8d 85 0e be 73 ad cc be 5d 47 5f bd
       -0.221964 -0.13918133 -0.3997608 -0.054511417
000300 17 2a a0 3d 04 46 d2 3d ed f4 1d 3e fa 2a 83 3c
       0.07820528 0.10267261 0.15425463 0.016011704
000310 64 23 0d be aa ca a9 3d 46 f6 66 bd 5d 86 65 be
       -0.13783032 0.08290608 -0.05638721 -0.22414537
000320 ce fb 79 3d 7a 0f 87 3d a0 3b 8c be 3b 8e 1d 3d
       0.061031155 0.06594749 -0.2738924 0.03846572
000330 4a d4 4a 3e 10 e2 87 be f6 e1 c4 bd 4b bc 60 be
       0.19807544 -0.2653966 -0.09613411 -0.21946828
000340 4d a1 18 3e 1b 79 a1 ba ee e0 44 3e f7 7c 3b bd
       0.14905281 -0.0012319417 0.19226429 -0.045773473
000350 23 86 9f 3c 32 47 29 be 0b a4 18 be 0c cb a6 3e
       0.019473141 -0.16531065 -0.14906327 0.32576787
000360 66 3e c9 bd d9 c3 3f 3e 33 3f b8 be a6 39 66 bd
       -0.09826355 0.18727054 -0.35985717 -0.05620732
000370 d4 37 d8 3d 69 cd 93 be 0c 33 19 be 68 71 ab bd
       0.10557523 -0.28867653 -0.14960879 -0.0837124
000380 28 04 73 be fd 8c cd bc 99 1f d1 3c a4 37 9f 3d
       -0.23732054 -0.025091643 0.025527762 0.077742845
000390 86 bc d5 3d 52 f0 86 be 54 d4 00 3d 1b 09 87 3d
       0.104363486 -0.26355225 0.031452492 0.065935336
0003a0 be b4 84 3d b6 a9 68 3d a5 dd 21 bc bb 8f dc 3e
       0.06479786 0.056802474 -0.009879504 0.43078408
0003b0 54 e5 34 3e fd f1 2c be 19 0c 11 3e 3d 0e 96 bd
       0.17665607 -0.16889186 0.14164771 -0.073269345
0003c0 c9 4c c7 bd 2d cf 06 bb 99 d8 5c 3d d4 a5 40 be
       -0.097314425 -0.0020570264 0.0539175 -0.18813258
0003d0 28 86 8c 3e ff 70 4d 3d c3 bb 04 3e ed 21 51 be
       0.27446103 0.05015659 0.1296225 -0.20423098
0003e0 9f b8 f6 3d 87 18 cc 3c f2 65 98 be 99 da 92 3d
       0.120469324 0.02491404 -0.29765278 0.071706004
0003f0 32 43 88 3d 50 82 df bd 7b cd f6 3d c0 28 0b 3e
       0.066534415 -0.10913527 0.12050911 0.13589764

conv3.bias f4 [64]
000000 76 1c af be 44 de 2f bf 9b 37 d0 be 8a ca 26 bd
       -0.342014 -0.68698525 -0.40667424 -0.0407205
000010 0d 1c 30 bf 6a e0 e0 be eb a4 33 bf 96 4a a3 be
       -0.687928 -0.43921214 -0.7017352 -0.31892842
000020 e0 7c 44 bd 03 fc 84 bd cf 87 99 be aa 3a bf bd
       -0.047970653 -0.0649338 -0.29986426 -0.09337361
000030 60 13 bc be 1f 0a b7 be dc 31 b3 be ec 36 2a be
       -0.36733532 -0.3574991 -0.34998977 -0.16622514
000040 20 31 b9 bc 4c 50 ae 3c 26 46 13 bf 2f e4 da 3d
       -0.022606432 0.021278523 -0.57528913 0.10688054
000050 d6 60 29 be 63 83 18 bf d4 c2 9b bc 60 e2 8b be
       -0.16540846 -0.5957548 -0.0190138 -0.27321148
000060 71 0d 9a be 7c bc 67 be db 74 60 bf 42 02 b7 3c
       -0.3008838 -0.22630495 -0.8767831 0.022339944
000070 e6 19 9a be 8b b6 07 bf 96 f6 93 be da 21 a4 3d
       -0.30097884 -0.53012913 -0.28899068 0.08014269
000080 f0 eb 9b be 67 96 bd 3b 4f c7 cf be 2f c4 71 be
       -0.30453444 0.0057857516 -0.40581748 -0.23609994
000090 59 c0 2a bf 2c b8 47 bf ae 87 b0 be 1e ad ec be
       -0.6669975 -0.780154 -0.34478515 -0.46225828
0000a0 38 07 14 bd 4e 65 87 bd 31 4b 1e bf af e1 a9 be
       -0.036139697 -0.06611119 -0.61833483 -0.33179995
0000b0 f3 80 4c bb 6c 21 04 bf 36 32 8b be 30 d3 c6 be
       -0.003120479 -0.516135 -0.27186745 -0.38832998
0000c0 9b 0b 4b be 4d 3d dc bd b3 fa c2 be 6d 46 de be
       -0.19828646 -0.1075388 -0.38081893 -0.43413106
0000d0 3c 2e 4d bf 19 96 99 be 03 39 14 bf 25 90 06 bf
       -0.80148673 -0.29997328 -0.5789949 -0.525637
0000e0 bc 2a 73 be 58 41 80 bd e8 1b 9e bb 18 3d 34 be
       -0.2374677 -0.06262463 -0.004825104 -0.1760143
0000f0 f1 19 c5 be f2 ac 78 be b8 f9 16 bf 69 d8 a0 be
       -0.38496354 -0.24284723 -0.5897479 -0.31415108

conv3.weight f4 [64, 3, 3, 32]
000000 95 cc 16 3b a1 6b b5 bd 49 90 cc be 16 be 25 be
       0.0023010124 -0.08858419 -0.3995383 -0.16185793
000010 b9 72 21 3f 56 9f f6 3d d1 d9 0d bf c3 6e a2 3e
       0.6306568 0.1204211 -0.55410486 0.3172513
000020 2c 91 3f 3e 4e 31 44 be 95 9d 9c 3d 9a e1 72 be
       0.18707722 -0.19159433 0.07647244 -0.23718873
000030 da 69 cd 3c f7 c6 88 be 20 4d 34 bd 84 41 d5 3d
       0.025074888 -0.26714298 -0.044018865 0.10412887
000040 98 11 a1 be ab 98 3e bc 9e fc 66 bd 34 75 ca 3d
       -0.31458735 -0.011633079 -0.05639326 0.09885636
000050 9a 19 df be 67 f7 d7 be 40 1d b1 bd ef 88 12 3e
       -0.4357422 -0.4218094 -0.08648157 0.14310049
000060 a8 bf d6 3d 2f ed 5d bd 68 36 a5 3e c2 77 95 3d
       0.10485774 -0.054181274 0.3226807 0.072982326
000070 1e 51 c1 3d ee 71 49 be 21 df c7 3a f6 be 9f bd
       0.094393 -0.19672367 0.0015248993 -0.07800095
000080 70 0d 5c be 27 1f 97 bd 85 9b 99 be d5 e1 3e bf
       -0.21489501 -0.07378989 -0.30001464 -0.7456334
000090 18 de 2a 3f b7 53 b7 3d da 9e ac 3e 7f fe 2a 3d
       0.6674514 0.08951514 0.33714944 0.041746613
0000a0 ae 50 0c bc 11 f2 08 be 09 f5 b3 bd 80 d4 25 be
       -0.008564157 -0.13373591 -0.08786971 -0.16194344
0000b0 ca bb 80 be a9 81 fd be e2 36 c7 bd 11 a5 90 bd
       -0.25143272 -0.49512985 -0.09727265 -0.07062734
0000c0 36 85 66 be 94 f4 23 bc 0e 37 46 be c0 a1 09 3e
       -0.22511753 -0.010007042 -0.19356939 0.13440609
0000d0 15 fb ca bd bf f9 5e be 3b c4 c1 bc 31 8a 01 3e
       -0.09911171 -0.21774958 -0.02365314 0.12650372
0000e0 42 3e 83 3e a8 5a 3c bc 6f 09 31 3e f9 0a f3 be
       0.25633436 -0.0114962235 0.17288755 -0.4746931
0000f0 ac 5a 37 3c 0e 60 16 be c9 2d b5 3d e6 5f 77 be
       0.011191051 -0.1468508 0.088466235 -0.24157676
000100 e4 6a 8c 3d d7 7e bb 3b 88 18 46 be d0 b8 6b bf
       0.06856325 0.0057219076 -0.19345295 -0.92078876
000110 57 53 ae 3e a1 ac 2b bd 32 c1 89 3d 8a 7d 33 be
       0.34047958 -0.04191268 0.06726302 -0.17528358
000120 89 74 ca 3b 4a 66 f1 bd f1 b8 9f bd 19 05 91 bd
       0.006178443 -0.11787088 -0.07798947 -0.070810504
000130 79 46 63 3d 74 88 94 be d2 70 f1 bd 59 ec 05 bd
       0.05548713 -0.29010355 -0.11789097 -0.0326961
000140 62 0f 29 bf e7 dd d1 3d 12 f1 25 be e0 1b 19 bd
       -0.660391 0.10247403 -0.16205242 -0.0373801
000150 59 fe 7a be 53 de 73 be eb 30 03 be 1e 85 3a bd
       -0.24511088 -0.23815279 -0.1281163 -0.045537107
000160 d5 ce 3e 3d a7 73 29 bd 65 c3 b3 bc 28 8b 15 bf
       0.04658397 -0.04137006 -0.021943757 -0.5841546
000170 1f 1a 9d bc 6d d4 f9 bd 20 e8 2e 3e c8 2d 0e be
       -0.019177495 -0.1219872 0.17080736 -0.13884652
000180 52 87 05 be d4 fa d2 3d d6 d3 eb bd ea 62 ae be
       -0.13039902 0.10301748 -0.11515014 -0.3405984
000190 ea 9e e3 3e 7f 04 2f 3e 39 e9 30 bf 35 bb 77 3e
       0.4445718 0.17091559 -0.6910587 0.24192508
0001a0 d4 30 17 be 29 3e a2 bd e6 0e 99 be e5 60 0c 3c
       -0.1476472 -0.07922012 -0.2989418 0.008568023
0001b0 74 3c 75 be f5 cb cd bd cc 85 13 be 55 5b 6a 3d
       -0.23948842 -0.10048667 -0.14406508 0.057216007
0001c0 f9 0c c9 be 55 08 d9 3c d5 f5 ca bd 5f ad be bc
       -0.3926771 0.02649323 -0.0991017 -0.02327603
0001d0 bd 76 d3 3e 98 1a bc 3d 4c 6b 02 be bd b4 94 be
       0.41301528 0.0918476 -0.12736243 -0.29044142
0001e0 3c 19 78 3e 5d 94 63 bf a1 ed a6 3d b8 df 8f bc
       0.24228376 -0.8889826 0.08150793 -0.017562732
0001f0 e1 a8 85 be b8 ea 26 3c 4e e0 c5 3d 65 a2 59 3c
       -0.26105407 0.010187797 0.09661923 0.013283347
000200 9f 97 0c 3e de 62 ba 3d ed 48 25 3f 51 85 e8 be
       0.13729714 0.09100889 0.645644 -0.45414212
000210 9b 8d 2e 3d df d5 f9 3d b9 2b 30 3e 00 1a 1e bd
       0.042615514 0.12198996 0.17204179 -0.038599014
000220 11 29 6b 3d 7d a4 b0 be 82 22 bc be dd 9f 59 3e
       0.05741221 -0.34500495 -0.36745077 0.21252389
000230 05 f9 c9 3d ee c4 00 3e 94 a9 b2 be 3a a1 0e 3f
       0.0986195 0.12575123 -0.34895003 0.5571476
000240 57 e3 eb ba aa 07 27 be 97 55 a9 bd 58 75 6d 3d
       -0.001799683 -0.16311517 -0.08268278 0.057973236
000250 9a cc cf 3e 29 b2 de 3d d6 8d 63 bb b0 68 84 bc
       0.40585786 0.10873825 -0.0034721992 -0.0161632
000260 bd 9b 14 3e b6 a4 95 be 8d 51 c4 3d 94 d4 a3 bf
       0.14512534 -0.29227227 0.09585867 -1.2799249
000270 4e 6c 83 3e 99 c4 3c 3e 3b 86 e9 bd 11 d6 31 3f
       0.25668567 0.18434371 -0.114025556 0.69467264
000280 1d 27 7e be 94 e7 85 bb 3e 92 cf bc f6 b5 c5 be
       -0.24819608 -0.004086444 -0.025338288 -0.38615388
000290 2b ef db 3c db 4a 8a bd fe d1 76 3e 7b cc 29 3e
       0.026847443 -0.06752559 0.24103543 0.1658191
0002a0 b8 42 da bd 55 be 62 3e 6a 16 e7 bd 6a 7c 7f bd
       -0.10657257 0.22142918 -0.11283572 -0.06237451
0002b0 05 df 8b 3a 23 90 85 3b 3e f0 ee bd cc 59 02 bc
       0.0010671323 0.0040760203 -0.11666916 -0.00795598
0002c0 f1 8e c0 be f8 8b 79 bd 16 71 79 bd 2a 10 99 bd
       -0.37609056 -0.0609245 -0.060898863 -0.07473786
0002d0 4e ef 96 3b 70 f2 1f 3e 9f d4 83 bd 0f 49 08 3e
       0.004606164 0.15619826 -0.06437039 0.1330912
0002e0 ca 68 72 3e 90 70 c7 bd 2f 03 95 be 58 b2 09 bf
       0.23672786 -0.097382665 -0.2910399 -0.53787756
0002f0 73 09 3d 3d 02 3a 20 3e ca 02 c5 bd 14 51 00 3f
       0.04615159 0.15647128 -0.096196726 0.50123715
000300 d0 de 2a 3e 99 4b a1 3e 6c 89 79 3e 23 d5 9d be
       0.16686559 0.3150299 0.24368829 -0.30826673
000310 ab 1f 5d bf 0a bf 0e be 56 1e 11 be 75 1a fa be
       -0.86376446 -0.13940063 -0.14171728 -0.4884831
000320 e6 cc fa bc 59 27 b7 be 59 5b 74 be f7 3e b8 3d
       -0.030615281 -0.35772207 -0.23862971 0.089963846
000330 5b 34 37 3f 60 51 a8 3e fe 21 d8 3d b1 08 f3 3e
       0.71564263 0.32874584 0.105533585 0.4746757
000340 e3 92 d3 be ba 6e f7 bc 77 3d 41 3c da 93 83 3e
       -0.41323003 -0.030204166 0.0117944395 0.2569874
000350 d9 5c 85 3e 12 3c e8 3d b3 17 c8 3d 6c 7b 26 3d
       0.260474 0.113395825 0.09770145 0.040645048
000360 70 6b 1c bd 09 06 53 bf 13 94 1c 3d 57 1e 10 bd
       -0.038188398 -0.82431084 0.038227152 -0.035185184
000370 7b 79 0d 3e fc 2a 0c 3e b4 be 49 3d 50 b4 be 3e
       0.13815872 0.13688272 0.049254134 0.37246943
000380 6e 06 9e bc 7b f3 ff bd f5 84 00 be 19 6b 88 be
       -0.019290175 -0.12497612 -0.12550719 -0.2664421
000390 0f af 8b bf 78 1b 11 bf ed ad a1 3d 5e 22 ed be
       -1.0912799 -0.5668254 0.07894502 -0.46315283
0003a0 fa ed ed 3d df b0 b5 be ef 73 30 3e 71 aa 3b 3e
       0.11617656 -0.35486504 0.17231725 0.18326737
0003b0 38 6a 10 3e cc 2b 65 3f bb bf 3c 3f e7 1b 51 be
       0.14103019 0.89519954 0.7373006 -0.204208
0003c0 94 12 b6 be fd d1 59 be 4e 57 1d bf 3f 85 fd be
       -0.3556105 -0.2127151 -0.6146134 -0.4951572
0003d0 f9 56 22 ba 40 bd 3c be c6 9a 5d bd 38 6b cd bd
       -0.00061927695 -0.18431568 -0.05410268 -0.10030216
0003e0 5b a4 f8 be e8 58 37 3f ff f4 45 bf ae 5e 9e bf
       -0.48562893 0.71620035 -0.7732696 -1.2372644
0003f0 3d 53 6b 3e 38 b0 53 3e 0b 2a 6d 3c b9 7f 96 3d
       0.22980972 0.20672691 0.014475356 0.0734858

fc1.bias f4 [128]
000000 b3 b8 97 bd 2b 24 0b be 41 35 fb 3e 67 20 87 3e
       -0.074082755 -0.13588016 0.49064067 0.2639191
000010 a8 4b 63 be 38 9e 68 3d 12 69 aa be 9d 55 be 3e
       -0.2219683 0.056791514 -0.33283287 0.37174693
000020 ac 35 ba 3c 17 3d 89 be d7 f2 14 3e e3 68 9d 3e
       0.02273067 -0.2680442 0.14545761 0.30744085
000030 73 eb ad be 6d 0c f2 bc 1e 2b 78 bd 3e 8d 96 be
       -0.33968696 -0.02954694 -0.060587995 -0.29404634
000040 5c b6 54 be 81 d4 d5 be 01 49 e4 be 45 c3 6b be
       -0.2077269 -0.4176369 -0.44586948 -0.23023708
000050 a0 87 9d 3e fb 2f b0 3d 35 2f b8 3d 5a 18 59 be
       0.30767536 0.086029015 0.08993379 -0.21200696
000060 51 56 d1 3d 0f f3 b4 be d9 99 2b 3e c1 d0 69 be
       0.10221542 -0.3534169 0.16757907 -0.2283354
000070 37 50 b9 3e f7 92 88 be d6 5d 31 3f 98 15 80 bd
       0.36194012 -0.26674625 0.6928381 -0.06254119
000080 b4 39 e3 3d 83 96 d8 3e 11 64 2c 3e 36 1c 21 3e
       0.110949904 0.4230233 0.16835047 0.15733418
000090 af d9 c7 be ae 4f aa bd 41 40 5b 3e 37 b0 a4 3d
       -0.39033267 -0.08315979 0.2141123 0.08041423
0000a0 ea 16 08 3f e5 90 2b bd 94 8b b9 be 7b a7 12 3f
       0.53159964 -0.04188623 -0.36239302 0.57286805
0000b0 1c 01 7c 3e 3e 2a 25 3e 54 b0 a4 be 5d 9f 5c be
       0.24609798 0.16129395 -0.32165778 -0.21545167
0000c0 cd 33 bf be 3e 2a e3 3e 0d 1a c4 be 37 35 07 bb
       -0.37344208 0.44368166 -0.38301125 -0.0020631084
0000d0 15 e5 5c be 73 79 a3 be 68 5e 92 3e 99 79 1a be
       -0.21571763 -0.31928596 0.2858765 -0.15085448
0000e0 ec 7e 9d be 8f 96 1e 3f 13 2e fe 3e 87 5c cc 3e
       -0.30760896 0.61948484 0.49644527 0.39914343
0000f0 b5 50 05 3e e9 72 10 bd e4 4f c0 bd d1 86 17 bf
       0.13019069 -0.035265837 -0.09390238 -0.5919009
000100 1d b0 b1 3e 59 7f b5 3c 61 8b ba 3e ce 13 ee 3c
       0.34704676 0.02215545 0.36434463 0.029062178
000110 1e 38 1c be a9 3b 4a be 9f 7e 80 3e 64 88 5b 3e
       -0.15255782 -0.19749321 0.25096604 0.21438748
000120 0f e7 19 bf 45 93 aa be c0 ff 2f be cf 1e e5 be
       -0.6011819 -0.33315483 -0.17187405 -0.44750068
000130 42 c3 a7 3e c1 04 03 3f 4d ba 6e be 6e a7 37 bd
       0.32766157 0.5117913 -0.23313256 -0.044837408
000140 42 58 29 3f 18 7e 22 3e 1d 85 57 3e 13 3c 8f be
       0.66150296 0.15868413 0.21046872 -0.2797552
000150 56 be cf 3d b0 1a 54 be 2a 71 f1 be 02 28 72 be
       0.101437256 -0.20713305 -0.4715665 -0.23648074
000160 33 f5 8f 3e 65 e5 9b be c1 99 89 be f7 dd fa 3e
       0.2811676 -0.30448452 -0.26875117 0.4899747
000170 2d a2 a0 be 61 8f e5 3e 41 56 af be 76 5f 1d bc
       -0.3137373 0.44835952 -0.34245494 -0.009605279
000180 ed 84 67 be 37 37 fe 3e c8 33 11 be 33 ad d9 3e
       -0.22609301 0.496515 -0.14179909 0.42514953
000190 b6 22 9b be 9e 85 5d 3e 2e e6 39 be d3 95 f6 be
       -0.3029992 0.21633002 -0.18154213 -0.48161182
0001a0 7e f0 28 3f 3f 8a 4e 3e cb 93 63 3e c8 ea e3 3e
       0.6599196 0.20169924 0.22224347 0.4451506
0001b0 01 c1 54 3e 6a 77 07 bd 18 a2 9e 3e 3f 0e b6 3e
       0.2077675 -0.033072866 0.30983043 0.35557744
0001c0 98 aa aa be 00 70 4e be 75 58 94 3a 87 73 c4 be
       -0.33333278 -0.20159912 0.0011317866 -0.3836939
0001d0 fd 69 b6 3e 30 ef bc be 19 30 8e bd ba 83 74 be
       0.35627738 -0.36901236 -0.06942768 -0.23878375
0001e0 0a 7e 40 3d 3d 26 ab be 97 50 db be 3d ef 9a 3e
       0.0469952 -0.3342761 -0.42834923 0.3026065
0001f0 15 33 6b bd 8b de 7b bd 5e 4f 92 3e 0f a3 5e 3e
       -0.057421762 -0.06149153 0.28576177 0.2174189

fc1.weight f4 [128, 1024]
000000 01 28 24 bd e0 1e 52 bd fe 55 cf bc be 1a cc 3b
       -0.040077213 -0.051298976 -0.025309559 0.006228774
000010 d3 86 39 bd 04 b9 99 bc 82 a3 75 bb bf 7c 44 bc
       -0.045294594 -0.01876498 -0.0037481491 -0.011992632
000020 f9 2a 21 3c 39 41 b1 bc cc 40 8d 3c 7d 6e 40 bc
       0.009836906 -0.021637546 0.017242812 -0.011745092
000030 50 16 b0 bc 28 a2 9d bc b5 4a a5 3a 4c 06 91 ba
       -0.021495014 -0.019242361 0.0012610765 -0.0011064499
000040 f5 c2 b4 bc 2d 44 81 bc c9 a5 ec bc be db 54 bc
       -0.022065619 -0.015779579 -0.028887646 -0.012991844
000050 7e 3e b7 3b e8 7b 83 3c 60 2e 75 b9 4e c7 8d 3c
       0.0055921664 0.016050294 -0.00023382297 0.01730695
000060 a6 65 43 3c 60 a0 7a 3b e7 1c d9 3b 45 ce 96 3b
       0.01192609 0.0038242564 0.00662576 0.004602226
000070 db c1 e4 3b 0d 83 1b bb aa f1 da bc 90 20 5e bd
       0.006981117 -0.0023729235 -0.026726563 -0.054230273
000080 17 45 10 bc ea 6b bc bc 45 f7 cf bc 8b 5c 17 3c
       -0.008805535 -0.023000676 -0.025386462 0.009238373
000090 ac 38 34 bc 55 ae a6 bb 33 21 eb bc e7 2f 0c bc
       -0.01099984 -0.0050867 -0.028702354 -0.008556343
0000a0 b3 cb cb bc 55 1d 06 bc de 6f 09 bd ce de ff bb
       -0.024877405 -0.008185704 -0.03355395 -0.007808543
0000b0 33 d5 2a bc 74 68 22 bb 74 ff 1d bc d8 e3 34 bd
       -0.010426807 -0.0024781497 -0.009643424 -0.0441626
0000c0 eb b1 f0 bb c6 f1 86 bc 86 77 51 bc 59 98 29 bc
       -0.007345428 -0.016472708 -0.012784844 -0.010351264
0000d0 5d 71 a3 bc ab 2c 62 3a b3 b6 54 bc 4a 6b d9 bc
       -0.019951517 0.0008627872 -0.012983012 -0.026540417
0000e0 15 e3 1b bb 42 30 6e bc 7c 49 86 3b 96 b8 4d bd
       -0.0023786474 -0.014537873 0.0040981155 -0.050224863
0000f0 7c 81 64 bd c9 dd 8f bc 15 4c bd 3a 55 77 7a 3c
       -0.05578755 -0.01756181 0.001444223 0.01528724
000100 b2 8c 92 3b c2 c9 3c bc 3b b9 0b bc b9 6f a7 bc
       0.0044723386 -0.011522712 -0.008528049 -0.020439016
000110 8c 00 9e bc 9c 6d bc 3a 75 82 87 3a 82 27 8c bc
       -0.01928737 0.0014375928 0.0010338562 -0.017108683
000120 a5 c3 20 bc d6 8d 23 bb f0 74 b0 3b 6e 05 8d 3c
       -0.00981227 -0.0024956367 0.005385034 0.017214503
000130 06 12 9a ba fc 18 f9 39 3a fc 89 3c 19 19 93 bc
       -0.0011754639 0.00047511596 0.016843904 -0.017956303
000140 d5 79 a7 3c 6b 13 cb bc 5b 36 a3 bc 5c 83 18 3c
       0.020443836 -0.024789533 -0.01992338 0.009308662
000150 0d d2 1c bc 70 6f f6 3c 1b e4 7c bc b8 c0 b6 3c
       -0.009571564 0.030082434 -0.015435244 0.022308692
000160 29 f2 88 bc f5 b7 e9 bc d4 72 98 bc d3 40 d2 bc
       -0.016717033 -0.0285301 -0.018609442 -0.025665676
000170 62 5b b9 bc ed 32 10 3d aa 13 ef bc e9 76 08 bd
       -0.022626583 0.035204817 -0.029184181 -0.033316527
000180 43 91 4f bd 85 c3 7c bc 89 bd 45 bc 97 aa 73 3b
       -0.05067564 -0.015427475 -0.0120691145 0.0037180537
000190 08 5c 13 bc b8 1f f7 bb e9 98 99 bb 50 88 73 bc
       -0.00899411 -0.007541623 -0.0046874178 -0.014864042
0001a0 ac 9c 9b bc 2c 1a ef bc 11 51 8c bc 32 d8 df 3c
       -0.018995605 -0.029187284 -0.0171285 0.02732477
0001b0 d5 ea 55 3b 6b 40 3a 3c db 7c c5 bc a8 db 44 3b
       0.0032641192 0.0113678975 -0.024107387 0.0030038152
0001c0 7a 4b 64 3b c4 f1 f4 bc b7 c5 f1 bc cb 08 07 bd
       0.0034835027 -0.02990044 -0.029513223 -0.03296737
0001d0 d9 58 31 3c ea 2d 54 bc d8 dd 3a ba 41 7d bf b9
       0.010824406 -0.0129504 -0.0007128394 -0.0003652368
0001e0 04 31 99 3b 41 16 64 bb 51 52 71 3c 04 44 4c bd
       0.0046750326 -0.0034803303 0.014729098 -0.049869552
0001f0 65 bc 09 bd 65 59 8e 3c 6f b2 9a bc a6 ba 12 bb
       -0.033626933 0.017376611 -0.018883912 -0.0022389083
000200 a7 d1 7c bb 88 db 84 bc 27 b4 0e bd db ad aa bc
       -0.003857711 -0.016217962 -0.034839775 -0.020834854
000210 96 eb 1b bd 4d cb d6 bc ae 4c 5b bb 6d a1 48 bc
       -0.03806647 -0.026219988 -0.0033462453 -0.012245518
000220 79 87 af 3c 43 6e 83 3c ef 4e d0 3a 25 8e fd bc
       0.021426903 0.016043788 0.0015892665 -0.030951569
000230 56 53 28 bd 65 7f 99 bc 7a 8f ad bc b0 34 d8 bc
       -0.0410951 -0.018737504 -0.021186579 -0.02639231
000240 8b cb a6 3c 60 69 df bc f5 d6 71 bc a2 06 d9 bb
       0.020360729 -0.027271926 -0.014760722 -0.006623105
000250 a9 87 8c b9 c7 3d 60 bc 6e c9 46 bc f2 17 07 bc
       -0.00026803956 -0.013686604 -0.0121329855 -0.008245455
000260 f1 92 95 3c f5 5b 0b bd 56 a4 c4 bc 7f ef 85 bc
       0.018258544 -0.034023244 -0.024004143 -0.016349552
000270 27 49 8f ba 1b 39 0a bd b7 2d 0d bd 0a 6c 42 bc
       -0.0010931835 -0.033745866 -0.034467425 -0.011866579
000280 42 2a 83 3a cf d8 c6 bc b6 13 34 bc 2c 29 67 bd
       0.0010007101 -0.024273304 -0.010991028 -0.05643575
000290 a1 fa 06 bd 44 52 99 bd a5 c9 9c 3c 7b 4a 85 bc
       -0.032953862 -0.07486394 0.01913912 -0.016270867
0002a0 8b 65 0f 3c 65 bf 54 bc 20 ba 11 bd 79 ea 9a bc
       0.008752237 -0.012985085 -0.035577893 -0.018910633
0002b0 89 01 8a 3c 81 85 a9 bc 21 79 1b bc 1e 31 95 bc
       0.016846435 -0.020693542 -0.009489329 -0.018211897
0002c0 47 95 ef 3b 26 e3 aa bc d1 d8 d3 bc 7b 0a 57 bd
       0.0073114964 -0.020860266 -0.025860222 -0.05250023
0002d0 9d 93 56 3c 7f 15 a0 bb 52 e2 f3 bc 2f a3 0b bd
       0.013096717 -0.004885375 -0.029771004 -0.03409117
0002e0 0e 1d 12 3c 6c 2f 47 3c ab e0 dc bb 8e b6 42 bc
       0.00891806 0.012157302 -0.0067406497 -0.011884345
0002f0 73 e4 66 3c 00 a6 e1 bb 27 4e fc bc 09 81 32 bc
       0.0140925525 -0.006886244 -0.030798985 -0.010895022
000300 fc 06 46 bd 60 9a f7 3b ed f8 3e 3b 53 b9 70 3c
       -0.048346505 0.0075562447 0.002914007 0.014692622
000310 93 f3 82 ba 51 c4 6b bc d0 0e d0 bc 03 38 4d bd
       -0.0009990804 -0.014390067 -0.025397688 -0.050102245
000320 5c 54 a4 bb 68 76 3c 3c c2 fd 14 bb 2b 15 b0 bc
       -0.0050149392 0.01150284 -0.002273426 -0.021494469
000330 05 be 16 bd 02 fa e4 bb a6 1e d9 3c 28 3f 8c bc
       -0.03680231 -0.006987811 0.026503872 -0.017119959
000340 52 c4 b4 3b 6e 27 f6 3a db 9c 19 3b 06 53 d0 bc
       0.0055165673 0.0018780062 0.002343944 -0.025430214
000350 64 89 af bb 40 91 77 38 2e 33 8f bc 8d 9c c8 bb
       -0.0053569544 5.9024664e-05 -0.017480459 -0.006122178
000360 97 d8 ae ba a2 f8 98 b9 24 b6 a9 bb 29 9b 70 bc
       -0.0013339695 -0.00029176945 -0.0051791836 -0.014685431
000370 15 9d f0 bc 03 43 c5 bc 5e 5f 6e bc 35 49 b9 bd
       -0.029371778 -0.024079805 -0.0145491045 -0.09047166
000380 cf b2 b2 bc 1f 66 47 3b 41 85 d6 3a 2c 46 b8 3c
       -0.021813778 0.003042586 0.0016366617 0.022494398
000390 f0 1b b4 bc 23 42 db bc 71 d6 ff ba aa 4f 8b bb
       -0.021985978 -0.026764935 -0.0019518865 -0.00425144
0003a0 b3 0d b2 3c 07 5a 82 bc 8a 58 e3 bc b7 27 16 bd
       0.021735048 -0.015912069 -0.02775218 -0.03665897
0003b0 7f ff 0b 3c f1 9e fa bc 8d 96 cb bc 28 a8 10 bd
       0.008544802 -0.030593367 -0.024852062 -0.035316616
0003c0 4b b8 a8 bc 4d b2 49 bd 7e 4d 94 bc 7f 88 dc bc
       -0.02059569 -0.049242307 -0.018103357 -0.026920555
0003d0 3d c5 5a bc 7f d2 64 bc 10 fd d2 bc d2 0f 98 bd
       -0.013352689 -0.013966202 -0.025755435 -0.074248925
0003e0 e7 ab 36 3c 30 fe f8 3c 17 06 da bb 7b f3 ad bc
       0.011149383 0.030394644 -0.006653558 -0.021234265
0003f0 b8 c9 50 bc 4b d5 af bc 69 6f 1d bc 79 e2 1a bc
       -0.012743406 -0.02146401 -0.009609082 -0.009453409

fc2.bias f4 [49]
000000 78 05 e8 bf fa 53 e2 bf dc 57 ca bf a4 3d cf bf
       -1.8126669 -1.7681878 -1.5808063 -1.6190686
000010 21 53 33 bf c5 07 76 be 55 30 60 bf 05 c6 3d bf
       -0.7004872 -0.24026401 -0.8757375 -0.7413028
000020 e2 50 fc be d8 6c e4 be 1e 16 d1 be 05 59 65 bf
       -0.4928046 -0.4461429 -0.40837187 -0.8958896
000030 b6 28 98 be 64 c4 b5 bf 39 b9 7b bf 58 5d d9 be
       -0.2971856 -1.4200559 -0.983295 -0.42454028
000040 0a 3c b3 bf b6 f4 3d bf 2c 45 f7 be 8a 66 76 be
       -1.4002697 -0.74201524 -0.4829496 -0.24062553
000050 08 9d 25 3f 4d bd 41 3f 27 58 69 bf 6e 82 f2 3e
       0.64692736 0.75679475 -0.91150135 0.47365135
000060 17 a9 57 bf 5d 0c 18 3f 20 41 39 3e c6 ea b3 3e
       -0.84242386 0.59393865 0.1809125 0.35140055
000070 b8 4c fb bf 9e 98 7b bf 2c 62 1f 3f 6b ee 1f 3f
       -1.9632788 -0.9827975 0.62259173 0.6247317
000080 f6 59 3a be 60 dc 8b bd 4d 18 06 bf 3c bc 8b 3e
       -0.1819838 -0.068291426 -0.5238083 0.2729205
000090 89 ee df be 87 93 8f bd ef 82 17 be 89 67 14 bf
       -0.43736675 -0.070105605 -0.14796041 -0.5797048
0000a0 7a 86 39 3c 49 f3 4c bf 84 aa ba be 41 dd 69 bd
       0.011323566 -0.80058724 -0.36458218 -0.05709577
0000b0 50 57 e8 be 8c df 48 be 06 77 c8 bc b8 c8 db bd
       -0.45379114 -0.19616526 -0.024470817 -0.107316434
0000c0 0c 5f 43 40
       3.0526762

fc2.weight f4 [49, 128]
000000 fe bb 1b bd ad 6a 51 c0 17 6f 9c bd 4f 59 94 bf
       -0.03802108 -3.272136 -0.07638376 -1.1589755
000010 1e 11 93 3b 9c 38 d0 bf 3d 5b c9 bf 95 41 83 be
       0.0044881245 -1.6267276 -1.5730969 -0.25635973
000020 c8 24 77 bf b5 c1 37 c0 05 ae 0e bf 30 af b6 bf
       -0.965405 -2.871198 -0.5573428 -1.4272213
000030 3d 54 23 3c 8c 63 7c bf f1 5f ad bd 60 3a ea bf
       0.009968814 -0.98589396 -0.08465565 -1.8299065
000040 0b ff 8a bd 40 82 65 be ca 01 32 bd c8 6e e4 bf
       -0.06786927 -0.22412968 -0.043458737 -1.7846308
000050 fe 45 0a be 28 e5 70 bf e2 74 80 bf bd da 5a bf
       -0.13503262 -0.94099665 -1.003567 -0.8549002
000060 02 65 88 be d8 af 63 bc bf 49 29 bf b5 71 8c bd
       -0.26639563 -0.013896905 -0.6612815 -0.068576254
000070 1d 11 ac bf a8 cc bb bf 49 2b e0 bf 50 f7 11 bd
       -1.3442723 -1.4671831 -1.751321 -0.035636246
000080 69 c0 c6 bc 67 ca 43 bf 55 53 e3 bf 79 4e a9 bf
       -0.02426167 -0.76480716 -1.7759806 -1.3227073
000090 53 d6 38 bc 3b df b7 bf 9f c1 93 c0 2b c0 8b bd
       -0.011281568 -1.4365 -4.6173854 -0.068237625
0000a0 ff 34 e7 be d9 5c b1 bc 03 f7 2c bc 78 a6 27 c0
       -0.4515762 -0.021650719 -0.010556939 -2.6195354
0000b0 e6 c7 ac bf 2e 32 86 bf 90 07 47 be c6 70 de bf
       -1.3498504 -1.0484064 -0.19436479 -1.7378166
0000c0 98 a9 3d bd d8 1e c4 bf fc 30 c1 bf 66 fa ee bf
       -0.046304315 -1.5321913 -1.5093074 -1.8670166
0000d0 d3 28 a8 be 2e 6d d3 be 64 b5 ce bf 10 7d 18 be
       -0.32843646 -0.41294235 -1.6149106 -0.14891458
0000e0 06 37 17 bf bd 2a 52 c0 8b 68 7e bf d0 56 5b bf
       -0.59068334 -3.2838585 -0.9937827 -0.8567934
0000f0 1d 4b ef bf 9a a6 b8 3c 53 ee a1 bf 36 4e 56 bd
       -1.8694798 0.02254038 -1.2650856 -0.05232068
000100 f3 79 aa bf 6b 3c 65 c0 3c 8d ba bf 8f 2c bf bf
       -1.3318466 -3.5818126 -1.4574351 -1.4935473
000110 40 fa 23 c0 d8 28 8b bf 77 49 c3 bf a1 11 c7 bd
       -2.562149 -1.087184 -1.5256795 -0.09720159
000120 5c 6f d0 be 22 b8 41 be 34 b1 a8 bf 69 01 96 bf
       -0.4070996 -0.18917897 -1.3179078 -1.171918
000130 8f 45 8d c0 6c 4d 0b c0 7f 96 bf bd d2 ef b3 b9
       -4.414741 -2.1766005 -0.09354877 -0.0003432022
000140 cd d2 0c c0 4a 03 d2 bf 1a 24 6f 3d f8 0d 0d c0
       -2.2003663 -1.6407254 0.05838404 -2.2039776
000150 ae d2 cd bd c5 ed c6 be 2c bd bb bd 10 3f 1a be
       -0.100499496 -0.3885328 -0.09166941 -0.15063119
000160 c0 6e 8e be 3d bd b7 bd 45 46 c2 bd d0 1b 5f be
       -0.2781887 -0.08971641 -0.09486059 -0.21787953
000170 72 af 3f c0 27 28 94 bf bb 3a 92 bc 9e b9 d9 bf
       -2.9950833 -1.1574754 -0.01785027 -1.7009771
000180 6b b2 74 be 36 2f 13 bd ab 8d 62 3c e6 36 29 c0
       -0.23896186 -0.035933696 0.013827722 -2.6439757
000190 38 bb ed be 24 0c f1 bf 49 8c d7 bd ae 24 94 3c
       -0.464319 -1.883183 -0.10524804 0.018083896
0001a0 e7 ab a8 bf df 82 0d be 35 ba b2 c0 0c c1 8c bf
       -1.317746 -0.13819455 -5.5852304 -1.0996413
0001b0 63 13 04 bf 77 16 bc bf d3 18 13 c0 50 00 b7 bf
       -0.5159208 -1.4694356 -2.2983902 -1.429697
0001c0 43 eb d8 bd 60 a7 e7 bf 0c 1b cd be e5 76 a9 bd
       -0.105917476 -1.8097954 -0.40059698 -0.082746305
0001d0 13 5c e3 bf c0 24 9e bf 2a 7b 9d bf a4 f2 d4 bf
       -1.7762474 -1.2354965 -1.2303212 -1.6636548
0001e0 fd e7 75 bd b0 e7 ce bf 13 0a 05 c0 80 78 bb bd
       -0.060035694 -1.6164455 -2.07874 -0.09153843
0001f0 a4 26 3f 3d ed 59 a0 bd c2 fd af bc bb 79 be c0
       0.04666771 -0.07829652 -0.021483306 -5.9523597
000200 cd d9 3f 3d 8a fd 55 c0 e8 b5 d3 bf f9 38 b9 be
       0.04683857 -3.3435998 -1.6539888 -0.3617628
000210 c7 ad c7 bc 07 c9 d8 bf 6a a6 aa bd 41 39 11 bf
       -0.024374856 -1.6936349 -0.08332522 -0.5672799
000220 35 c6 fc bf 92 4c 8d bf 2a d5 a4 bd e5 f7 00 bf
       -1.9747988 -1.1038992 -0.0804847 -0.5037826
000230 dd 31 2a bf 84 82 e3 bf f0 90 f9 3b fc 7c 4e 3c
       -0.66482335 -1.7774205 0.007616155 0.012603041
000240 11 b0 09 bf 35 15 8a bf 00 ba 41 bb 6a f7 1b c0
       -0.5378428 -1.0787722 -0.0029560328 -2.436976
000250 ae 6f 8b bf 15 81 75 bd b7 e7 d5 bd ae c4 ec bc
       -1.0893457 -0.059937555 -0.10444587 -0.028902378
000260 99 2d a5 bf b3 9d 99 bf 3a c4 e9 bf ff c3 97 bd
       -1.290454 -1.2001251 -1.8263009 -0.0741043
000270 d3 95 47 c0 7a 5f 52 bf 9b b4 2f bf 9f 40 fd 3c
       -3.1185195 -0.82176936 -0.6863496 0.030914603
000280 ee 48 87 bd 0b ed 96 bd 20 7a 33 bf d2 8d da bf
       -0.06605707 -0.07369431 -0.7010822 -1.707453
000290 98 d0 58 bd e5 78 e5 bf bc cf fe bf 36 92 eb bf
       -0.052933306 -1.7927519 -1.9907146 -1.8403995
0002a0 d8 f9 8f bd 5b 57 0d bc e2 de 30 bd cb f9 f9 bf
       -0.07030076 -0.008626784 -0.043181308 -1.9529356
0002b0 a8 37 9f bf 2d 35 8f bf b6 1a d0 bd 36 c4 27 be
       -1.243886 -1.1188103 -0.10161345 -0.16383442
0002c0 5d 54 92 bf 65 26 87 bf c0 f5 b3 bf 66 62 c2 bf
       -1.1431996 -1.0558592 -1.4059372 -1.5186279
0002d0 6d 04 0c c0 aa e9 67 bd e2 3a 94 bf 2d 41 5f bf
       -2.1877701 -0.056619324 -1.158047 -0.87208825
0002e0 9f 40 84 bd 23 28 e5 bf 10 9f 04 bf dc 79 58 be
       -0.06457638 -1.7902874 -0.5180521 -0.21140236
0002f0 c0 c9 be 3d 3f ec 89 3c b2 0f 28 be ab 59 7c bd
       0.093158245 0.016836284 -0.16412237 -0.06160895
000300 04 be d2 bf a6 83 88 c0 42 62 02 c0 2b d9 8f bf
       -1.6464238 -4.2660704 -2.0372472 -1.123815
000310 85 93 3c c0 4a 70 37 be e0 e4 91 c0 e2 f4 1c bf
       -2.9465039 -0.17913929 -4.559189 -0.6131116
000320 d5 25 e5 be 5d 48 c5 bf 18 67 47 bd 45 39 71 c0
       -0.44755426 -1.5412709 -0.048682302 -3.7691205
000330 6a ae ef bf d5 25 2e bf ee 34 83 be e1 36 64 bd
       -1.8725102 -0.6802648 -0.2562632 -0.0557164
000340 9c 1f 2f c0 60 7c 19 bf de 51 c6 3c 88 91 dd bf
       -2.7363043 -0.59955406 0.02420896 -1.7310038
000350 4b 07 d2 bf fb 19 e7 bd e7 5a bd bf 0f 88 c9 bd
       -1.6408476 -0.11284252 -1.4793366 -0.09840404
000360 d1 2d e6 be db 24 96 bf 86 34 14 bf 7d 0d 9b bf
       -0.4495683 -1.1729997 -0.57892644 -1.2113491
000370 28 c3 1d c0 6d 38 68 bf e0 52 f2 bd 49 27 1b c0
       -2.4650364 -0.907111 -0.118322134 -2.4242728
000380 c1 14 50 bf f3 cf 1d bd cd af 8d 3d 36 aa e4 bf
       -0.8128167 -0.038528394 0.06918297 -1.7864444
000390 a1 f7 66 bf 1d 90 91 bf 1e d3 34 be e8 08 9e bb
       -0.902216 -1.1372105 -0.1765866 -0.004822839
0003a0 8b 89 86 c0 01 b8 7b be 4a 2e 9b bf e8 d9 a0 bf
       -4.20429 -0.2458191 -1.2123501 -1.25665
0003b0 91 cf a8 be 06 56 30 c0 3a 64 b0 bf 5b 36 90 c0
       -0.3297086 -2.7552505 -1.3780587 -4.506635
0003c0 cd 35 10 bf 59 eb d4 bd 2b 25 02 bf fe e4 d3 bd
       -0.56332093 -0.103964515 -0.50837964 -0.10346411
0003d0 99 92 b0 bf d2 e5 fa be ce 8f fb bd bb 7f 84 bd
       -1.3794738 -0.49003464 -0.12283288 -0.06469675
0003e0 42 36 5b bf d1 de 7b be 54 84 e5 bf 41 18 96 3d
       -0.85629666 -0.24596716 -1.7931008 0.07328845
0003f0 23 7f bd bd cd 20 b9 3c 94 c5 41 bd ae bb de bf
       -0.09252765 0.022598648 -0.047307566 -1.7401025
