src/chess_cv/weights/pieces.safetensors (safetensors, 626617 bytes, 10 tensors)

conv1.bias f4 [16]
0	0xbdaa9abc	-0.083302945
1	0xbd79d243	-0.060991537
2	0xbd81d553	-0.063395165
3	0xbcd6b730	-0.026210397
4	0xbcc63e86	-0.024199735
5	0xbe84d79f	-0.25945756
6	0xbb9e86e3	-0.004837857
7	0xbd2c2d2e	-0.042035274
8	0xbf483a9f	-0.7821445
9	0xbcf34081	-0.029693844
10	0xbca8ae40	-0.020590901
11	0xbb8a0c49	-0.0042128903
12	0xbca73597	-0.020411296
13	0xbc10499c	-0.008806612
14	0x3cd963f0	0.026536912
15	0xbed0bcdf	-0.40769097

conv1.weight f4 [16, 3, 3, 3]
0	0x3f1118c6	0.56678426
1	0x3ead8211	0.33888295
2	0x3e495927	0.19662915
3	0xbed92233	-0.42408904
4	0xbe5d3828	-0.21603453
5	0xbdcad846	-0.09904532
6	0xbe498ccb	-0.19682615
7	0xbd4b30bb	-0.04960702
8	0x3ce1055f	0.027468381
9	0xbda16bc6	-0.07881884
10	0xbde99bd8	-0.11406678
11	0xbcdd5f06	-0.02702285
12	0xbf0f84dd	-0.5606211
13	0xbe8ee179	-0.27906397
14	0xbdecc2c5	-0.11560587
15	0xbef740d9	-0.48291662
16	0xbe8be82d	-0.27325574
17	0xbdeef354	-0.11667505
18	0x3e63a958	0.22232568
19	0x3e86d4a5	0.2633411
20	0x3e680007	0.2265626
21	0xbe2b32be	-0.16718575
22	0xbcab6e1b	-0.020926526
23	0xbdb4e784	-0.088332206
24	0x3ea5db4b	0.3239387
25	0x3e2eed6e	0.1708276
26	0xbdd1f128	-0.10251075
27	0xbbd33b26	-0.00644626
28	0x3c524346	0.012833422
29	0xbbe3c6d9	-0.0069511947
30	0x3d78a3d9	0.060703132
31	0x3c7001e6	0.01464889
32	0xbe2740a8	-0.16333258
33	0x3da7bda2	0.081904665
34	0x3d8c1658	0.06840199
35	0x3c27d51c	0.01024368
36	0x3d95b4d0	0.07309878
37	0x3d05b819	0.032646272
38	0xbdf93914	-0.1216909
39	0x3e82a42a	0.25515872
40	0x3df7f5fc	0.12107465
41	0xbe2e33a3	-0.17011885
42	0x3cac0fd4	0.021003641
43	0xbd0ac6d2	-0.033881016
44	0xbe4f1a89	-0.20224966
45	0x3db7f878	0.089829385
46	0x3cdab856	0.026699226
47	0xbd8138be	-0.06309651
48	0x3e0edae5	0.13950689
49	0x3ca210e4	0.019783445
50	0xbe8204d8	-0.2539432
51	0x3dc2f4c7	0.09519344
52	0x3d2eb94e	0.04265719
53	0xbdec7ab7	-0.115468435
54	0xbce8c59e	-0.028414544
55	0x3c96b4a3	0.018396681
56	0xbb1f7421	-0.0024330693
57	0xbe120a08	-0.14261639
58	0x3db6df9f	0.08929371
59	0x3d6e3d8a	0.058164157
60	0xbc0b4991	-0.008501426
61	0x3dc4d0bb	0.09610125
62	0xbdaa42ce	-0.08313523
63	0xbe53a4cc	-0.20668334
64	0x3def5a29	0.116871186
65	0x3da1cdc5	0.079005755
66	0xbe9b981d	-0.3038949
67	0x3e549e1c	0.20763439
68	0x3dd0dc55	0.10198275
69	0xbe9b790e	-0.30365795
70	0x3e129acd	0.14316864
71	0x3e15d2c3	0.1463118
72	0xbd955802	-0.07292177
73	0x3dc5b161	0.09652973
74	0xbc89a62a	-0.016802866
75	0xbe9e14e8	-0.30875325
76	0x3e602331	0.21888424
77	0x3df82e81	0.12118245
78	0xbe6a8aea	-0.22904554
79	0x3e1f6906	0.15567407
80	0x3d94d34f	0.072668664
81	0x3e877716	0.26458043
82	0x3e520551	0.2050984
83	0x3e4a898d	0.19779034
84	0xbecb1d9b	-0.39671025
85	0xbeb84bf9	-0.35995463
86	0xbeaeb7e1	-0.34124663
87	0x3d4d5df6	0.050138436
88	0x3d679c57	0.05654558
89	0x3ce61b56	0.028089207
90	0xbdd4ad84	-0.10384658
91	0xbdee3618	-0.11631411
92	0xbdd08d60	-0.10183215
93	0xbe927e44	-0.28611958
94	0xbe837a3b	-0.25679192
95	0xbe763b35	-0.24046023
96	0x3e982935	0.29718938
97	0x3e891a1f	0.2677774
98	0x3e7f5c9c	0.24937671
99	0xbdee4c07	-0.11635595
100	0xbdfdcf31	-0.12393034
101	0xbe132df9	-0.14373006
102	0x3dc2e9ed	0.09517274
103	0x3d99875a	0.074965194
104	0x3dc969eb	0.098346554
105	0x3e56cced	0.2097661
106	0x3e4d5644	0.20052439
107	0x3e43a1d6	0.19104704
108	0xbeab4625	-0.33451954
109	0xbea1fa99	-0.31636503
110	0xbe9f0fc3	-0.31066713
111	0x3e0419d3	0.12900476
112	0x3df4da2b	0.11955675
113	0x3db6d025	0.08926419
114	0x3e5b6382	0.21424678
115	0x3e5c5ad9	0.2151903
116	0x3e659fef	0.22424291
117	0xbea5a808	-0.3235476
118	0xbe9bfe30	-0.30467367
119	0xbe9e2ec6	-0.3089506
120	0x3e270c83	0.16313367
121	0x3e02b8c0	0.12765789
122	0x3e03a086	0.12854204
123	0x3e2d9858	0.16952646
124	0x3e302b4f	0.17204021
125	0x3e230a41	0.1592188
126	0xbe57c300	-0.2107048
127	0xbe4ea398	-0.20179594
128	0xbe3bb528	-0.18330824
129	0x3d7ca27f	0.061678406
130	0x3d78598a	0.060632266
131	0x3d8054c4	0.06266168
132	0x3e081e5d	0.13292833
133	0x3e05f067	0.13079987
134	0x3e105f9a	0.14098969
135	0xbea750aa	-0.3267873
136	0xbe7db599	-0.24776305
137	0xbe9975eb	-0.29972777
138	0x3d4993fc	0.049213395
139	0xbc819bc6	-0.015821349
140	0x3bf54436	0.007484938
141	0x3e7cc53e	0.24684617
142	0x3e4cd4ee	0.20003101
143	0x3e475b82	0.19468501
144	0xbe9d6a2f	-0.30745074
145	0xbea2b33e	-0.31777376
146	0xbe8f34aa	-0.27969867
147	0x3decd43b	0.11563917
148	0x3e03946c	0.12849587
149	0x3df62ea4	0.12020615
150	0x3db21096	0.0869457
151	0x3e226fbb	0.15862934
152	0x3d9bc313	0.07605567
153	0xbe0fe00e	-0.14050314
154	0xbe2da2db	-0.16956656
155	0xbe0f84d3	-0.14015512
156	0x3d590935	0.052987296
157	0x3dafccf9	0.08584017
158	0x3e0a70fd	0.13519664
159	0x3e674e35	0.22588427
160	0x3e401f61	0.1876197
161	0x3dd875d7	0.10569351
162	0x3e02fb4e	0.12791178
163	0x3dfbd4f9	0.12296481
164	0x3e00c359	0.12574519
165	0x3cd6171d	0.026134068
166	0x3ccb5263	0.024819558
167	0x3cdb3550	0.02675882
168	0xbe50a263	-0.20374446
169	0xbe38e827	-0.18057309
170	0xbe2cdd21	-0.16881229
171	0x3e26f00f	0.16302513
172	0x3e1fb725	0.15597208
173	0x3e01669c	0.12636799
174	0x3de0c67c	0.10975358
175	0x3dd45eb5	0.103696264
176	0x3db7723d	0.08957336
177	0xbe98cffe	-0.29846185
178	0xbe8ac2db	-0.27101788
179	0xbe7bcd5d	-0.24590059
180	0x3dfa721a	0.122287944
181	0x3dfa64b7	0.12226241
182	0x3e005104	0.12530905
183	0x3e0a3164	0.13495404
184	0x3dfa0e31	0.12209738
185	0x3dde2b3c	0.1084809
186	0xbe5f7f92	-0.21826008
187	0xbe51172d	-0.20418997
188	0xbe53b72b	-0.20675342
189	0xbc25dfd1	-0.010124163
190	0x3b37980e	0.0028014216
191	0x3cbbc2f7	0.022920115
192	0x3cc9d940	0.024639726
193	0xbe1eb40b	-0.15498368
194	0x3dc214fc	0.09476659
195	0xbcc5972e	-0.02411994
196	0xbc85bc51	-0.016325148
197	0x3d797fb7	0.060912814
198	0x3ccc4aba	0.024937976
199	0xbe5f7aac	-0.2182414
200	0x3e0fa517	0.1402782
201	0x3dc05242	0.093906894
202	0xbe9af88c	-0.3026775
203	0x3e9ba433	0.30398712
204	0x3c86f2fc	0.016473286
205	0xbe83ad44	-0.2571813
206	0x3e0ffb05	0.140606
207	0xbc2f2401	-0.010689736
208	0xbd821f16	-0.063535854
209	0x3dccd882	0.10002233
210	0x3d83751f	0.064188235
211	0xbe96e825	-0.29473987
212	0x3e58ea4d	0.21183129
213	0x3c8ed3c2	0.017434958
214	0xbe1c61ee	-0.15271732
215	0x3e076f8c	0.13226146
216	0xbc5dde49	-0.013541766
217	0xbc4c2276	-0.012459388
218	0x3d1f493f	0.038888212
219	0x3cf0655c	0.029345207
220	0x3d1070a4	0.035263672
221	0x3d308b05	0.04310133
222	0x3d64b74e	0.055838875
223	0x3d4ed49e	0.050495736
224	0x3d371d5c	0.044705734
225	0x3d6ef2d9	0.058337066
226	0x3d5a3e8e	0.053282313
227	0x3d807c4f	0.0627371
228	0x3dcce107	0.10003858
229	0x3da804af	0.08204018
230	0x3d67092b	0.056405228
231	0x3e09cba4	0.13456589
232	0x3db69fb1	0.089171775
233	0x3d3d0ab1	0.046152774
234	0x3d842a2a	0.06453355
235	0x3d2a9d56	0.041653953
236	0x3d2f792e	0.042840175
237	0x3e033fc6	0.12817296
238	0x3d99889c	0.07496759
239	0x3cdb8bb9	0.026800023
240	0x3e055685	0.13021286
241	0x3da260a8	0.07928592
242	0x3caf5b46	0.021405827
243	0xbceddf86	-0.029037248
244	0xbc2c65ef	-0.01052235
245	0x3bf94157	0.007606666
246	0x3d76a79d	0.060218442
247	0x3d09a512	0.03360469
248	0x3cf2b300	0.02962637
249	0x3d500cfe	0.05079364
250	0x3d779142	0.060441263
251	0x3d71a400	0.058994293
252	0x3dd4e4e4	0.1039522
253	0x3dbc7922	0.09202792
254	0x3db044c3	0.08606865
255	0x3e6e630d	0.23279972

conv2.bias f4 [32]
0	0x3dbfadd9	0.09359331
1	0xbe89eaf2	-0.26937062
2	0x3e9c8311	0.30568746
3	0x3d95ad38	0.073084295
4	0x3cde84b1	0.027162882
5	0x3e69310f	0.2277262
6	0xbd5fb06b	-0.054611605
7	0x3cc53249	0.02407183
8	0x3e8887ac	0.2666601
9	0xbcdb5b89	-0.026777046
10	0x3d73b685	0.059500236
11	0x3b0d1eb3	0.002153319
12	0xbdfa8166	-0.12231712
13	0x3d266fb4	0.040633872
14	0xba17f68c	-0.0005796931
15	0xbeb60211	-0.35548452
16	0x3e596bf7	0.21232592
17	0x3ead5544	0.33854115
18	0xbd8bb11e	-0.06820892
19	0x3de6100d	0.1123353
20	0xbac305d0	-0.0014879052
21	0xbe0d2c94	-0.13786536
22	0xbd1e51bd	-0.03865217
23	0x3f0dd661	0.5540524
24	0xbdc990ed	-0.098420955
25	0xbe2322e3	-0.15931277
26	0x3d3bf2d1	0.045885865
27	0x3e1697bb	0.14706318
28	0x3daf3b8d	0.0855628
29	0x3ec6a6c6	0.38799113
30	0xbcd3bd79	-0.025847184
31	0x3d489a45	0.048975248

conv2.weight f4 [32, 3, 3, 16]
0	0x3c43b0ec	0.011944037
1	0x3d3870fb	0.04502962
2	0x3d10af3f	0.035323378
3	0x3d10601f	0.03524792
4	0xbd79f1f7	-0.06102177
5	0x3d880671	0.066418536
6	0x3e35d39a	0.17756501
7	0x3dce5cdf	0.100763075
8	0xbe3355f3	-0.17513256
9	0xbd85121a	-0.06497593
10	0x3b5f761b	0.0034097496
11	0x3d16717b	0.036729317
12	0x3daea5fa	0.08527751
13	0xbd747bcb	-0.05968837
14	0xbe25c7e2	-0.1618953
15	0x3e27361a	0.16329232
16	0xbe8ed255	-0.27894846
17	0xbe1c983f	-0.15292452
18	0xbe48433e	-0.19556901
19	0xbc5491c2	-0.0129742045
20	0x3d6b5eaf	0.057463344
21	0xbc575ef1	-0.013145194
22	0x3e772e7b	0.24138825
23	0xbe02aa20	-0.1276021
24	0xbe2c2ae1	-0.16813232
25	0xbd9e3e32	-0.077267066
26	0xbdb2b978	-0.087267816
27	0x3e796939	0.24356546
28	0xbe2dd7ac	-0.16976804
29	0x3c4c0512	0.012452381
30	0xbc53e7cc	-0.012933683
31	0xbc06b227	-0.008221186
32	0x3cd4b433	0.025964832
33	0x3d73278e	0.059363894
34	0x3da345e5	0.07972316
35	0x3e163f0a	0.14672485
36	0x3ec1bdb5	0.37840047
37	0xbe964b2e	-0.29354233
38	0x3e1d4400	0.15357971
39	0x3e04feb9	0.12987794
40	0xbdae8b2a	-0.08522637
41	0xbe88e9b9	-0.26740816
42	0xbdbd9e62	-0.09258725
43	0xbd34ee19	-0.04417238
44	0xbc6b0e6f	-0.014346703
45	0xbd06e650	-0.032934487
46	0xbda1f947	-0.07908874
47	0x3c97126d	0.018441403
48	0x3dfc9188	0.123324454
49	0x3e124f8d	0.14288159
50	0x3e40906c	0.18805093
51	0x3e469a55	0.1939481
52	0x3e34b35f	0.1764655
53	0xbda77e5c	-0.08178398
54	0x3ce39782	0.027782205
55	0x3de883b5	0.11353246
56	0xbe255755	-0.16146596
57	0xbe6e81c3	-0.23291688
58	0xbd4b08fb	-0.04956911
59	0xbdb1532d	-0.08658443
60	0x3d938e92	0.072049275
61	0xbca57bd3	-0.020200646
62	0xbe2a4d3e	-0.16631028
63	0x3db14d1c	0.086572856
64	0xbe732775	-0.2374552
65	0xbe68071f	-0.22658966
66	0xbe3ce4d8	-0.18446672
67	0xbd80a9ea	-0.062824085
68	0x3daccb56	0.08437221
69	0xbdc1257d	-0.094309784
70	0x3e6ab5f5	0.22920974
71	0xbe32e8c4	-0.17471606
72	0x3c16cbfa	0.009203905
73	0xbf308399	-0.689508
74	0xbebe4333	-0.37160644
75	0x3da0ced8	0.07851952
76	0xbe76f5d7	-0.24117218
77	0x3c1eef87	0.009700662
78	0x3dc10614	0.094249874
79	0xbd40bf84	-0.047057644
80	0xbdaed731	-0.08537138
81	0x3db8360f	0.08994686
82	0xbc3dfb91	-0.011595623
83	0xbde87c87	-0.11351877
84	0x3f3f0533	0.7461731
85	0xbf32158d	-0.69564134
86	0x3e58876c	0.2114541
87	0xbd80c6e0	-0.062879324
88	0x3e40449c	0.18776172
89	0xbf384d20	-0.71992683
90	0xbf122ae7	-0.57096714
91	0xbd61729d	-0.055040944
92	0xbebfa0db	-0.3742741
93	0xbd92dbea	-0.071708515
94	0xbe2978e3	-0.16550021
95	0xbdc456b8	-0.09586853
96	0x3eb4a358	0.3528087
97	0x3e06fa50	0.13181424
98	0x3dc28b57	0.09499233
99	0x3e5e6fa1	0.2172227
100	0x3d55af85	0.05216934
101	0xbdb935a6	-0.09043436
102	0xbd97e959	-0.074175544
103	0x3d482064	0.048859015
104	0x3e0f2d81	0.13982202
105	0xbea7b361	-0.32754043
106	0xbecf3bab	-0.4047521
107	0x3d79457b	0.060857277
108	0xbd074c01	-0.033031467
109	0xbdcd342e	-0.10019718
110	0xbe96815c	-0.29395568
111	0x3def7db8	0.11693901
112	0xbe86cdc3	-0.2632886
113	0xbe672d6f	-0.22575925
114	0xbe22d080	-0.15899849
115	0xbc5bad02	-0.0134079475
116	0xbd4a41d6	-0.049379192
117	0x3d7062ec	0.05868809
118	0x3ee19487	0.4405863
119	0xbd889c73	-0.06670465
120	0x3d844149	0.06457765
121	0xbed2db38	-0.41182876
122	0x3c4ae867	0.012384511
123	0x3cfcbd80	0.03085208
124	0xbe9d4c62	-0.30722338
125	0xbe00ce53	-0.12578706
126	0x3dc874b8	0.09787887
127	0xbe68371b	-0.22677271
128	0xbe279ca0	-0.16368341
129	0x3da74fd6	0.08169524
130	0x3c790594	0.015199084
131	0x3e3e9baa	0.18614069
132	0x3f27d8be	0.655651
133	0xbefa0b8e	-0.4883694
134	0x3e7634a2	0.24043515
135	0xbcd2aac0	-0.025716186
136	0x3efd3575	0.49454847
137	0xbf0c52f5	-0.5481408
138	0xbe44aadb	-0.19205801
139	0xba232b99	-0.0006224453
140	0xbeefe5b8	-0.4685495
141	0xbdb8653a	-0.090036824
142	0x3dbf6d0e	0.093469724
143	0xbe47a4e7	-0.19496499
144	0xbeaba812	-0.33526665
145	0x3e3dbb74	0.18528539
146	0x3e0adb79	0.13560285
147	0x3e74dbfb	0.23912041
148	0x3e7f13d0	0.24909902
149	0xbefb2256	-0.49049634
150	0x3daa93de	0.08328985
151	0x3e587e90	0.2114203
152	0x3d561420	0.052265286
153	0xbd37c81e	-0.04486858
154	0x3e8b66aa	0.27226764
155	0x3ead5d75	0.33860365
156	0x3df97e00	0.12182236
157	0x3e9a3ace	0.3012299
158	0x3d11123d	0.035417784
159	0xbd2381ec	-0.039918825
160	0xbf0528ac	-0.52015185
161	0xbd9f7e52	-0.077877656
162	0x3dc5b1b5	0.096530356
163	0x3e65db61	0.22446968
164	0x3ea3cc7f	0.31991956
165	0xbe24feba	-0.16112795
166	0x3eb4bc42	0.3529988
167	0x3e4eea28	0.20206511
168	0xbeb923a1	-0.36159995
169	0xbe25ff23	-0.16210608
170	0xbee31840	-0.4435444
171	0x3ec5e1a4	0.38648713
172	0xbea39aa7	-0.31953928
173	0xbec162f8	-0.3777082
174	0x3d81cb7c	0.0633764
175	0xbe8adb4e	-0.2712044
176	0xbe9f1504	-0.3107072
177	0xbe67cde3	-0.22637133
178	0xbe91bd6b	-0.28464827
179	0x3ea86a5c	0.32893646
180	0x3e439d09	0.19102873
181	0xbe33632f	-0.17518304
182	0x3bc94197	0.006141852
183	0xbe9644ec	-0.29349458
184	0x3e90c078	0.28271842
185	0xbd4996d3	-0.049216103
186	0x3e2edbfa	0.17076102
187	0x3dcfb5c0	0.10142088
188	0xbd8c2fb3	-0.068450354
189	0xbe420de2	-0.18950608
190	0x3f057ef9	0.5214687
191	0xbe2e7b0e	-0.17039129
192	0xbed0eb2d	-0.40804425
193	0x3e10e01b	0.1414799
194	0x3c001fcb	0.00782008
195	0x3d2413fb	0.040058117
196	0x3e76cf98	0.24102628
197	0xbe96e21b	-0.2946938
198	0x3e216a45	0.15763195
199	0x3e1e1df3	0.15441112
200	0xbe56d96a	-0.20981374
201	0xbdda9034	-0.10672036
202	0x3d8dd5f0	0.06925571
203	0x3ee95809	0.45574978
204	0xbd4f07b0	-0.05054444
205	0x3d39ebd6	0.045390926
206	0xbe8c520c	-0.27406347
207	0x3ddbe8a0	0.10737729
208	0xbf272322	-0.65287983
209	0xbe49c890	-0.19705415
210	0xbeda44aa	-0.42630512
211	0x3ee99e31	0.45628503
212	0xbe09d695	-0.13460763
213	0x3c970482	0.018434767
214	0xbe6c4472	-0.23072985
215	0xbe952f6e	-0.29137748
216	0x3ddb713d	0.10714958
217	0x3d96dced	0.07366357
218	0x3db635a9	0.088969536
219	0x3e3b6da9	0.18303551
220	0x3d7df25c	0.06199871
221	0xbdb1fd81	-0.0869093
222	0x3e9c4d97	0.30527946
223	0xbeedd12f	-0.46448657
224	0xbe59309b	-0.21209948
225	0x3e168826	0.14700374
226	0x3eae737d	0.34072486
227	0x3e9c1f20	0.30492496
228	0x3f0bc5c3	0.54598635
229	0xbf08cafa	-0.5343472
230	0xbe2fd713	-0.17171888
231	0x3e9dae90	0.30797243
232	0xbeacbc1e	-0.33737272
233	0xbe45693b	-0.19278423
234	0xbddb3e18	-0.10705203
235	0x3d81dd0e	0.06340991
236	0x3d1cb616	0.03825959
237	0xbef2c8d1	-0.47418836
238	0x3e1f391b	0.15549128
239	0x3cec670d	0.028857732
240	0x3c91f44b	0.017816683
241	0xbd2f1d41	-0.042752508
242	0x3e1e7e1c	0.15477794
243	0xbe0d0cb7	-0.13774382
244	0x3d8785f4	0.066173464
245	0xbd299a2e	-0.041406803
246	0xbc317b29	-0.010832586
247	0x3d4c17fd	0.049827565
248	0x3da8f3f4	0.08249655
249	0xbd67e237	-0.05661222
250	0x3c802f8c	0.015647672
251	0x3e374262	0.17896417
252	0xbdfac098	-0.122437656
253	0x3e7ec58e	0.24880049
254	0xbea862cc	-0.32887876
255	0x3cb8c318	0.022553965

conv3.bias f4 [64]
0	0xbe89ff04	-0.26952374
1	0x3d830534	0.06397477
2	0xbebf225e	-0.37330908
3	0xbea18dd9	-0.31553534
4	0x3e46ec11	0.1942599
5	0xbf0994db	-0.5374276
6	0xbf08898d	-0.53334886
7	0xbf9c9e4f	-1.2235812
8	0xbf2289ba	-0.63491404
9	0x3f6fdecf	0.93699354
10	0x3e20ff95	0.15722497
11	0xbf6259f3	-0.884185
12	0xbd9111f4	-0.070835024
13	0xbdb91b7c	-0.09038445
14	0xbe3f886c	-0.18704385
15	0xba1bb87b	-0.00059402705
16	0xbe9cb2ba	-0.30605108
17	0xbe2fce2b	-0.1716849
18	0x3e960c47	0.29306242
19	0x3f822ca7	1.0169877
20	0xbe272cba	-0.16325656
21	0xbc679439	-0.01413446
22	0x3ed5eb5f	0.41781136
23	0xbe580c45	-0.2109843
24	0x3dd12067	0.102112584
25	0xbd769693	-0.060202193
26	0x3f04e33f	0.5190925
27	0xbefe3bfb	-0.49655136
28	0xbe1b9249	-0.15192522
29	0xbf19d9fb	-0.60098237
30	0xbf32d943	-0.69862765
31	0x3f8e44ab	1.1114706
32	0xbf53a2e3	-0.8267042
33	0xbe2a5876	-0.16635308
34	0x3ec8d74f	0.39226767
35	0x3d420f5b	0.047377925
36	0xbe780ec2	-0.2422438
37	0xbd4ee4f1	-0.050511304
38	0xbf8ae987	-1.0852517
39	0xbea4fdb8	-0.32224822
40	0xbeb1a4a2	-0.34695917
41	0xbd2c19fe	-0.042016976
42	0x3e34f511	0.1767161
43	0x3e52871b	0.20559351
44	0xbfdd2d46	-1.7279441
45	0xbe017cef	-0.12645315
46	0xbeb4c167	-0.35303804
47	0x3dfc516b	0.12320217
48	0x3e2f9d52	0.17149857
49	0x3ed8e0cb	0.42359003
50	0xbf70091c	-0.937639
51	0xbe8b0c58	-0.27157855
52	0xbf0fb6ce	-0.5613831
53	0xbf07d056	-0.5305227
54	0x3d937fc9	0.072021075
55	0xbd38a787	-0.04508164
56	0xbddab2bb	-0.106786214
57	0x3dee6d48	0.116419375
58	0xbe99ca96	-0.30037373
59	0x3e92d0d0	0.28674936
60	0x3e4308ef	0.19046377
61	0xbedf4a8f	-0.4361157
62	0xbe8ff09a	-0.28113252
63	0x3e874f74	0.26427805

conv3.weight f4 [64, 3, 3, 32]
0	0xbf4f93f4	-0.81085134
1	0x3d3803e0	0.04492557
2	0xbf17ec84	-0.5934527
3	0x3f109c96	0.5648893
4	0x3e8e205e	0.2775907
5	0xbf927fc3	-1.144524
6	0xbe67beb3	-0.2263134
7	0xbd7720eb	-0.060334127
8	0xbfa4d27a	-1.2876732
9	0x3e1d64fc	0.15370554
10	0x3e499f67	0.19689713
11	0xbe358a54	-0.17728549
12	0x3efa4202	0.48878485
13	0xbe966457	-0.29373428
14	0x3ebd4a6d	0.36970845
15	0x3e09ee75	0.1346987
16	0xbf0105cc	-0.5039947
17	0x3d98d408	0.07462317
18	0x3e0f3287	0.13984118
19	0x3e7053d6	0.23469481
20	0xbf182824	-0.5943625
21	0xbded48c1	-0.11586142
22	0xbe00c6e9	-0.12575878
23	0xbf4def58	-0.80443335
24	0x3f043e10	0.516572
25	0xbee1cb73	-0.44100532
26	0x3e53c0e0	0.20679045
27	0x3e981512	0.29703575
28	0x3eba91db	0.36439404
29	0xbe33c93d	-0.17557235
30	0xbedb3702	-0.42815405
31	0x3ed232bf	0.4105434
32	0xbe1f4aee	-0.15555927
33	0xbdaf7dc7	-0.08568912
34	0x3d97953b	0.0740151
35	0x3d88452c	0.066538185
36	0x3e02549a	0.12727585
37	0xbeabf5b2	-0.33585888
38	0xbdc31872	-0.09526147
39	0x3d09a360	0.033603072
40	0xbda7aa37	-0.08186763
41	0xbe741b29	-0.23838486
42	0xbe89b1de	-0.26893514
43	0x3cc56413	0.02409557
44	0x3e77ad22	0.24187139
45	0xbec47836	-0.38372964
46	0x3e789f91	0.2427962
47	0x3c9882aa	0.018616993
48	0xbe7e535b	-0.24836485
49	0xbecec886	-0.40387362
50	0xbc780210	-0.0151372105
51	0x3d7b2974	0.06131883
52	0x3e414d68	0.18877184
53	0xbd88f335	-0.06687013
54	0x3e84e648	0.2595694
55	0x3f221fcb	0.6332976
56	0xbe925b9b	-0.28585514
57	0xbe427d16	-0.18993029
58	0xbec761a0	-0.3894167
59	0xbd44cef6	-0.048048936
60	0x3e6a43ef	0.22877477
61	0x3bac7fdf	0.005264267
62	0xbdb11d7a	-0.086482
63	0xbea3adaf	-0.31968448
64	0x3eee91db	0.46595654
65	0xbdc76b77	-0.09737294
66	0x3e3753c4	0.17903048
67	0xbeb0bac9	-0.34517506
68	0x3e5c337a	0.21504012
69	0xbe1b12b9	-0.15143861
70	0x3a509260	0.0007956382
71	0x3f0e6463	0.5562193
72	0x3f43fe67	0.7656006
73	0xbf562005	-0.8364261
74	0x3d22d8aa	0.03975741
75	0xbf1dd577	-0.61653847
76	0xbf9564a0	-1.1671333
77	0x3c902cfe	0.017599579
78	0x3ebf23e6	0.37332076
79	0xbdbda4ea	-0.092599705
80	0xbe57f101	-0.2108803
81	0xbebcc6f3	-0.36870536
82	0x3d1b4bb8	0.037914008
83	0xbf130ae1	-0.57438475
84	0x3edf1c0a	0.4357608
85	0xbc3755d6	-0.0111898985
86	0x3e1961f8	0.14978778
87	0x3e32178e	0.17391798
88	0xbd848ddb	-0.06472369
89	0xbe0e646e	-0.13905498
90	0xbe93cf64	-0.28869164
91	0x3e38e10c	0.18054599
92	0xbd7462a1	-0.059664372
93	0x3ea837ac	0.32854974
94	0x3dcad86b	0.0990456
95	0xbf3723a8	-0.7153878
96	0x3f1cbbe3	0.6122419
97	0x3e8e1f54	0.27758276
98	0xbfb3c3fb	-1.4044183
99	0xbd66ca09	-0.05634502
100	0x3ec02b47	0.37533018
101	0x3e9a4f2d	0.3013853
102	0xbe9414df	-0.28922173
103	0x3c8423a8	0.016130283
104	0x3d6f5d3f	0.058438536
105	0xbeda1786	-0.42596072
106	0xbe215546	-0.15755185
107	0xbdb4091f	-0.08790802
108	0x3e547b10	0.2075007
109	0xbeda11b4	-0.4259163
110	0x3ca556f3	0.020183062
111	0x3cf21ee1	0.02955574
112	0xbef54627	-0.47905084
113	0xbe3ba70e	-0.18325445
114	0xbeb83b16	-0.3598258
115	0x3c7a3521	0.015271456
116	0xbcd04c7a	-0.025427092
117	0xbde6e790	-0.11274636
118	0xbe79c7d4	-0.24392635
119	0x3e66114b	0.22467534
120	0x3e4ca54a	0.19984928
121	0xbe596ddf	-0.21233319
122	0xbe1d82ec	-0.15381974
123	0x3f279ba4	0.65471864
124	0xbda4f8a1	-0.08055235
125	0x3e8d76c1	0.27629665
126	0xbedce78b	-0.43145403
127	0xbe9d63e4	-0.30740273
128	0xbdb85cd4	-0.090020806
129	0xbbd5bb9f	-0.0065226103
130	0x3e07e811	0.1327212
131	0x3e9bb6f8	0.30413032
132	0xbf21d616	-0.63217294
133	0x3ee8d2b7	0.45473263
134	0xbd518b95	-0.051158506
135	0x3e8a4f9a	0.27013856
136	0xbdd3c4be	-0.1034026
137	0xbe9a88f0	-0.301826
138	0xbe8950ce	-0.26819462
139	0x3eebc2f3	0.46047172
140	0xbe0bfe03	-0.13671117
141	0x3de9c655	0.11414782
142	0xbea924af	-0.330358
143	0xbc8ce494	-0.017198838
144	0x3e55a654	0.2086423
145	0x3d9b1e80	0.07574177
146	0x3e058c2f	0.13041757
147	0x3e9c273f	0.30498692
148	0x3d3ca7d9	0.04605851
149	0x3dffd65d	0.124920584
150	0xbdea2c30	-0.11434209
151	0x3d5a064a	0.053228654
152	0xbee8c4a2	-0.4546252
153	0xbc9925c6	-0.01869477
154	0xbe2314cc	-0.15925902
155	0xbda07598	-0.07834929
156	0xbdb55e00	-0.0885582
157	0x3de83bee	0.11339556
158	0xbf3796f5	-0.7171472
159	0xbc962c4f	-0.018331675
160	0x3f21659b	0.6304566
161	0x3e21c554	0.15797931
162	0xbea3175a	-0.31853753
163	0xbe4c77ea	-0.19967619
164	0xbe11bfbc	-0.14233297
165	0x3e254cfe	0.16142651
166	0x3dcdc3bf	0.10047101
167	0x3e8a55c2	0.27018553
168	0x3f074518	0.52839804
169	0xbe461ce4	-0.19346958
170	0xbe736c69	-0.23771824
171	0x3daf4af2	0.085592166
172	0xbf1a02e4	-0.6016066
173	0xbdbd8be4	-0.09255198
174	0x3ea9a774	0.3313557
175	0xbe106df8	-0.1410445
176	0xbf258eb1	-0.64670855
177	0x3e90d642	0.28288466
178	0x3dc744ee	0.09729944
179	0x3d0c882d	0.034309555
180	0x3e3a046b	0.18165748
181	0x3ea0b423	0.31387433
182	0x3db7c830	0.089737296
183	0xbec301e2	-0.38087374
184	0xbe2c5a37	-0.16831289
185	0x3a04d8cc	0.00050677056
186	0xbd96ba36	-0.07359736
187	0xbdffafe9	-0.12484724
188	0x3e3cb716	0.18429217
189	0x3c35e852	0.011102753
190	0xbe5d0b92	-0.21586445
191	0xbe8d0e00	-0.27549744
192	0xbe8db9bb	-0.27680764
193	0xbcbe4032	-0.02322397
194	0x3d8fa2a8	0.07013446
195	0xbd621cd0	-0.05520326
196	0x3e993f71	0.29931214
197	0x3e4afd53	0.19823198
198	0x3e716df8	0.23577106
199	0x3c89d8a9	0.016826944
200	0x3d552d0d	0.052044917
201	0xbe86dbb1	-0.26339486
202	0x3d8dea04	0.069294006
203	0xbeef50f6	-0.46741456
204	0x3db709e9	0.08937437
205	0xbec8961c	-0.39177024
206	0xbda83992	-0.08214106
207	0xbd6334ea	-0.055470385
208	0x3e66b9af	0.2253177
209	0x3ea12953	0.3147684
210	0xbd1d4c99	-0.038403127
211	0x3dbddcf6	0.092706606
212	0xbd4656cf	-0.04842263
213	0x3e285f3e	0.16442582
214	0xbe9482b4	-0.2900597
215	0x3dc722aa	0.097234085
216	0xbf0d8cc6	-0.5529293
217	0xbcc5facf	-0.024167446
218	0xbdd5520d	-0.104160406
219	0xbd64a6dd	-0.055823196
220	0xbe332e6d	-0.17498179
221	0x3e47cddc	0.19512123
222	0xbe46965f	-0.193933
223	0xbd895edf	-0.06707548
224	0xbe3d80a5	-0.18506105
225	0xbed24579	-0.41068628
226	0x3e00a321	0.12562229
227	0x3cf7fcce	0.030271914
228	0xbe63418e	-0.22192976
229	0xbddd93ae	-0.10819183
230	0xbcc3a726	-0.023883414
231	0x3e551d6c	0.20812005
232	0xbe48bb2a	-0.19602647
233	0xbdfd148d	-0.123574354
234	0x3ede2747	0.4338934
235	0xbd6d5db9	-0.05795071
236	0xbd2298e2	-0.03969658
237	0xbd4f5f69	-0.0506281
238	0x3e83c73c	0.2573794
239	0xbce61e78	-0.0280907
240	0xbd165774	-0.036704496
241	0xbc049381	-0.008091808
242	0x3cdbbca6	0.026823353
243	0x3d7087c5	0.05872323
244	0xbd6e84af	-0.058232006
245	0x3d4e6761	0.05039156
246	0xbf2923a2	-0.66069996
247	0xbe66f309	-0.22553648
248	0xbf144917	-0.57924026
249	0xbe920e85	-0.28526703
250	0xbd31d67e	-0.043417446
251	0xbe739052	-0.23785523
252	0x3db05744	0.086103946
253	0x3e509479	0.20369138
254	0x3d9d498c	0.076800436
255	0x3df228d6	0.11824195

fc1.bias f4 [128]
0	0x3f625421	0.8840962
1	0x3e064cc7	0.13115226
2	0xbf2d0171	-0.67580324
3	0x3ea5f4b1	0.32413247
4	0x3e8883d7	0.26663086
5	0xbe5382bf	-0.20655344
6	0xbecf1e13	-0.40452632
7	0xbce04d36	-0.027380567
8	0x3ec6697c	0.38752353
9	0xbe3110cb	-0.17291562
10	0xbe608ca1	-0.21928646
11	0x3f08bca9	0.5341287
12	0x3eeda58f	0.46415374
13	0xbd6d31e1	-0.057908896
14	0xbf02b596	-0.5105833
15	0xbf0bb92f	-0.5457944
16	0xbf236227	-0.63821644
17	0x3b20ed5f	0.0024555547
18	0xbe1cb1a4	-0.1530214
19	0x3ec1032c	0.37697732
20	0x3f08e52e	0.534747
21	0x3d41ff87	0.04736283
22	0xbcb5c72a	-0.022189695
23	0xbeb22947	-0.34797117
24	0xbe678dc9	-0.2261268
25	0x3e47b677	0.19503199
26	0x3e295ef1	0.16540124
27	0x3e8b3e51	0.2719598
28	0xbf2598ab	-0.6468608
29	0xbf75f5c6	-0.96078146
30	0xbe158b16	-0.14603838
31	0xbfa1366b	-1.2594732
32	0x3de33987	0.11094957
33	0xbfd8bac6	-1.6931999
34	0xbe9367ef	-0.28790233
35	0xbf7ae7c5	-0.980099
36	0xbf65f643	-0.8982889
37	0x3bbe6586	0.0058104424
38	0xbe19eb49	-0.1503116
39	0xbdf132af	-0.11777245
40	0x3f25645b	0.64606255
41	0xbe243a6c	-0.16037911
42	0x3d5c219b	0.053742986
43	0xbfbc06c9	-1.4689571
44	0xbf25d61e	-0.6477984
45	0x3d59eb71	0.05320305
46	0xbf7c66ac	-0.98594165
47	0xbce64d2e	-0.028112974
48	0x3f0a82ac	0.5410564
49	0xbe1727b4	-0.1476124
50	0x3e86cc51	0.26327756
51	0xbc1a6d82	-0.009425523
52	0xbf7fb45d	-0.9988459
53	0xbf3a9519	-0.72883755
54	0xbe5c0898	-0.21487653
55	0xbe09e900	-0.13467789
56	0xbc1705da	-0.009217704
57	0xbd629869	-0.05532113
58	0x3dab880e	0.0837556
59	0x3df4b0dc	0.11947796
60	0x3f46d910	0.7767496
61	0x3e909d49	0.28245
62	0xbee75040	-0.45178413
63	0xbdce5022	-0.10073878
64	0xbe9375e7	-0.2880089
65	0x3f86e3ec	1.0538306
66	0xbeeb6d04	-0.4598161
67	0xbec844dc	-0.39115036
68	0x3e325742	0.17416099
69	0x3d240966	0.040048026
70	0xbe7bda3f	-0.24594973
71	0xbf2ff89c	-0.6873872
72	0xc0200082	-2.500031
73	0xbe295084	-0.1653462
74	0x3f30f74a	0.69127333
75	0xbdc1644c	-0.09442958
76	0xbf1a460f	-0.6026315
77	0xbd8d7b51	-0.06908286
78	0xbe7bc359	-0.24586238
79	0xbfda4956	-1.705363
80	0xbe98b013	-0.29821834
81	0xbf18895e	-0.59584606
82	0xbcab93ad	-0.02094444
83	0xbd7a32e5	-0.061083693
84	0x3e40228f	0.18763183
85	0xbf81e931	-1.0149289
86	0xbdee7314	-0.11643043
87	0x3e5edfe3	0.21765094
88	0xbe1aa4bc	-0.15101904
89	0xbeae8aa5	-0.34090152
90	0x3e01ab34	0.12662965
91	0x3ce20c68	0.027593806
92	0x3e01f632	0.12691572
93	0xbd8ffef4	-0.0703105
94	0x3eee8794	0.46587813
95	0x3e8a86b5	0.27055898
96	0xbd2b7ca9	-0.041866932
97	0xbfcdf7e1	-1.6091272
98	0x3eb62299	0.3557327
99	0xbd3e172d	-0.04640882
100	0x3e99c9d8	0.30036807
101	0xbcbb9b1c	-0.02290111
102	0xc0045885	-2.0679028
103	0x3e986ac9	0.2976897
104	0x3ead605f	0.33862588
105	0x3e9dd77b	0.3082846
106	0x3effb891	0.499455
107	0x3e815c6b	0.25265822
108	0xbd0b4364	-0.033999816
109	0x3c69e0cd	0.014274788
110	0xbe96256f	-0.29325435
111	0xbe90ab43	-0.28255662
112	0xbcc34231	-0.023835273
113	0xbcc36d5f	-0.023855863
114	0x3dc038f2	0.093858615
115	0xbdd16d60	-0.1022594
116	0xbebe6b35	-0.37191167
117	0xbed2ba8a	-0.41157943
118	0xbf9423e2	-1.157345
119	0x3eeff23d	0.468645
120	0x3e61b061	0.2203994
121	0x3cd81187	0.026375545
122	0xbe93b9a5	-0.28852573
123	0xbe736696	-0.23769602
124	0xbe9db59b	-0.30802616
125	0x3ddeeba5	0.108847894
126	0xbf3b7a46	-0.7323345
127	0xbcf74dac	-0.030188404

fc1.weight f4 [128, 1024]
0	0x3f82c3c5	1.0215994
1	0x3f0bfa2b	0.546786
2	0x3e924438	0.28567672
3	0x3ff2b6bf	1.896202
4	0x3e1c09ce	0.15238115
5	0xbe927aef	-0.28609416
6	0x3fa33751	1.2751256
7	0x3effa9b9	0.49934176
8	0x3f7ebe7f	0.99509424
9	0x3f74485d	0.9542292
10	0xbe0df659	-0.13863505
11	0x3e315be5	0.17320211
12	0x3f6a2e4e	0.91476905
13	0x3f84eb33	1.0384277
14	0xbf157bd1	-0.58392054
15	0xbdc2f8a8	-0.09520084
16	0x3e31cfd8	0.17364442
17	0x3f48fc7e	0.7851027
18	0x3e89fbaa	0.26949817
19	0xbe05c7ba	-0.13064471
20	0xbfa6db92	-1.3035758
21	0x3e4ebd5e	0.20189425
22	0x3e8e6251	0.27809384
23	0x3d77d20f	0.06050306
24	0x3f47e082	0.78076947
25	0x3f658b53	0.89665717
26	0x3f408dff	0.7521667
27	0x3f6d6f39	0.9274784
28	0xbf64c981	-0.8936997
29	0xbf137647	-0.5760235
30	0x3fb0f5de	1.3825033
31	0xbe2bd934	-0.16782075
32	0x3fafeafa	1.3743584
33	0x3ebb26ec	0.36553133
34	0x3f5e0946	0.867329
35	0x3f91ee9b	1.1400942
36	0xbd904806	-0.070449874
37	0x3f36acc8	0.71357393
38	0x3f5e35b8	0.8680072
39	0x3db0c5de	0.0863149
40	0x400b7c2e	2.1794543
41	0xbd57d65c	-0.052694663
42	0x3edb7b96	0.42867726
43	0x3ee4734a	0.4461921
44	0xbdecd6d3	-0.11564412
45	0x3fa3465a	1.2755845
46	0xbd16dfe5	-0.036834616
47	0x3f799d30	0.97505474
48	0x3f0e66b1	0.55625445
49	0x3f306b1a	0.68913424
50	0x3f5554c4	0.8333247
51	0x3f875284	1.0572057
52	0x3fc33273	1.5249771
53	0x3e9961c5	0.29957405
54	0x3f4087af	0.75207037
55	0xbbdacd4b	-0.006677305
56	0x3e4f7216	0.20258364
57	0x3fb50826	1.4143112
58	0x3ebc1aca	0.36739188
59	0xbe0ea018	-0.13928258
60	0x3f4b94a5	0.7952369
61	0x3ff32f99	1.8998901
62	0x3f863c8a	1.0487225
63	0x3eaecd06	0.34140795
64	0x3f1460ab	0.57960004
65	0x3e36ce75	0.17852195
66	0x3f9c50ed	1.2212197
67	0x3fde3349	1.7359401
68	0x3f0e5338	0.5559573
69	0xbdade3e8	-0.08490735
70	0x3f91d7d1	1.1393987
71	0xbe9f6d58	-0.3113811
72	0x3f4f8033	0.8105499
73	0x3fcadfa1	1.5849496
74	0x3e835cc2	0.25656706
75	0xbe7d9809	-0.24765028
76	0x3d25af92	0.04045064
77	0x3eb83dbc	0.359846
78	0xbf5ba937	-0.85805076
79	0xbe3d0898	-0.1846031
80	0xbd98acdc	-0.07454845
81	0xbe5eb78c	-0.21749705
82	0x3f4e11f6	0.80496156
83	0x3d5ca3d0	0.05386716
84	0xbf35a18b	-0.7094962
85	0xbe0d5371	-0.13801362
86	0x3e74e127	0.23914014
87	0x3be83dd2	0.0070874477
88	0xbe2e788d	-0.17038174
89	0xbdd15e3f	-0.10223054
90	0x3db8e9ed	0.09028993
91	0x3f54f2eb	0.83183163
92	0xbf56664b	-0.83749837
93	0xbea3778d	-0.31927148
94	0xbde819ea	-0.11333068
95	0x3e92b2f4	0.28652155
96	0x3ef1afb9	0.47204378
97	0xbe306804	-0.17227179
98	0x3de26468	0.11054307
99	0x3f4aa834	0.7916291
100	0xbd5c9059	-0.0538486
101	0xbea31bb8	-0.31857085
102	0x3e496899	0.19668807
103	0xbf3a0fa6	-0.7268013
104	0x3e60d490	0.21956086
105	0xbc986012	-0.018600497
106	0x3e8f6536	0.28006905
107	0xbf22b663	-0.6355955
108	0xbe3f8990	-0.1870482
109	0xbf18b801	-0.5965577
110	0xbf258436	-0.6465486
111	0x3f15c15b	0.5849816
112	0x3dd4dd25	0.103937425
113	0x3f259318	0.6467757
114	0x3fa2939f	1.27013
115	0x3f3ae0dc	0.7299936
116	0x3f5be6f4	0.8589928
117	0x3b9ef216	0.0048506362
118	0xbe87ee9b	-0.2654923
119	0x3bea9ac7	0.007159564
120	0xbf702ca2	-0.93818104
121	0x3f5a890b	0.8536536
122	0xbee1dffd	-0.44116202
123	0xbe797f96	-0.24365076
124	0x3e6983e8	0.22804224
125	0x3f337719	0.70103604
126	0xbcbb1ccb	-0.022840878
127	0xbe04de70	-0.12975478
128	0x3f4d516a	0.80202353
129	0x3d0fc291	0.035097662
130	0x3f83de6d	1.0302254
131	0x3f7568bf	0.95862955
132	0x3f0d6175	0.5522683
133	0xbf14cf33	-0.5812866
134	0x3fa67508	1.3004465
135	0xbebba4e7	-0.36649248
136	0x3f9afd4b	1.2108549
137	0x3fca5e83	1.5810093
138	0x3ebecb4a	0.37264472
139	0xbe67fe12	-0.22655514
140	0xbf208d12	-0.62715256
141	0x3c8061b0	0.015671581
142	0xbd86fdb0	-0.06591356
143	0x3d0542bd	0.03253435
144	0x3cda8fd5	0.026679913
145	0xbd3feb91	-0.046855513
146	0x3f4d5164	0.8020232
147	0xbe7a9d03	-0.24473958
148	0x3c8c7a4b	0.017148158
149	0xbd8129ea	-0.063068226
150	0xbf004243	-0.5010111
151	0x3d9cbde6	0.07653408
152	0xbf5a2d63	-0.85225505
153	0xbf5eafc5	-0.86986953
154	0x3eaa7d41	0.33298686
155	0x3f13fab8	0.5780444
156	0xbf0c0b15	-0.5470441
157	0xbe0f8507	-0.1401559
158	0x3d05a4ca	0.03262786
159	0x3e90dbc6	0.28292674
160	0x3f397406	0.7244266
161	0x3e869b96	0.26290578
162	0xbe2f47de	-0.17117259
163	0x3e1c8d79	0.15288343
164	0xbde8a7f4	-0.113601595
165	0xbea4b4e0	-0.32169247
166	0x3f038326	0.5137199
167	0xbd7e388c	-0.062065646
168	0xbee72dd4	-0.45152152
169	0xbd0499d6	-0.032373272
170	0xbdf16df0	-0.11788547
171	0xbe953fa8	-0.29150128
172	0x3e8d3732	0.27581173
173	0xbebded8e	-0.37095302
174	0x3e0d9067	0.13824616
175	0x3f7c44a0	0.98542213
176	0xbd9d76e0	-0.07688689
177	0x3ed4bf42	0.41552168
178	0x3fc959d5	1.573054
179	0x3f2b2aa9	0.6686197
180	0x3ef41646	0.47673243
181	0x3e1092eb	0.14118545
182	0xbe5d5366	-0.21613845
183	0xbc054045	-0.008132999
184	0xbda2f554	-0.07956949
185	0x3f1d7cbc	0.61518455
186	0x3dcb00f5	0.09912292
187	0xbd638064	-0.055542365
188	0x3efcd945	0.49384513
189	0x3faf9e08	1.3720102
190	0xbf3b62d7	-0.7319769
191	0x3dd309fb	0.10304638
192	0x3f1f185e	0.62146556
193	0xbf543d28	-0.8290582
194	0x3f553f9d	0.8330019
195	0x3fc3965c	1.5280261
196	0x3f1e45de	0.6182536
197	0x3d418fb4	0.047256187
198	0x3f3d81ca	0.7402617
199	0x3f83f7f3	1.0310043
200	0x3f167ea9	0.5878702
201	0x3f94c7dc	1.1623492
202	0x3e67a080	0.2261982
203	0x3d278272	0.040895887
204	0xbf4181ee	-0.7558888
205	0x3f36d583	0.71419543
206	0x4003bdf0	2.0584679
207	0x3ec7b3ed	0.3900446
208	0x3f397dd5	0.7245763
209	0x3e51a590	0.20473313
210	0x3f9f0e42	1.2426226
211	0x3d296806	0.04135897
212	0x3f8bcb22	1.0921366
213	0x3c195d8a	0.00936068
214	0x3eb3bf21	0.35106757
215	0x3e61718e	0.22015974
216	0x3f224589	0.6338735
217	0x3edd87ef	0.43267772
218	0x3eb303b2	0.34963757
219	0x3f1107e4	0.56652665
220	0x3f41c4a6	0.75690687
221	0x3f8c3a6b	1.0955328
222	0x3f77003a	0.9648472
223	0x3b94bef8	0.004539367
224	0x40010c2f	2.0163686
225	0x3eaed5ef	0.34147593
226	0xbc57e19c	-0.013176348
227	0x3f42c5ab	0.7608287
228	0xbe2fc2ee	-0.17164204
229	0x3f36a057	0.7133841
230	0x3f03a7e6	0.5142807
231	0x3f1c2748	0.6099744
232	0xbea7bb29	-0.3275998
233	0x3bfbac54	0.007680455
234	0x3dd8b607	0.10581594
235	0x3efa6f34	0.48912966
236	0x3f40c7d6	0.75304925
237	0x3d51e2b2	0.051241584
238	0x3f3783ef	0.7168569
239	0x3f4319a9	0.7621103
240	0x3f1edd2d	0.6205624
241	0x3ec4ec26	0.38461417
242	0x40152819	2.3305724
243	0x3f279f03	0.6547701
244	0x3fa22775	1.2668291
245	0x3e3784ab	0.17921703
246	0xbec82e9f	-0.3909807
247	0x3ad447f1	0.0016195757
248	0x3f11061c	0.5664995
249	0x3f9d5582	1.229172
250	0x3f89a18b	1.0752424
251	0x3d4ce9d6	0.05002769
252	0x3f8b3641	1.0875932
253	0x3fc40e5b	1.5316881
254	0xbf74035d	-0.9531763
255	0xbe36e28d	-0.1785986

fc2.bias f4 [13]
0	0xbe368f0e	-0.17828009
1	0xbf14913b	-0.58034104
2	0xbe7984f2	-0.24367121
3	0x3eaff029	0.34362915
4	0xbf0bd851	-0.5462695
5	0x3a044fc4	0.00050472864
6	0xbe832740	-0.25615883
7	0xbeecab57	-0.46224472
8	0xbeaeeef7	-0.3416669
9	0xbe801fb1	-0.2502418
10	0xbeecba49	-0.46235874
11	0xbeb47ee4	-0.3525306
12	0x40393d1b	2.8943546

fc2.weight f4 [13, 128]
0	0xbf0d1b4d	-0.5511978
1	0xbe82018b	-0.25391802
2	0xbfb127a6	-1.3840225
3	0xbf1637c7	-0.5867886
4	0xbf3841c5	-0.71975356
5	0xbeefe8db	-0.46857342
6	0xbf37e1ed	-0.7182911
7	0xbcef77d9	-0.029231953
8	0xbe5e2c81	-0.21696664
9	0xbe6aa756	-0.22915396
10	0xbf4f9278	-0.8108287
11	0xbf794be0	-0.973814
12	0xbf016f9f	-0.50560945
13	0xc013162d	-2.2982285
14	0xbf52d314	-0.8235333
15	0xbeff0838	-0.49810958
16	0xbf3f7b08	-0.74797106
17	0xbf29bf02	-0.6630708
18	0xbf0a3d71	-0.54
19	0xbe811aa5	-0.2521564
20	0xbf00c1e1	-0.50295836
21	0xbf1bcca4	-0.6085913
22	0xbcfb117e	-0.03064799
23	0xbf39e939	-0.72621495
24	0xc00433fd	-2.065673
25	0xbe541fd8	-0.20715272
26	0xbef50803	-0.47857675
27	0xbf1be510	-0.60896397
28	0xbf8f3be1	-1.1190149
29	0xc0a6912d	-5.2052217
30	0xbf27847b	-0.65436524
31	0xbede84bb	-0.4346064
32	0xbe13463c	-0.14382261
33	0xbf24f409	-0.6443487
34	0xbebcb694	-0.36858046
35	0xbf46d691	-0.7767115
36	0xbf3a28ec	-0.7271869
37	0xbf2789ef	-0.65444845
38	0xbf87f5d6	-1.0621898
39	0xbf042e1f	-0.51632875
40	0xbf1b9b42	-0.6078378
41	0xbedd0f41	-0.431757
42	0xbf19333b	-0.59843796
43	0xbf80a436	-1.0050113
44	0xbf09edfe	-0.5387877
45	0xbe9e8514	-0.30960906
46	0xbe88d538	-0.26725173
47	0xbca8dfba	-0.020614494
48	0xbe646bd2	-0.22306755
49	0xbe7e77a8	-0.24850333
50	0xbea7b5cc	-0.32755888
51	0x3cd402ff	0.025880335
52	0xbf1930d6	-0.5984014
53	0xbf180067	-0.59375614
54	0xbf19a8f7	-0.60023445
55	0xbf20359d	-0.6258181
56	0xbe390ee0	-0.1807208
57	0xbeee4d86	-0.4654352
58	0xbef19512	-0.47184044
59	0xbf3e72c2	-0.74393857
60	0xbf4e3ea2	-0.8056432
61	0xbf1deaa0	-0.61686134
62	0xbecc0e51	-0.39854673
63	0xbf00bffa	-0.50292933
64	0xbf1b23d7	-0.6060156
65	0xbf693d09	-0.9110876
66	0xbf12cff1	-0.57348543
67	0xbefdf33e	-0.49599642
68	0xbe961892	-0.2931562
69	0xbee5b71c	-0.44866264
70	0xbf2774e9	-0.65412766
71	0xbf45fa87	-0.773354
72	0xbf46fe4f	-0.77731794
73	0xbe877a43	-0.26460466
74	0xbec2395e	-0.37934393
75	0xbed4136d	-0.4142107
76	0xbf067aad	-0.5253094
77	0xbf125b46	-0.5717052
78	0xbe7e751b	-0.2484936
79	0xbf1be3c9	-0.6089445
80	0xbf381955	-0.71913654
81	0xbf628eb9	-0.8849903
82	0x3c5e729f	0.0135771325
83	0xbf28cde9	-0.65939194
84	0xbed11256	-0.40834302
85	0xbf1d60c6	-0.6147579
86	0xbea2c98d	-0.31794396
87	0xbebbf01f	-0.36706635
88	0xbf0321d4	-0.5122349
89	0xbe711b08	-0.23545468
90	0xbe69c1ca	-0.22827831
91	0xbf21375e	-0.6297511
92	0xbebeac96	-0.37241048
93	0xbf0cad46	-0.54951894
94	0xbf40b847	-0.75281185
95	0xbe27208a	-0.16321006
96	0xbf3e9c50	-0.74457264
97	0xbee9fdee	-0.45701545
98	0xbf147fb9	-0.5800739
99	0xbe96e24d	-0.2946953
100	0xbf22410d	-0.6338051
101	0x3bb06a73	0.0053837835
102	0xbeffac29	-0.49936035
103	0xbf83ffd0	-1.0312443
104	0xbf1d1f6a	-0.6137606
105	0xbed35aa9	-0.41280106
106	0xbef8941d	-0.485505
107	0xbe6c1506	-0.23054895
108	0x3c460268	0.012085535
109	0xbefc7213	-0.49305782
110	0xbe50450f	-0.20338844
111	0xbf2ef47e	-0.68341815
112	0x3cd3c24a	0.02584948
113	0xbcc832d5	-0.024438301
114	0xbe7b0a73	-0.24515705
115	0xbf313561	-0.69222075
116	0xbf5a8aee	-0.8536824
117	0xbe15a209	-0.14612593
118	0xbf39d12f	-0.72584814
119	0xbf24b876	-0.64343965
120	0xbe8d15d2	-0.2755571
121	0xbeed85d5	-0.46391168
122	0xbf17c348	-0.5928235
123	0xbf2dcd06	-0.67890966
124	0xbf2a09eb	-0.66421384
125	0xbe96b1bd	-0.2943248
126	0xbf3e39b1	-0.7430678
127	0xbee248a5	-0.44196048
128	0xbef825aa	-0.48466235
129	0xbe8733d1	-0.2640672
130	0xbf1a75fc	-0.6033628
131	0xbf217443	-0.63068026
132	0xbef4a589	-0.47782543
133	0xbf3f0da0	-0.74630165
134	0xbeea6cb8	-0.4578607
135	0x3bb86786	0.0056275753
136	0xbe5984f4	-0.21242124
137	0xbe6f3e8a	-0.233637
138	0xbf6deed6	-0.9294256
139	0xbf84bcb9	-1.0370094
140	0xbf0a7741	-0.5408822
141	0xc0421e62	-3.0331044
142	0xbef6a2b1	-0.48171
143	0xbe612c6e	-0.21989605
144	0xbeb57ff9	-0.35449198
145	0xbf4b7f30	-0.7949095
146	0xbf0ea81d	-0.5572527
147	0xbe80f9c7	-0.25190565
148	0xbef28102	-0.4736405
149	0xbe9a7447	-0.30166838
150	0xbcf31bf5	-0.029676417
151	0xbee89d9e	-0.45432752
152	0xbf245841	-0.64197165
153	0xbe588538	-0.21144569
154	0xbeb4d18e	-0.35316128
155	0xbf09f030	-0.5388212
156	0xbf375b43	-0.7162363
157	0xbf29b13c	-0.66286063
158	0xbeb238c3	-0.3480893
159	0xbea68808	-0.3252566
160	0xbe17369e	-0.14766929
161	0xbf13b4f7	-0.57698005
162	0xbf1b1faa	-0.6059519
163	0xc02f8ee8	-2.7430973
164	0xbef44a37	-0.4771287
165	0xbeeec45e	-0.4663419
166	0xbf8e8b03	-1.1136173
167	0xc04d82c3	-3.211106
168	0xbf26f3fd	-0.65216047
169	0xbf22d67b	-0.6360852
170	0xbece5c98	-0.40305018
171	0xbf4fbe9f	-0.8115024
172	0xbf30e4ab	-0.6909892
173	0xbf0fd3b0	-0.56182384
174	0xbe8a8cdc	-0.27060592
175	0x3c1e3bc4	0.009657804
176	0xbec2f946	-0.38080806
177	0xbe7edeb8	-0.24889648
178	0xbe2ca2fe	-0.16859052
179	0x3bba6b22	0.0056890408
180	0xbee7b851	-0.4525781
181	0xbf1ad391	-0.60479075
182	0xbf217f15	-0.63084537
183	0xbf18175d	-0.5941065
184	0xbe47753d	-0.19478317
185	0xbf30c19c	-0.69045424
186	0xbef7d53d	-0.48404875
187	0xbf28ce7e	-0.6594008
188	0xbf244eef	-0.64182943
189	0xbf0d9ddf	-0.5531902
190	0xbeca1fd4	-0.39477408
191	0xbea3bbd4	-0.3197924
192	0xbf0bc3c7	-0.5459561
193	0xbf85756a	-1.0426457
194	0xbe939075	-0.2882115
195	0xbf134bb0	-0.57537365
196	0xbf04d32e	-0.51884735
197	0xbf435b9d	-0.76311666
198	0xbf1d8649	-0.6153303
199	0xbf3b1df7	-0.730926
200	0xbf47d7bf	-0.7806358
201	0xbedd5d77	-0.4323537
202	0xbf0d9bb8	-0.5531573
203	0xbf1ae612	-0.6050731
204	0xbe6abd46	-0.22923765
205	0xbf2950ff	-0.66139215
206	0xbe75a0bf	-0.23987101
207	0xbef356f1	-0.4752727
208	0xbf1a50b1	-0.60279375
209	0xbf67fc0d	-0.90618974
210	0xbc0ecaf2	-0.008715378
211	0xbf771466	-0.965155
212	0xbed25167	-0.4107773
213	0xbf756db5	-0.95870525
214	0xbf02d7d0	-0.51110554
215	0xbf20e4e7	-0.6284928
216	0xbf3a935c	-0.728811
217	0xbe8165bf	-0.2527294
218	0xbe615cc5	-0.22008045
219	0xbe9da71e	-0.30791563
220	0xbece86ac	-0.4033712
221	0xbf4610a0	-0.7736912
222	0xbf201657	-0.6253409
223	0xbe11db7a	-0.1424388
224	0xbf32b4fd	-0.69807416
225	0xbeedca56	-0.46443433
226	0xbede5603	-0.43424997
227	0xbe978fb0	-0.29601812
228	0xbf1532b9	-0.5828052
229	0x3c996d02	0.018728737
230	0xbf2500d0	-0.64454365
231	0xbf87e186	-1.0615699
232	0xbecac938	-0.39606643
233	0xbf1af531	-0.6053038
234	0xbf02006a	-0.5078188
235	0xbe85daa6	-0.26143378
236	0x3b8251d6	0.0039770408
237	0xbeffa6ff	-0.49932095
238	0xbe7f2822	-0.24917653
239	0xbf342c86	-0.7038044
240	0xbc1477d8	-0.009061776
241	0xbbd75f70	-0.0065726563
242	0xbe6c7c11	-0.23094203
243	0xbf3404c5	-0.7031978
244	0xbf5dcf51	-0.86644465
245	0xbe196aeb	-0.14982192
246	0xbeb2f780	-0.34954453
247	0xbf0cdffb	-0.5502927
248	0xbf014eb5	-0.5051072
249	0xbf0850bc	-0.5324819
250	0xbf051f44	-0.5200083
251	0xbf20f43b	-0.62872666
252	0xbefe909a	-0.49719697
253	0xbf02ca17	-0.51089615
254	0xbf5dcc1b	-0.86639565
255	0xbed5b63f	-0.41740605
