src/chess_cv/weights/pieces.safetensors (safetensors, 626617 bytes, 10 tensors)

conv1.bias f4 [16]
0	0x3c362699	0.011117601
1	0xbcbe0c16	-0.023199122
2	0x3c875c57	0.016523523
3	0xbc64a013	-0.01395418
4	0x3f13739f	0.575983
5	0xbcc94c83	-0.024572616
6	0xbc9decf8	-0.019278035
7	0xbd4a7547	-0.04942825
8	0xbc9046bf	-0.01761186
9	0xbe005d23	-0.12535529
10	0xbcd9b131	-0.02657375
11	0xbcce5531	-0.025187107
12	0xbf42f094	-0.76148343
13	0x3b29f8d7	0.0025935674
14	0xbd83b32f	-0.06430661
15	0xbcfddbe2	-0.030988637

conv1.weight f4 [16, 3, 3, 3]
0	0xbca1850b	-0.01971676
1	0xbc83604a	-0.016037125
2	0xbba2c024	-0.0049667526
3	0x3d1e6fbd	0.03868078
4	0x3cc90e09	0.024542825
5	0x3d135fc2	0.035979994
6	0x3cd8c45a	0.026460815
7	0x3c3c98f9	0.011511081
8	0x3c10bf5f	0.008834689
9	0x3dd200ff	0.10254096
10	0x3dbd1e53	0.092342995
11	0x3dc994b1	0.09842814
12	0x3e76fae8	0.2411915
13	0x3e76f65e	0.24117419
14	0x3e666733	0.22500305
15	0x3e229575	0.15877326
16	0x3e2bde64	0.16784054
17	0x3e079438	0.13240135
18	0xbca9b996	-0.020718377
19	0xbd2eaff2	-0.042648263
20	0xbd972d03	-0.07381632
21	0xbe37439d	-0.17896886
22	0xbe240e12	-0.16020992
23	0xbe156cf6	-0.14592347
24	0xbec508a5	-0.38483158
25	0xbeaf66f1	-0.34258226
26	0xbeb15fe5	-0.34643474
27	0x3eaa6c2e	0.3328566
28	0x3e92c17f	0.2866325
29	0x3e7590c1	0.23981
30	0x3d9d72bd	0.076879
31	0x3d1f85bc	0.0389459
32	0x3d48f1bf	0.049058672
33	0xbdab4a09	-0.083637305
34	0xbd923434	-0.07138863
35	0xbd02bd23	-0.031918656
36	0x3e599061	0.21246482
37	0x3e33579b	0.17513888
38	0x3e12037b	0.1425914
39	0xbea60d05	-0.32431808
40	0xbe91b715	-0.28459993
41	0xbe8b3488	-0.27188516
42	0xbdfb8f1d	-0.12283156
43	0xbdbe86c3	-0.093030475
44	0xbda05c30	-0.07830083
45	0xbc9e6786	-0.019336473
46	0xbcc5d189	-0.024147766
47	0xbcaad0ad	-0.020851457
48	0xbe8b4202	-0.27198797
49	0xbe655758	-0.223966
50	0xbe595c69	-0.21226658
51	0x3e3a1346	0.18171415
52	0x3e1dae0c	0.15398425
53	0x3e1f1279	0.1553439
54	0xbd10e919	-0.03537855
55	0xbe324a86	-0.17411241
56	0x3dd8fcd6	0.105951
57	0x3ded6198	0.1159088
58	0xbeb128ea	-0.34601527
59	0x3e92cdf6	0.2867276
60	0xbd7d0189	-0.061769042
61	0xbe67ab4b	-0.22623937
62	0x3e38d752	0.18050888
63	0x3dd296a7	0.10282641
64	0xbe3f306c	-0.18670815
65	0x3e2b2fd8	0.1671747
66	0x3d5e60e2	0.054291613
67	0xbe6d7515	-0.23189195
68	0x3e1004c7	0.14064322
69	0x3d641e63	0.05569304
70	0xbe4573b3	-0.19282417
71	0x3e49e99b	0.1971802
72	0xbe086840	-0.13321018
73	0x3d6597d4	0.056052998
74	0xbe02795e	-0.1274161
75	0x3cf980cb	0.030456921
76	0xb9c8992b	-0.00038261092
77	0x3ba53ace	0.0050424105
78	0xbda3696f	-0.07979094
79	0x3bb75f9d	0.005596115
80	0xbd3d644e	-0.046238236
81	0x3e7ce231	0.2469566
82	0x3e654311	0.22388865
83	0x3e6d3c42	0.23167518
84	0x3e9117e9	0.28338555
85	0x3e74d7f0	0.23910499
86	0x3e5749cd	0.21024247
87	0x3e40581b	0.1878361
88	0x3e3b9e7b	0.18322174
89	0x3e45ce36	0.19316944
90	0xbe1ba5c6	-0.15199956
91	0xbe1cf1ce	-0.15326616
92	0xbe16f06a	-0.14740148
93	0xbda38beb	-0.079856716
94	0xbdc65829	-0.09684784
95	0xbded8791	-0.11598123
96	0xbdd08f59	-0.101835914
97	0xbdafe1b8	-0.08587974
98	0xbdaa9551	-0.08329261
99	0xbdd874c1	-0.10569144
100	0xbda956ba	-0.08268495
101	0xbdbf0362	-0.09326817
102	0xbe66c5d5	-0.22536404
103	0xbe4315f3	-0.19051342
104	0xbe1b5ec3	-0.15172867
105	0xbd6fd16b	-0.058549326
106	0xbd4ace13	-0.049512934
107	0xbd8e2d67	-0.069422536
108	0xbcdf8034	-0.027282812
109	0xbd1e0c11	-0.038585726
110	0xbd0d764d	-0.03453665
111	0x3c13dcc9	0.009024807
112	0xbb97500a	-0.0046176957
113	0xbd5ffebd	-0.054686297
114	0xbc9f55c9	-0.019450085
115	0xbd2f31ee	-0.042772226
116	0xbd5b75f5	-0.05357929
117	0x3d0a2809	0.033729587
118	0xbbf7be7b	-0.007560549
119	0xbca1ab66	-0.01973505
120	0xbe88f3fb	-0.26748642
121	0xbe80c910	-0.251534
122	0xbe5f73c0	-0.21821499
123	0xbb69098a	-0.0035558664
124	0xbc416d06	-0.011805778
125	0xbd0446a3	-0.032293927
126	0xbd2b10cd	-0.04176407
127	0xbd92296e	-0.07136808
128	0xbdde7f81	-0.10864163
129	0x3d614573	0.054997873
130	0xbc7be7a0	-0.015375048
131	0xbd7c80f5	-0.06164642
132	0xbb43c2c5	-0.002987073
133	0xbd6bdd08	-0.05758384
134	0xbdef1036	-0.11673014
135	0x3d5fa499	0.054600332
136	0x3d3de4a4	0.046360627
137	0x3c782e2b	0.015147726
138	0x3c0bba71	0.008528338
139	0xbb9bd2f1	-0.004755371
140	0x3d0383c0	0.03210807
141	0x3d3fefe2	0.04685963
142	0x3ce14037	0.02749644
143	0xbb57396c	-0.0032840623
144	0xbe9c1636	-0.30485696
145	0xbe83c6c6	-0.2573759
146	0xbe742e0a	-0.23845688
147	0xbeb13791	-0.34612706
148	0xbe9970bf	-0.2996883
149	0xbe7bdd47	-0.2459613
150	0xbe0c9bbb	-0.13731281
151	0xbde22c37	-0.110435896
152	0xbdd57485	-0.10422615
153	0x3e6583b7	0.22413526
154	0x3e4a3e35	0.19750293
155	0x3e3edda6	0.1863924
156	0x3e9b04e4	0.3027717
157	0x3e7dcbde	0.247848
158	0x3e4c9986	0.1998044
159	0x3dff1b97	0.12456434
160	0x3dfbf3ef	0.12302386
161	0x3de7a750	0.11311209
162	0xbd51f093	-0.05125482
163	0xbd2812af	-0.041033443
164	0xbd8112e6	-0.06302433
165	0x3e08b88e	0.13351652
166	0x3e0c69c2	0.13712218
167	0x3e1f8490	0.15577912
168	0x3e301139	0.1719407
169	0x3e36655a	0.178121
170	0x3e4d85c8	0.20070565
171	0xbe3e4787	-0.18581973
172	0xbe3fa1e6	-0.18714103
173	0xbe544128	-0.2072798
174	0x3dd1f77e	0.102522835
175	0x3da42ac9	0.08015973
176	0x3d982254	0.074284226
177	0x3e35b722	0.17745641
178	0x3e2fcac2	0.1716719
179	0x3e3cc352	0.18433884
180	0xbe93c35a	-0.2885998
181	0xbe8b7ca6	-0.27243537
182	0xbe8366bc	-0.25664318
183	0xbdfde11e	-0.12396453
184	0xbdef7961	-0.11693073
185	0xbe1f554c	-0.15559882
186	0x3d19a8c0	0.03751445
187	0x3d0a911c	0.033829793
188	0x3cec2666	0.028826904
189	0x3e01b243	0.12665658
190	0x3da0f28d	0.07858763
191	0x3ce2a445	0.02766622
192	0xbe8b6f2c	-0.27233255
193	0xbe853752	-0.2601877
194	0xbe93d0e5	-0.2887031
195	0x3d973804	0.07383731
196	0x3d7daf3a	0.061934687
197	0x3daa8749	0.08326585
198	0xbeaaf9ed	-0.33393803
199	0xbea88cae	-0.3291983
200	0xbeaae5a7	-0.33378336
201	0xbd182f3b	-0.037154417
202	0xbd18bc2f	-0.03728884
203	0xbd0a7da1	-0.033811215
204	0x3e792f6b	0.24334495
205	0x3e802b56	0.25033063
206	0x3e8b2214	0.27174437
207	0xbe227045	-0.1586314
208	0xbe1f6281	-0.1556492
209	0xbe2f9b5e	-0.17149112
210	0x3e288c02	0.16459659
211	0x3e3e5442	0.1858683
212	0x3e4fbbb0	0.20286441
213	0x3e494d96	0.19658503
214	0x3e5a312c	0.2130782
215	0x3e601c75	0.21885855
216	0xbb963189	-0.004583542
217	0xbccaa57b	-0.02473711
218	0xbd63e14f	-0.055634793
219	0xbe539fc7	-0.20666419
220	0xbe691a28	-0.22763884
221	0xbe7a3223	-0.24433188
222	0xbe8beb5d	-0.27328005
223	0xbe8bc4cb	-0.2729858
224	0xbea1cf65	-0.31603542
225	0x3d17ed8d	0.03709178
226	0x3d19b2b7	0.03752395
227	0x3d12900b	0.0357819
228	0x3d8003ad	0.06250701
229	0x3d9ebeb7	0.0775122
230	0x3db47926	0.0881217
231	0x3da44fa5	0.080230035
232	0x3da860dd	0.082216
233	0x3dc2d579	0.09513373
234	0x3b39f264	0.0028373236
235	0x3cc60769	0.024173455
236	0x3d1f88cd	0.038948823
237	0x3deba11a	0.11505337
238	0x3e0b1c01	0.13584901
239	0x3e27f836	0.16403279
240	0x3e2451cf	0.16046833
241	0x3e27c887	0.16385089
242	0x3e38705a	0.18011609
243	0x3dcf573d	0.10124061
244	0x3e016888	0.12637532
245	0x3dc6476c	0.096815914
246	0x3d3b4046	0.045715593
247	0xbbbaaa44	-0.005696567
248	0xbce9469c	-0.028476052
249	0x3ee02040	0.43774605
250	0x3e4dddc9	0.20104136
251	0x3da3cd50	0.079981446
252	0x3e0e67a9	0.1390673
253	0x3d25ea60	0.04050672
254	0x3b67ef27	0.0035390349
255	0xbe4f83a2	-0.20265058

conv2.bias f4 [32]
0	0x3d818a4c	0.06325206
1	0xbe5ce024	-0.21569878
2	0x3dde3a5e	0.108509764
3	0xbba1a077	-0.004932459
4	0x3e34a352	0.17640427
5	0x3e1ab2f7	0.15107332
6	0x3e4c0ab4	0.19925958
7	0xbeaaf7a3	-0.33392057
8	0x3cef50ba	0.029213298
9	0xbc121786	-0.008916741
10	0x3e8420a9	0.25806168
11	0xbc9d5383	-0.01920486
12	0xbd80ecb2	-0.06295146
13	0x3d5ae89f	0.0534445
14	0x3e575ec1	0.2103224
15	0x3d79bbb0	0.06097001
16	0xbb5f621c	-0.0034085577
17	0xbf0e85d9	-0.55672985
18	0xbdefd9ae	-0.11711441
19	0x3dd6e6cd	0.104932405
20	0x3dbcb978	0.09215063
21	0xbd09be0e	-0.033628516
22	0xbd3985b0	-0.04529351
23	0xbcacbd9a	-0.021086503
24	0x3eeab7a4	0.45843232
25	0xbd340a94	-0.0439554
26	0x3d5c3103	0.05375768
27	0xbd0e587a	-0.034752347
28	0x3d296bcc	0.04136257
29	0xbc9a0963	-0.018803304
30	0x3eccb448	0.39981294
31	0x3d7c5cde	0.061612003

conv2.weight f4 [32, 3, 3, 16]
0	0x3d1c2019	0.03811655
1	0xbda6c40c	-0.08142862
2	0x3d8037d1	0.06260646
3	0x3de75d83	0.11297133
4	0x3deec1ef	0.11658084
5	0x3e0366c4	0.1283217
6	0x3e0901fa	0.1337966
7	0xbe281283	-0.16413312
8	0x3e49bc72	0.19700792
9	0xbed93be5	-0.42428508
10	0x3e5f3bf2	0.21800211
11	0x3e438fc9	0.19097818
12	0xbdd59858	-0.10429448
13	0x3e0f8ce1	0.14018585
14	0x3e079674	0.13240987
15	0x3e55fe67	0.20897828
16	0x3cb536a1	0.022120776
17	0x3e3faec3	0.1871901
18	0x3e006617	0.12538944
19	0xbe4df8cd	-0.20114441
20	0xbda2d39e	-0.07950519
21	0xbdd2939c	-0.102820605
22	0x3e9a3cef	0.30124614
23	0x3e83da0b	0.2575229
24	0xbe8a62a9	-0.27028397
25	0xbe6b03b7	-0.22950636
26	0x3e2f816f	0.17139219
27	0x3eea4bf6	0.4576108
28	0xbe8c8ef9	-0.2745283
29	0x3e24fa8d	0.16111203
30	0xbca1fbbe	-0.01977336
31	0x3d836e46	0.06417517
32	0x3d0c9d51	0.034329716
33	0x3df6225b	0.120182715
34	0x3d48fdeb	0.04907028
35	0x3de074c4	0.10959771
36	0x3dc2346f	0.09482657
37	0x3d4decdf	0.050274726
38	0xbe15f27a	-0.14643279
39	0x3e4cd4fb	0.2000312
40	0x3d8de4e5	0.06928424
41	0x3dd79cae	0.10527931
42	0x3bc9d8e0	0.0061598867
43	0x3d31ff46	0.04345634
44	0x3db7b5e9	0.089702435
45	0x3dafc46f	0.085823886
46	0x3dbde16b	0.09271511
47	0x3e2cba80	0.16868019
48	0x3e055d86	0.13023958
49	0xbe826099	-0.25464323
50	0xbd06593a	-0.032799937
51	0xbd4a1c47	-0.049343374
52	0x3e7bc1e7	0.24585687
53	0x3e6a16d5	0.22860272
54	0x3d8fef91	0.070281155
55	0xbeb481f5	-0.352554
56	0x3df11a17	0.11772554
57	0x3d0dd3ff	0.034626003
58	0xbc2b9cfa	-0.010474438
59	0x3dcca9a0	0.09993291
60	0x3d9382c5	0.07202677
61	0xbe072473	-0.13197498
62	0xbd7b61eb	-0.06137268
63	0xbd902b1e	-0.07039474
64	0x3ef2cd67	0.47422335
65	0xbd1c3bfe	-0.03814315
66	0x3e047c1a	0.12937966
67	0x3e63645a	0.2220625
68	0x3e3f2595	0.1866668
69	0x3e98e01e	0.29858488
70	0xbe5ea2ca	-0.21741787
71	0xbe3d192e	-0.18466637
72	0x3e8dc598	0.27689815
73	0xbe27c681	-0.16384317
74	0xbe12a278	-0.1431979
75	0x3c1e2a94	0.009653706
76	0xbeacddf4	-0.33763087
77	0x3ddd6d7d	0.10811899
78	0xbd6509bb	-0.055917483
79	0xbd7acac2	-0.06122852
80	0x3e83bac8	0.2572844
81	0x3dd92674	0.106030375
82	0x3cd823cf	0.026384262
83	0xbe16ed03	-0.1473885
84	0x3e885108	0.26624322
85	0x3da8e7a4	0.08247307
86	0xbd89d690	-0.06730378
87	0x3e3b86c7	0.18313132
88	0xbea03e48	-0.31297517
89	0x3e572c86	0.21013078
90	0xbe8f7837	-0.28021404
91	0x3d4e4ce3	0.050366294
92	0x3de5d92f	0.11223065
93	0xbcc545cb	-0.024081131
94	0x3c6915ca	0.014226386
95	0xbc24cadf	-0.010058134
96	0x3e1ba203	0.15198521
97	0xbeeb509f	-0.45959947
98	0xbe2c6c3a	-0.1683816
99	0x3e8f0e20	0.27940464
100	0xbe0414f0	-0.12898612
101	0x3e95cac2	0.29256254
102	0x3e840adf	0.25789544
103	0xbf1a943f	-0.60382456
104	0x3e606177	0.2191218
105	0x3d16bcff	0.036801334
106	0xbe29955b	-0.16560881
107	0xbf172844	-0.59045815
108	0x3de1625c	0.11005089
109	0xbe3f2641	-0.18666936
110	0xbe0086cd	-0.12551422
111	0xbe325340	-0.1741457
112	0x3e223ad1	0.15842749
113	0xbf009125	-0.5022147
114	0xbe358dea	-0.17729917
115	0x3eb18d8a	0.34678298
116	0xbe7727d2	-0.24136284
117	0x3ee8ec3f	0.4549274
118	0xbec7751c	-0.38956535
119	0xbf38710c	-0.72047496
120	0x3ed7bb9d	0.42135325
121	0x3c11f5ea	0.008908728
122	0xbed98aaa	-0.42488605
123	0xbf96dcde	-1.1786153
124	0x3d717555	0.058949787
125	0xbe7d00c1	-0.24707319
126	0x3d37216e	0.044709615
127	0xbda60e89	-0.08108241
128	0x3e9a53ea	0.30142146
129	0xbe41bd25	-0.18919809
130	0xbde9ca99	-0.114155956
131	0x3ea11552	0.3146158
132	0xbebf7ce0	-0.3739996
133	0x3e8743f0	0.2641902
134	0xbf09c4de	-0.5381602
135	0xbe3ea3ad	-0.18617125
136	0xbd975f35	-0.07391206
137	0xbe316ad9	-0.17325915
138	0xbeed6722	-0.46367747
139	0xbf08cbc5	-0.5343593
140	0x3e822fa7	0.2542698
141	0xbda768e5	-0.08174304
142	0xbe0478f0	-0.12936759
143	0xbe121fc7	-0.14269935
144	0xbce9ba40	-0.028531194
145	0x3e36b56c	0.17842644
146	0xbce49c39	-0.027906524
147	0xbdcbdff3	-0.09954824
148	0xbe20aa85	-0.15690048
149	0xbd529a03	-0.05141641
150	0xbd36d930	-0.04464072
151	0x3ecb1632	0.3966537
152	0xbd8a8183	-0.06762984
153	0x3e81c2fb	0.2534407
154	0xbd983a5b	-0.074330054
155	0x3d658a19	0.056039903
156	0xbd9a1d30	-0.07525098
157	0x3dc3c2c4	0.09558633
158	0xbbc4e49d	-0.006008698
159	0xbddcf670	-0.10789192
160	0x3e592303	0.21204762
161	0x3de17da5	0.11010293
162	0xbe857793	-0.2606779
163	0x3e21c749	0.15798678
164	0x3e70e18f	0.23523544
165	0xbd038b15	-0.03211506
166	0xbe97a995	-0.29621568
167	0x3e67a42e	0.22621223
168	0x3efa8897	0.48932335
169	0x3e9a1c40	0.30099678
170	0xbd278049	-0.040893827
171	0xbdf3aa30	-0.11897695
172	0xbd8c18ad	-0.06840644
173	0xbf28f728	-0.6600213
174	0xbf36509f	-0.7121677
175	0xbf31661b	-0.69296426
176	0xbebb0d07	-0.36533377
177	0xbd25c998	-0.040475458
178	0x3d273d61	0.04083002
179	0xbbe439f9	-0.0069649187
180	0xbdd58471	-0.10425652
181	0x3cf3923d	0.029732818
182	0x3ebb3524	0.3656398
183	0xbe3d5b90	-0.1849196
184	0xbcd06d41	-0.025442721
185	0xbe6e652d	-0.23280783
186	0x3e631814	0.22177154
187	0xbce841d9	-0.028351711
188	0xbec8631b	-0.3913811
189	0xbc9f6fa3	-0.019462412
190	0xbe8738ab	-0.26410422
191	0x3c1a5d03	0.00942159
192	0xbe69625f	-0.22791432
193	0xbca780b8	-0.02044712
194	0x3e6642f0	0.22486472
195	0xbd3c920c	-0.04603772
196	0xbde6eb76	-0.11275379
197	0xbddeb933	-0.10875168
198	0x3e22e6ca	0.15908352
199	0x3da32dcb	0.07967719
200	0x3ba1b521	0.0049349223
201	0xbd47df0b	-0.048796695
202	0x3df0b9bb	0.11754175
203	0x3e503e5a	0.20336285
204	0x3e1f3651	0.15548064
205	0x3e2e282e	0.17007515
206	0x3bb15573	0.0054117977
207	0x3e8fba08	0.28071618
208	0x3ebde981	0.37092212
209	0xbdfda5dc	-0.12385151
210	0xc01d84d7	-2.461233
211	0x3e86568d	0.26237908
212	0x3e3ac97f	0.18240927
213	0x3e3df330	0.185498
214	0x3e900520	0.2812891
215	0xbc1dda9e	-0.009634642
216	0x3dd66d1a	0.10470028
217	0xbe2c328a	-0.16816154
218	0xbe07dedf	-0.13268612
219	0x3ceb87e9	0.02875133
220	0x3e6efcb5	0.23338588
221	0xbfb21e4b	-1.3915495
222	0xbf1b7576	-0.60726106
223	0xbfa45b8d	-1.2840439
224	0x3d0885e1	0.033330802
225	0x3e606b43	0.21915917
226	0x3defbfa8	0.117064774
227	0x3d2f34e8	0.042775065
228	0xbe81bdd0	-0.25340128
229	0x3d09d49e	0.033650033
230	0xbe3267a2	-0.17422345
231	0x3e0f00b8	0.13965118
232	0x3d86f877	0.0659036
233	0x3c61b96a	0.013777116
234	0x3db764e8	0.08954793
235	0x3eaf8610	0.3428197
236	0x3e0b68b1	0.13614155
237	0xbdcce9f2	-0.10005559
238	0x3d361f4a	0.044463433
239	0xbe93b39d	-0.28847972
240	0xbdc22043	-0.0947881
241	0xbafb8623	-0.0019189756
242	0x3df59b8f	0.11992561
243	0xbb9363f5	-0.004498
244	0x3d568acc	0.05237846
245	0xbdf8e31b	-0.12152692
246	0xbe0170ac	-0.12640637
247	0x3cc60d06	0.024176132
248	0x3dd6000e	0.10449229
249	0x3e0dcfbc	0.13848776
250	0xbcf16806	-0.029468548
251	0xbd9a421d	-0.07532141
252	0x3e1457b4	0.14486581
253	0x3cce7737	0.02520333
254	0x3e807f19	0.25096968
255	0x3e19962c	0.14998692

conv3.bias f4 [64]
0	0xbd8b316b	-0.06796535
1	0xbe735e19	-0.23766364
2	0x3cee3d4e	0.029081967
3	0xbf1f3b9d	-0.6220034
4	0xbf56c75f	-0.83897966
5	0xbf4b27c7	-0.7935757
6	0xbf2fb585	-0.6863635
7	0xbd044518	-0.032292455
8	0xbdb66435	-0.08905832
9	0xbdd5b4d0	-0.10434878
10	0x3d7a551b	0.06111632
11	0xbeb4fbd6	-0.35348386
12	0x3f080be7	0.5314316
13	0x3f231a5d	0.637121
14	0x3e44c0d9	0.1921419
15	0xbf028d1b	-0.5099656
16	0xbdccd256	-0.10001056
17	0xbf1bab25	-0.6080802
18	0xbed7954f	-0.421061
19	0xbfd6f52e	-1.6793573
20	0xbf392559	-0.72322613
21	0xbe8e3d0c	-0.2778095
22	0xbf31add1	-0.6940585
23	0xbdc82fb3	-0.09774723
24	0x3eba859c	0.3643006
25	0x3eccfc0b	0.40036044
26	0xbe9296c0	-0.28630638
27	0x3b16d423	0.0023014627
28	0x3d89c078	0.067261636
29	0xbe8a15f9	-0.2696989
30	0xbe84bc1f	-0.25924775
31	0x3ef30c70	0.47470427
32	0xbdf603e4	-0.12012461
33	0xbee88634	-0.4541489
34	0xbe75c0f0	-0.23999381
35	0xbdd35765	-0.103194036
36	0xbdd8a9e3	-0.10579278
37	0xbe1e35ef	-0.15450262
38	0x3daaea3a	0.083454564
39	0xbcffd8da	-0.031231333
40	0x3e4a46c5	0.19753559
41	0xbf1b83b5	-0.60747844
42	0x3e90af31	0.2825866
43	0x3e343ecf	0.17602085
44	0xbd51977d	-0.05116986
45	0xbe742ff7	-0.23846422
46	0xbe388833	-0.18020706
47	0x3dc168d0	0.094438195
48	0xbe6f4f81	-0.23370172
49	0x3b21b72d	0.0024675832
50	0xbe240de0	-0.16020918
51	0xbf055a09	-0.5209051
52	0xbe42c0aa	-0.19018808
53	0xbc3958fe	-0.011312721
54	0xbab2bb65	-0.001363617
55	0xbfcd3c2c	-1.6033988
56	0x3d92133e	0.071325764
57	0x3cfa70a6	0.030571293
58	0xbe557cde	-0.20848414
59	0x3e66c19f	0.22534798
60	0x3f9462c0	1.1592636
61	0xbe1f9793	-0.15585165
62	0x3de38252	0.11108841
63	0xbf89675c	-1.0734668

conv3.weight f4 [64, 3, 3, 32]
0	0xbd4e3340	-0.050341845
1	0xbd797789	-0.060905013
2	0xbceea542	-0.029131535
3	0xbc0e8067	-0.008697606
4	0x3b969758	0.0045956783
5	0xbb07420a	-0.0020638728
6	0xbca5ce97	-0.020240111
7	0xbc5f84cf	-0.013642504
8	0xbcff53bd	-0.03116786
9	0xbb978517	-0.00462402
10	0xbb0fb6e7	-0.0021929087
11	0xbc0bc5b4	-0.008531023
12	0x3cdf233a	0.027238477
13	0xbd33cd46	-0.043896936
14	0x3b89636f	0.0041927616
15	0x3ccc5013	0.024940526
16	0x3c3e21f9	0.011604779
17	0x3b533c48	0.0032231975
18	0xbd95f4b2	-0.073220626
19	0xbd4183b5	-0.047244746
20	0xbc81c34c	-0.015840195
21	0xbd167b2b	-0.036738556
22	0xbc80ddd8	-0.015730783
23	0xbcd4387a	-0.025905836
24	0x3b398ff6	0.0028314567
25	0xbd37fc5c	-0.044918403
26	0xbd119c87	-0.035549667
27	0xbb6a795f	-0.003577791
28	0xbd5458b4	-0.051842406
29	0xbbfd3615	-0.0077273943
30	0xbd30cf17	-0.043166246
31	0xbb787109	-0.003790917
32	0x3abb7e68	0.001430464
33	0xbc20d4d1	-0.009816364
34	0x3cf02bab	0.029317698
35	0xbcf32f4d	-0.02968564
36	0xbbbab2c5	-0.0056975805
37	0xbd5a9279	-0.053362343
38	0x3ae5a0be	0.0017519218
39	0xbd97c148	-0.07409912
40	0x3d0a4bad	0.033763576
41	0xbd14ce4d	-0.036329556
42	0xbcf0ccf1	-0.029394599
43	0x3c2a4af4	0.010393847
44	0xbcd157d4	-0.025554575
45	0xbd0271c4	-0.031846777
46	0xbd5c7f36	-0.053832255
47	0x3c7e3a68	0.015516855
48	0x3d09c22d	0.033632446
49	0xbd12fa62	-0.035883315
50	0xbd79a8ab	-0.06095187
51	0xbd33f3e8	-0.04393378
52	0xbd6c8b0e	-0.0577498
53	0xbd1110e3	-0.035416495
54	0xbd5df2e0	-0.0541867
55	0xbbf90b83	-0.0076002493
56	0xba55cae7	-0.000815554
57	0xbd8e61c1	-0.06952239
58	0xbcab6793	-0.020923411
59	0xbd2d66f1	-0.0423345
60	0xbd396f28	-0.045272022
61	0xbd3bda44	-0.04586245
62	0xbd50e7ed	-0.05100243
63	0xbd2b5f78	-0.041839093
64	0xbc10ac6e	-0.008830173
65	0xba5d63e3	-0.0008445365
66	0xbc040c63	-0.008059594
67	0xbc823aea	-0.015897233
68	0xbcee5b5a	-0.029096294
69	0xbcabc560	-0.02096814
70	0xbc48e3cd	-0.012261343
71	0xbb8016cd	-0.003908968
72	0xbc9b813b	-0.01898252
73	0xba03b6db	-0.0005024501
74	0xbd121da1	-0.035672788
75	0xba7cef9b	-0.0009648741
76	0x3b46805d	0.0030288913
77	0xbc8e444c	-0.01736655
78	0xbd1ccb5b	-0.038279872
79	0xbd5da991	-0.05411679
80	0xbcffa84e	-0.031208184
81	0x3be9a635	0.007130409
82	0xbd168ecf	-0.036757287
83	0xbd56ced6	-0.052443348
84	0xbd380c72	-0.044933744
85	0xbd304494	-0.04303415
86	0xbd4355f9	-0.04768941
87	0x3baace76	0.0052126003
88	0xbd355634	-0.044271663
89	0xbdb31151	-0.08743537
90	0xbc260f68	-0.010135509
91	0xbd02ee5a	-0.03196559
92	0xbd117155	-0.035508472
93	0xbcdfc097	-0.027313514
94	0x3c53a37c	0.012917396
95	0xba0f4beb	-0.000546633
96	0xbd86efcb	-0.06588706
97	0xbd895216	-0.0670511
98	0xbbefdcf1	-0.0073200394
99	0xbc8c3461	-0.01711482
100	0x3d4bb7b3	0.049735736
101	0x3c2a13e7	0.010380722
102	0xbdb9f7fe	-0.09080504
103	0xbc40785e	-0.011747448
104	0xbc13cf57	-0.009021602
105	0x3c205b5b	0.009787406
106	0xbca64bfb	-0.020299902
107	0xbd2f82af	-0.04284924
108	0xbccbf3bc	-0.024896495
109	0xbcd5ff24	-0.026122637
110	0xbd52b705	-0.051444072
111	0xbd324dad	-0.04353111
112	0xbd2b885d	-0.041878093
113	0xb9d9baea	-0.00041528727
114	0xbc98d53b	-0.018656364
115	0xbd919d1d	-0.07110045
116	0xbcf3669b	-0.029712012
117	0xbd15aced	-0.036541868
118	0x3a669b7e	0.0008796974
119	0x3ce6997a	0.028149355
120	0xbd21a84c	-0.03946714
121	0xbc9aa5ab	-0.018877825
122	0xbd58a508	-0.05289176
123	0xbd64566e	-0.05574649
124	0xbd5986de	-0.053107135
125	0xbcfecc17	-0.031103177
126	0xbd316995	-0.04331358
127	0xbc36c7cb	-0.011156033
128	0xbaddc985	-0.0016921019
129	0xbc94c385	-0.018159637
130	0xbd26cb94	-0.04072149
131	0xbd3cf5ce	-0.046132855
132	0x3c283498	0.010266446
133	0xbd327a04	-0.043573394
134	0xbd5c40f5	-0.053772885
135	0x3b94aed5	0.004537443
136	0xbcac66be	-0.021045085
137	0xbc7e293c	-0.015512761
138	0xbd8cb1d5	-0.06869856
139	0xbcab7d3d	-0.020933742
140	0xbc829c45	-0.015943656
141	0xbd25b54b	-0.040456098
142	0xbd5d26ed	-0.0539922
143	0xbd359d3c	-0.044339404
144	0xbbe2078c	-0.0068978723
145	0xbc94920b	-0.018136045
146	0xbcc38d94	-0.02387122
147	0xbd6dd785	-0.058066864
148	0xbd35490d	-0.04425912
149	0xbd83d814	-0.06437698
150	0xbbdfcaed	-0.0068296106
151	0xbd4d92cd	-0.05018883
152	0xbc979af9	-0.018506514
153	0xbd513e1c	-0.051084623
154	0xbd0ba11c	-0.034089193
155	0xbd23e63b	-0.040014487
156	0xbd15f372	-0.03660912
157	0xbd773dd9	-0.060361717
158	0xbd7ea63e	-0.06217026
159	0xbd000a2c	-0.0312597
160	0xbd3d31a7	-0.04618993
161	0xbcb063d5	-0.021531979
162	0x3c22d2ab	0.0099379225
163	0xbc943cd0	-0.018095404
164	0x3c9011f6	0.01758669
165	0xbcae3691	-0.021266254
166	0xbc51a2cd	-0.012795162
167	0xbcaab293	-0.020837104
168	0xbd04ae12	-0.03239257
169	0xbc86fb8d	-0.01647737
170	0xbc8c4f0c	-0.017127536
171	0xbd147ac7	-0.036249902
172	0x3bb368a7	0.005475122
173	0xbcad928b	-0.021188041
174	0x3bf5e644	0.0075042564
175	0xbcad54a0	-0.021158516
176	0xbccf2ce8	-0.025289968
177	0xbd3bbee7	-0.045836356
178	0xbdbd0e39	-0.092312284
179	0xbd06262b	-0.032751244
180	0xbca0d291	-0.019631656
181	0x3a31668a	0.00067672937
182	0xbce4bef8	-0.027923092
183	0xbd546c6e	-0.05186122
184	0xbcbc19f5	-0.022961596
185	0xbb50194c	-0.003175336
186	0x3ad6a7bc	0.0016376893
187	0xbcec8003	-0.028869634
188	0xbc9d90b0	-0.019234031
189	0xbd2be550	-0.041966736
190	0xbd7dadb7	-0.061933246
191	0x3c13913e	0.009006796
192	0xbcd4d95a	-0.025982548
193	0xbd1e419a	-0.03863678
194	0x3bfa0dc7	0.007631037
195	0xbd749dc3	-0.059720766
196	0x3b7d7c23	0.0038678728
197	0xbd2ebb8e	-0.042659335
198	0xbd520f37	-0.05128404
199	0xbd273c0c	-0.04082875
200	0x3c3ced0d	0.011531127
201	0x3b9851ab	0.0046484075
202	0xbd20f8ef	-0.0392999
203	0xbc7fe08f	-0.015617504
204	0xbd1dc8cc	-0.038521573
205	0xbd20cc42	-0.039257295
206	0xbcafbcda	-0.021452356
207	0x3c03f4fa	0.008054012
208	0x3ce6d74c	0.028178833
209	0x3c9cc195	0.019135276
210	0xbd12b30a	-0.035815276
211	0xbc9bce94	-0.019019403
212	0xbb999075	-0.00468641
213	0xbceb62e5	-0.02873368
214	0xbd497508	-0.049183875
215	0xbba67ebb	-0.0050810254
216	0x3b553ae7	0.003253633
217	0x3c077f51	0.008270101
218	0x3cd0c914	0.025486507
219	0xbd79feb5	-0.061033923
220	0xbc2e5105	-0.010639434
221	0xbc855157	-0.016274137
222	0xbcd93d6e	-0.02651855
223	0xbc3e79a6	-0.011625683
224	0x3bbb83bb	0.0057224906
225	0xbcee8180	-0.029114485
226	0xbcb8c0bc	-0.02255284
227	0xbd013eab	-0.031553905
228	0x3c3405e6	0.010987734
229	0xbd887533	-0.06662979
230	0xbcc9baa3	-0.024625128
231	0x39e25e4e	0.00043176342
232	0xbd86ec99	-0.06588096
233	0xbd156001	-0.03646851
234	0xbc9eddd5	-0.019392887
235	0xbd207b2e	-0.039179973
236	0x3c511b09	0.012762793
237	0xbcda0c7d	-0.026617283
238	0xbd90e2b2	-0.07074489
239	0xbd1869bc	-0.03721021
240	0xbcc54f39	-0.024085628
241	0xbd21a25b	-0.039461475
242	0xbd7689f5	-0.06019016
243	0xbd4165a2	-0.047216065
244	0xbb3ec872	-0.0029111174
245	0x3bf23ac3	0.007392259
246	0xbd19c04d	-0.037536908
247	0xbd3a75bd	-0.04552244
248	0x3bba6777	0.0056886035
249	0x3c9fc0ab	0.019501051
250	0xbd295902	-0.04134465
251	0xbd969cc8	-0.073541224
252	0xbd214760	-0.03937471
253	0xbd12c7bb	-0.03583501
254	0xbdbbd078	-0.09170622
255	0xbc84461c	-0.016146712

fc1.bias f4 [128]
0	0xbe496b8d	-0.19669934
1	0xbfa002ff	-1.2500914
2	0xc0114772	-2.2699857
3	0xbf7bef5b	-0.984121
4	0xbe82dbe2	-0.25558382
5	0xbf3c2dc7	-0.7350735
6	0xbf238678	-0.6387706
7	0xbf1d39a4	-0.6141608
8	0x3ee83372	0.4535175
9	0x3e8538db	0.2601994
10	0xbe95c5bc	-0.29252422
11	0xbeb1febc	-0.3476466
12	0xbec8ccd3	-0.39218768
13	0xbe4689fd	-0.19388576
14	0xbe2df4a8	-0.1698786
15	0xbe9deead	-0.30846158
16	0xbef0551e	-0.4693994
17	0xbd046d12	-0.03233058
18	0x3e879082	0.26477438
19	0xbcffc934	-0.03122387
20	0x3e51f4c6	0.2050353
21	0x3e950f74	0.29113352
22	0xbe84cce7	-0.25937578
23	0xbc692d18	-0.014231943
24	0xbd2f45ce	-0.04279118
25	0xbee66fb5	-0.450071
26	0x3f3174b1	0.6931868
27	0xbf7fd8b4	-0.9994004
28	0x3f07f1a6	0.531031
29	0x3da15203	0.078769706
30	0xbf9bd9db	-1.2175859
31	0xbe9be550	-0.3044839
32	0xbee7f34f	-0.45302817
33	0xbf8b120b	-1.0864881
34	0xbf842b89	-1.0325786
35	0xbe02cc57	-0.12773262
36	0x3ec11cf3	0.377174
37	0xbd866f3a	-0.065641835
38	0x3e82d80d	0.2555546
39	0x3cf01d6a	0.0293109
40	0xbe887c00	-0.26657104
41	0xbd07f738	-0.03319475
42	0xbec45d32	-0.38352352
43	0xbe9cd218	-0.3062904
44	0xbf10f93f	-0.5663032
45	0xbe78359e	-0.24239203
46	0x3da507c1	0.080581196
47	0x3f351eef	0.70750326
48	0xbe9ca592	-0.3059507
49	0xbea3c202	-0.31983954
50	0xbc817772	-0.015804026
51	0x3e5b1e70	0.2139833
52	0xbdd7a66f	-0.105297916
53	0xbd3f0c88	-0.04664281
54	0xbf080d02	-0.5314485
55	0x3e0429bc	0.12906545
56	0xbd05a351	-0.032626454
57	0xbe8cae42	-0.27476698
58	0xbee70df2	-0.45127827
59	0xbea5aff7	-0.32360813
60	0xbc99b2a3	-0.018761938
61	0xbf1de8a0	-0.6168308
62	0xbc3e209a	-0.0116044525
63	0x3daf509a	0.085602954
64	0xbcd32e2b	-0.02577885
65	0xbd019e3c	-0.031645045
66	0xbe329330	-0.1743896
67	0x3e4985e6	0.19679984
68	0xbf7c5776	-0.98570955
69	0x3dfe0f0d	0.124052145
70	0x3ed1d4b9	0.40982607
71	0xbf315c4c	-0.6928146
72	0xbeeee06e	-0.466556
73	0xbf2a2527	-0.6646294
74	0x3d1dc082	0.038513668
75	0xbe7d476c	-0.24734277
76	0xbfcf8ea8	-1.621541
77	0xbfea0c6b	-1.828504
78	0xbce0d86b	-0.027446946
79	0xbfaa44b0	-1.3302212
80	0xbe9811d6	-0.29701108
81	0xbfccc4e1	-1.5997583
82	0xbe0aae92	-0.13543156
83	0x3ec95a37	0.3932664
84	0xbf0227c2	-0.50841916
85	0xbe8f3725	-0.2797176
86	0xbed8ba24	-0.42329514
87	0x3f5e84f2	0.8692161
88	0xbf808f6b	-1.0043768
89	0xbf39ac44	-0.7252848
90	0xbebb8203	-0.3662263
91	0x3f1c1fb7	0.60985893
92	0x3e2f46eb	0.17116897
93	0xbfa15792	-1.2604849
94	0xbe87cb6a	-0.2652238
95	0xbfd50f41	-1.664528
96	0x3dffb4ad	0.12485633
97	0xbe0830f5	-0.13299926
98	0xbf807215	-1.0034815
99	0xbf27bf0a	-0.6552588
100	0x3da8c089	0.08239848
101	0x3e86b24b	0.26307902
102	0xbf84437b	-1.0333093
103	0xbe2a8eb9	-0.16656007
104	0xbd249fe5	-0.04019155
105	0xbf7bbc5d	-0.98334295
106	0x3edf9bae	0.43673462
107	0xbcc70dbd	-0.024298543
108	0xbe9a479a	-0.30132753
109	0xbf6d8fa3	-0.927973
110	0xbef7e209	-0.4841464
111	0x3f67cba0	0.9054508
112	0xbdfdf295	-0.123997845
113	0x3e6d049e	0.23146293
114	0x3bd2f571	0.0064379503
115	0x3f515a67	0.8177857
116	0xc0120034	-2.2812624
117	0xbdd7144c	-0.10501918
118	0xbdcb4104	-0.0992451
119	0xbd6ec5b1	-0.058294002
120	0x3bc08df3	0.0058762967
121	0xbfb938ca	-1.4470456
122	0x3e1a980d	0.15097065
123	0xbe609087	-0.21930133
124	0x3f21f2f5	0.6326135
125	0xbf2208bc	-0.6329458
126	0x3f7d4590	0.9893427
127	0x3f4012a6	0.75028455

fc1.weight f4 [128, 1024]
0	0xbc8cb748	-0.017177239
1	0x3f967fae	1.1757715
2	0xbe4c271b	-0.19936793
3	0xbd811dd4	-0.063045174
4	0x3f27446b	0.6533877
5	0xbe12b6b5	-0.1432751
6	0xbeca15da	-0.39469796
7	0x3f436d1e	0.76338375
8	0x3f588659	0.8458
9	0x3e356a32	0.17716292
10	0x3e82f1ea	0.2557519
11	0x3e72bd22	0.23704961
12	0xbe88fa2e	-0.26753372
13	0xbe060581	-0.13088037
14	0x3ea693e7	0.32534716
15	0xbe93f9d9	-0.28901556
16	0x3e4cdede	0.20006892
17	0x400271a1	2.0381854
18	0x3e3c1732	0.18368223
19	0x3ebc8380	0.36819077
20	0x3f2ec0e0	0.68263054
21	0x3fc3bc3f	1.5291823
22	0x3e657011	0.22406031
23	0x3e631e37	0.22179495
24	0x3e5e18a3	0.21689086
25	0xbed1a191	-0.40943578
26	0x3f0f5199	0.55983883
27	0x3f4526a5	0.7701209
28	0x3f89fa23	1.0779461
29	0x3edebbae	0.43502563
30	0x3f493f9b	0.7861268
31	0x3f407c16	0.7518934
32	0x3f34fb5b	0.7069604
33	0x3e722cb9	0.23649873
34	0x3f2f8171	0.68556887
35	0xbc0f2477	-0.008736721
36	0x3f35c104	0.70997643
37	0x3f238632	0.6387664
38	0xbedf3557	-0.43595383
39	0x3f82e683	1.0226597
40	0x3ecc3059	0.39880636
41	0x3f4ebf25	0.80760413
42	0xbe25a6d0	-0.16176915
43	0xbf2e0840	-0.6798134
44	0x3f891747	1.0710229
45	0x3f46cf5f	0.77660173
46	0xbe8b7d43	-0.27244005
47	0x3f232aa9	0.6373697
48	0x3e8c311a	0.27381212
49	0x3f5d2a2e	0.86392486
50	0x3ed1231b	0.40847096
51	0x3fe942d0	1.8223515
52	0x3f3462e8	0.7046342
53	0x3ec4d79a	0.3844574
54	0x3d04f5f2	0.032461114
55	0x3f1520dc	0.58253264
56	0x3e31266e	0.17299816
57	0x3ec19f37	0.37816784
58	0x3f5d4409	0.8643194
59	0xbe99c51c	-0.30033195
60	0x3bd0cced	0.0063720853
61	0xbd4a6abc	-0.049418196
62	0x3f81fe30	1.0155697
63	0x3ef3de6c	0.47630632
64	0x3cfc97b3	0.030834055
65	0x3f24b966	0.64345396
66	0xbef34a01	-0.47517398
67	0x3f2ec657	0.6827139
68	0x3daa27d5	0.083083786
69	0x3e167760	0.14693975
70	0x3f4bdce1	0.7963391
71	0x3a013370	0.0004928624
72	0x3f669809	0.9007574
73	0x3e22bf55	0.158933
74	0xbbb9223e	-0.005649834
75	0x3db5fe87	0.08886438
76	0xbe112f84	-0.14178282
77	0xbe599ff9	-0.21252431
78	0xbdcce877	-0.10005277
79	0xbda2dcc8	-0.07952267
80	0xbd89d91d	-0.06730864
81	0x3f99b3d6	1.2008007
82	0x3f8d2ca1	1.1029245
83	0x3dda71e6	0.10666256
84	0x3f6a7a71	0.9159308
85	0x3f7293a8	0.94756556
86	0xbbdd2e20	-0.0067498833
87	0xbf0e1333	-0.55498046
88	0x3e81080c	0.25201452
89	0xbeb281c6	-0.34864634
90	0xbe696ead	-0.22796126
91	0x3e8e2724	0.27764237
92	0x3e13c33a	0.14429942
93	0x3d186e0e	0.03721433
94	0x3ea5007b	0.3222693
95	0x3e7c1d0c	0.24620456
96	0x3ca35c3f	0.019941447
97	0x3dcc494f	0.0997492
98	0xbea7925f	-0.3272886
99	0xbd6d6794	-0.057960108
100	0x3eee20e6	0.46509475
101	0xbe00dd6a	-0.12584463
102	0xbeef55a2	-0.4674502
103	0x3e391bed	0.18077059
104	0x3e09e9d3	0.13468103
105	0xbea6fc1f	-0.32614228
106	0xbdaab2e4	-0.08334902
107	0x3e8c2aa7	0.2737629
108	0x3ee96113	0.45581874
109	0xbe787de1	-0.24266769
110	0xbf1c0fda	-0.6096169
111	0xbea0ba3b	-0.31392083
112	0x3e336461	0.1751876
113	0x3eadef12	0.3397146
114	0xbec54a73	-0.38533363
115	0xbb9dcf6b	-0.004815986
116	0xbfbe9375	-1.488875
117	0x3e9d60ce	0.3073792
118	0x3d7c4e28	0.061597973
119	0x3ea6ac22	0.32553202
120	0x3e886d02	0.26645666
121	0xbe7f707a	-0.2494525
122	0xba64accd	-0.0008723259
123	0xbea6c7c0	-0.32574272
124	0xbe7c964d	-0.2466671
125	0x3f1ac7d1	0.60461146
126	0x3ebf8e67	0.37413332
127	0xbf8fd5a9	-1.1237079
128	0xbd2ee4cc	-0.042698666
129	0x3e836869	0.25665596
130	0x3ed9d5a9	0.42545822
131	0x3f66ff30	0.90233135
132	0xbe79dbd5	-0.24400266
133	0x3db69dd4	0.08916822
134	0x3f643141	0.89137655
135	0x3ee30f2d	0.44347516
136	0x3f686114	0.9077313
137	0xbce81eca	-0.028334994
138	0xbdd691d9	-0.10477037
139	0x3ebf8f86	0.37414187
140	0x3e3b7070	0.1830461
141	0xbd3807ee	-0.044929437
142	0xbe0e513e	-0.13898179
143	0x3f117685	0.5682147
144	0x3c346336	0.011009982
145	0x3f87b505	1.0602118
146	0x3faf822d	1.3711601
147	0xbeb9aa6d	-0.36262837
148	0x3faf5a02	1.3699343
149	0x3eb9b2a0	0.36269093
150	0x3f850dc4	1.0394826
151	0xbea21b1f	-0.31661317
152	0xbd627223	-0.05528463
153	0xbf4b5cab	-0.79438275
154	0xbe4b9f73	-0.19885044
155	0x3dc763e9	0.09735853
156	0x3d89420b	0.0670205
157	0xbdcb412a	-0.099245384
158	0xbe96f637	-0.29484722
159	0x3ef037bf	0.4691753
160	0x3f10857a	0.5645367
161	0xbe3b9023	-0.18316703
162	0xbea24109	-0.31690243
163	0xbdc43d35	-0.09581987
164	0x3dd75351	0.10513938
165	0xbea7d252	-0.3277765
166	0xbf0f30a6	-0.55933607
167	0xbedd4011	-0.4321294
168	0x3ef35436	0.47525185
169	0xbef7a9a8	-0.48371625
170	0xbe4dd561	-0.20100929
171	0x3c17fa96	0.009276053
172	0x3d7bc5c3	0.061467897
173	0xbeae61ef	-0.34059092
174	0x3f0e6743	0.55626315
175	0xbea3e907	-0.32013723
176	0x3d2af9b0	0.041742027
177	0xbf00c77e	-0.503044
178	0xbebb30e4	-0.36560738
179	0xbed6d9ba	-0.41962987
180	0xbfcee198	-1.6162596
181	0x3df84305	0.12122158
182	0xbe161a1d	-0.14658399
183	0xbe6ff896	-0.23434672
184	0x3ee1463c	0.43998897
185	0xbf01ee2d	-0.5075405
186	0x3de1b5dd	0.11021016
187	0xbf0289ee	-0.50991714
188	0xbf12c401	-0.5733033
189	0xbf14d751	-0.58141047
190	0x3ec39ae0	0.38204098
191	0xbf898e4c	-1.074655
192	0x3cb925a7	0.022600962
193	0x3e652d9f	0.22380684
194	0x3de94aa6	0.11391191
195	0x3ee9e9a1	0.45686057
196	0x3f436465	0.76325065
197	0x3b6812db	0.003541163
198	0x3f4af8ad	0.792857
199	0x3ec32934	0.38117373
200	0x3f95f6d4	1.1715951
201	0x3e981da4	0.29710114
202	0xbdcb376b	-0.099226795
203	0x3da57029	0.080780335
204	0xbeb1bd54	-0.34714758
205	0x3f0f31cb	0.55935353
206	0x3f3fd104	0.7492831
207	0xbe78de16	-0.24303469
208	0x3e7b5529	0.24544205
209	0x3f9f4b15	1.2444788
210	0x3fd29d0d	1.6454178
211	0x3dfa370b	0.1221753
212	0x3fe9cc12	1.8265402
213	0x3f05b1c2	0.5222436
214	0x3f3078ca	0.6893431
215	0x3fae858b	1.3634504
216	0x3d9b4dfe	0.07583235
217	0x3e90c6d6	0.282767
218	0x3f392dca	0.72335494
219	0x3f671b02	0.90275586
220	0xbdb33828	-0.08750945
221	0x3f3dde6b	0.7416751
222	0x3f553e17	0.83297867
223	0x3fb20c83	1.3910068
224	0x3f10def5	0.56590205
225	0x3dd628c9	0.10456998
226	0x3e4fabfd	0.20280452
227	0x3e68883a	0.22708216
228	0x3ef3ddd1	0.4763017
229	0x3fc107a3	1.5080456
230	0x3e91da31	0.2848678
231	0x3f6b0df2	0.91818154
232	0x3f8adb3e	1.0848157
233	0x3ef3ebe2	0.47640902
234	0xbe9d5275	-0.30726972
235	0x3f04cfd5	0.51879627
236	0x3f81710e	1.0112627
237	0xbeeee6fa	-0.46660596
238	0x3e3e67a1	0.18594219
239	0xbd091447	-0.033466604
240	0x3f596b39	0.84929234
241	0xbf0c6339	-0.548389
242	0xbf1d12d0	-0.6135683
243	0x3e6eaf15	0.23308976
244	0x3f96f3a5	1.1793104
245	0x3f071cb9	0.527782
246	0x3fa55728	1.2917223
247	0x3f20920b	0.62722844
248	0xbebea5d1	-0.37235883
249	0xbf557649	-0.83383614
250	0x3f29cced	0.66328317
251	0xbdf405fa	-0.119152024
252	0xbefa593f	-0.48896214
253	0x3ddbee28	0.10738784
254	0xbe6a9e62	-0.22911981
255	0x3f3fe489	0.7495809

fc2.bias f4 [13]
0	0x3e19add0	0.1500771
1	0xbef7f4f7	-0.4842908
2	0xbe16ffe3	-0.1474605
3	0x3f03a8b9	0.51429325
4	0xbee81b68	-0.4533341
5	0x3e0a8cab	0.13530223
6	0xbe8ff36f	-0.28115413
7	0xbf21b34a	-0.631642
8	0xbef132ac	-0.47108972
9	0xbe9ec61d	-0.31010523
10	0xbf444725	-0.7667106
11	0xbf058e8f	-0.5217065
12	0x403668e0	2.850151

fc2.weight f4 [13, 128]
0	0xbf3e4e5e	-0.7433833
1	0xbf0c6765	-0.5484527
2	0xbf432eff	-0.76243585
3	0xbea9b8ff	-0.33148953
4	0xbf390266	-0.72269285
5	0xbe839d77	-0.25706074
6	0xbe94b812	-0.29046685
7	0xbe8c948f	-0.2745709
8	0xbf301e46	-0.68796194
9	0xbfd621bb	-1.6729044
10	0xbf107fd6	-0.5644506
11	0xbef946d8	-0.48686862
12	0xbf0781b0	-0.5293226
13	0xbeece2e8	-0.46266866
14	0xbf0f2ad8	-0.5592475
15	0xbe87c8ec	-0.2652048
16	0xbf300139	-0.68751866
17	0xbdf5942e	-0.11991154
18	0xbf2b9705	-0.6702731
19	0xbc960e27	-0.018317295
20	0xbf0d006e	-0.5507878
21	0xbeef29ab	-0.46711478
22	0xbf0f35e3	-0.559416
23	0xbc9b2288	-0.018937364
24	0xbe7fc559	-0.24977626
25	0xbf296ebd	-0.661846
26	0xbf0ab93c	-0.54188895
27	0xbeac78a6	-0.33685797
28	0xbf2d92fe	-0.6780242
29	0xbf2dc637	-0.67880577
30	0xbf3a945e	-0.7288264
31	0xbf2d1b63	-0.67619914
32	0xbee41fae	-0.4455542
33	0xbfe05c43	-1.7528156
34	0xbedd5aae	-0.43233246
35	0xbf0e8d08	-0.55683947
36	0xbe607c75	-0.21922477
37	0xbf5d273f	-0.8638801
38	0xbf3015d8	-0.6878333
39	0xbf85c82f	-1.0451716
40	0xbe75ee86	-0.2401677
41	0x3c7d9f46	0.015479868
42	0xbef28b9a	-0.47372133
43	0xbe88993a	-0.26679403
44	0xbf13fad8	-0.5780463
45	0xbee5631e	-0.44802183
46	0xbf4741e9	-0.77834946
47	0xbf3147b1	-0.6925002
48	0xbe9f0bc8	-0.31063676
49	0xbe687e8d	-0.22704525
50	0x3c2700ba	0.010193044
51	0xbf282b2e	-0.65690887
52	0xbf0ea19b	-0.5571534
53	0xbd13e00a	-0.036102332
54	0xbf28a3ba	-0.65874827
55	0xbe831da6	-0.25608557
56	0x3cae9049	0.021309035
57	0xbf949aa8	-1.1609697
58	0xbf502adf	-0.81315416
59	0xbf266b4a	-0.6500746
60	0x3c5618f0	0.013067469
61	0xbe964f76	-0.293575
62	0xc0dc5fc7	-6.8866916
63	0xbee5fc58	-0.44919086
64	0x3cb2cb0a	0.021825332
65	0xbc544945	-0.012956922
66	0xbf2651e6	-0.6496872
67	0xbf2aa766	-0.6666168
68	0xbe8c134d	-0.27358475
69	0xbf207682	-0.6268083
70	0xbf8c7c11	-1.0975362
71	0xbe78801f	-0.24267624
72	0xbf41f50e	-0.7576455
73	0xbebbcfc1	-0.3668194
74	0xbf1e0248	-0.6172223
75	0xbf2a591c	-0.6654222
76	0xbf4b6ed9	-0.79466015
77	0xbf230696	-0.63681924
78	0x3c846e26	0.016165804
79	0xbf1a461d	-0.60263234
80	0xbf563032	-0.8366729
81	0xbef5a00c	-0.4797367
82	0xbe7599ae	-0.23984405
83	0xbed82faa	-0.42223865
84	0xbe98abe8	-0.29818654
85	0xbe77efae	-0.24212524
86	0xbf024e8e	-0.50901115
87	0xbf1ffc64	-0.6249449
88	0xbec719b2	-0.3888679
89	0xbeb81253	-0.3595148
90	0xbf2b5b7f	-0.66936487
91	0xbf740765	-0.95323783
92	0xbf3c536c	-0.7356479
93	0xc0691540	-3.641922
94	0xbf8b2265	-1.0869871
95	0xbf1a64fc	-0.6031034
96	0xbf1e2588	-0.6177602
97	0xbf8d53cb	-1.1041197
98	0xbf81829a	-1.0117981
99	0xbf8f2948	-1.1184473
100	0xbea6235c	-0.32448852
101	0xbf39eabb	-0.72623795
102	0xbf6fdd8b	-0.9369742
103	0xbe83276e	-0.2561602
104	0xbaaf1499	-0.0013357579
105	0xbf431518	-0.7620406
106	0xbed9c02f	-0.42529437
107	0xbe86c6c9	-0.26323536
108	0xbed649d0	-0.4185319
109	0xbeb63e8d	-0.35594597
110	0xc019347f	-2.393829
111	0xbf71b86c	-0.9442203
112	0xbf1f1aa0	-0.6215
113	0xbe675ad1	-0.22593237
114	0xbf4d2ac5	-0.80143386
115	0xbefb76dd	-0.49114123
116	0xbf1a0333	-0.6016113
117	0xbf534256	-0.82523096
118	0xbf31b229	-0.69412476
119	0xbe868d07	-0.2627947
120	0xbf18e766	-0.59728086
121	0xbec75b17	-0.38936684
122	0xbeff711e	-0.4989099
123	0xbf025e23	-0.5092489
124	0xbf73aa16	-0.95181406
125	0xbf544fa5	-0.8293403
126	0xbf28efbb	-0.659908
127	0xbf4d36c0	-0.80161667
128	0xbf29dda0	-0.663538
129	0xbf569a85	-0.8382953
130	0xc00b4b18	-2.1764584
131	0xbec74849	-0.38922337
132	0xbf2f8088	-0.685555
133	0xbe819af8	-0.25313544
134	0xbe9971d2	-0.2996965
135	0xbe6d4974	-0.23172551
136	0xbf25c565	-0.64754325
137	0xbf32f179	-0.6989971
138	0xc041f732	-3.0307126
139	0xbe4d5611	-0.20052363
140	0xbf0cb28a	-0.5495993
141	0xbea269ed	-0.3172144
142	0xbf1aaf3f	-0.60423654
143	0xbe827203	-0.2547761
144	0xbeaaec15	-0.3338324
145	0xbdedba17	-0.116077594
146	0xbea38acd	-0.31941834
147	0x3bbae213	0.0057032197
148	0xbec8e034	-0.39233553
149	0xbe805fca	-0.2507308
150	0xbea2e9cf	-0.31819007
151	0xbc2a6fc2	-0.010402622
152	0xbe822fac	-0.25426996
153	0xbf0985c4	-0.53719735
154	0xbf0cfdb9	-0.5507465
155	0xbea9a895	-0.3313643
156	0xbf716415	-0.9429334
157	0xbf0d4b24	-0.5519278
158	0xbf2b953d	-0.67024595
159	0xbe9e4e65	-0.30919185
160	0xbf2d5c5d	-0.6771906
161	0xbf197865	-0.5994933
162	0xbf304fec	-0.6887195
163	0xbe9bf3a5	-0.30459324
164	0xbe47cabd	-0.19510932
165	0xbf817368	-1.0113344
166	0xbf3657db	-0.71227807
167	0xbf90a250	-1.1299534
168	0xbe81e811	-0.25372365
169	0xbcc7caa7	-0.024388624
170	0xbf03cde1	-0.5148602
171	0xbeea896d	-0.45807973
172	0xbed8c904	-0.42340863
173	0xbf2629db	-0.64907616
174	0xbfa44503	-1.2833561
175	0xbf10f8c8	-0.5662961
176	0xbefdc733	-0.4956604
177	0xbe677a38	-0.22605217
178	0x3bed6e02	0.00724578
179	0xbfec644d	-1.8468109
180	0xbedc27f7	-0.4299924
181	0xbce816fa	-0.028331269
182	0xbeb6839c	-0.35647285
183	0xbefe85a9	-0.4971135
184	0xbd2d8516	-0.04236325
185	0xbf91a6c7	-1.1379021
186	0xbf485109	-0.7824865
187	0xbf19400f	-0.5986337
188	0xbbe58718	-0.00700463
189	0xbe97e66c	-0.29667985
190	0xc051b267	-3.2765138
191	0xbf38e79f	-0.72228426
192	0xbc810ac0	-0.015752196
193	0xbc27bbe8	-0.010237671
194	0xbf295eac	-0.6616008
195	0xbebda46b	-0.37039503
196	0xbe8b8dc4	-0.27256596
197	0xbf260e2b	-0.6486537
198	0xbf95641e	-1.1671178
199	0xbe7921f2	-0.24329355
200	0xbeafb388	-0.3431666
201	0xbf11996d	-0.56874734
202	0xbf166fd7	-0.58764404
203	0xbf291acb	-0.6605651
204	0xbeff7fd3	-0.4990221
205	0xbef88dd7	-0.48545715
206	0x3c6160d1	0.013755993
207	0xbf3d481f	-0.73938173
208	0xbf58c522	-0.846758
209	0xbebb9b69	-0.36642006
210	0xbe7af594	-0.24507743
211	0xbedb46db	-0.42827496
212	0xbf03b2a2	-0.5144445
213	0xbe7315b0	-0.23738742
214	0xbf099c8a	-0.53754485
215	0xbf13162f	-0.57455724
216	0xbf19058b	-0.5977408
217	0xbf3afcd4	-0.73042035
218	0xbf190718	-0.5977645
219	0xbf1fcfdb	-0.6242654
220	0xbf255123	-0.6457693
221	0xbf1340f8	-0.5752101
222	0xbf340552	-0.7032062
223	0xbf13df69	-0.5776277
224	0xbf26269d	-0.6490267
225	0xbf9ae1ba	-1.2100136
226	0xbf570dbf	-0.8400535
227	0xbf2f72de	-0.6853465
228	0xbf139b00	-0.57658386
229	0xbf01ec0f	-0.5075082
230	0xbf12d56e	-0.5735692
231	0xbe871b1f	-0.2638788
232	0xbd2bb8f9	-0.04192445
233	0xbebba760	-0.36651134
234	0xbe897620	-0.26847935
235	0xbe93b387	-0.28847906
236	0xbf24c625	-0.64364845
237	0xbf047dee	-0.51754653
238	0xbf068d4e	-0.52559364
239	0xbf836f39	-1.0268317
240	0xbec9e3b0	-0.39431524
241	0xbe68a540	-0.22719288
242	0xbf578356	-0.8418478
243	0xbef19f23	-0.47191724
244	0xbef7f490	-0.48428774
245	0xbf37ba62	-0.7176877
246	0xbef24ed4	-0.47325766
247	0xbee9398e	-0.45551723
248	0xbf1a030e	-0.6016091
249	0xbf060b0d	-0.5236061
250	0xbf048e97	-0.51780075
251	0xbf3e33c5	-0.74297744
252	0xbf88cb90	-1.0687122
253	0xbee9302a	-0.4554456
254	0xbf1d6cca	-0.61494124
255	0xbf23d58a	-0.6399771
