src/chess_cv/weights/pieces.safetensors (safetensors, 626617 bytes, 10 tensors)

conv1.bias f4 [16]
-0.24288258 0.058185518 -0.0427362 -0.03341761 -0.90591 -0.05049627 -0.017649788 0.35199165
0.19628227 -0.054080334 -0.5978494 -0.04198035 -0.008658264 -0.05784342 -0.049651276 -0.03239682
00000000: 36b6 78be f053 6e3d 270c 2fbd e7e0 08bd
00000010: b8e9 67bf 2dd5 4ebd 4a96 90bc 4038 b43e
00000020: 38fe 483e 5783 5dbd a90c 19bf 96f3 2bbd
00000030: 64db 0dbc 39ed 6cbd 235f 4bbd 87b2 04bd

conv1.weight f4 [16, 3, 3, 3]
-0.03245953 0.04561434 0.026641637 0.10566237 0.10179817 0.07384946 0.10132515 -0.04366718
-0.1248034 -0.20906046 -0.1594296 -0.087483525 0.32260287 0.2713257 0.2797639 0.23475894
0.23710509 0.17581318 -0.47324514 -0.33193538 -0.30535015 -0.23844843 -0.24905694 -0.23803845
0.16594623 0.1472822 0.109811656 -0.026794955 -0.0082620485 -0.010560523 0.11568123 0.10120823
0.10266437 0.16916472 0.11300797 0.11822193 -0.083310656 -0.060830817 -0.05381034 0.1217531
0.101173036 0.075140595 0.15691093 0.120944686 0.120401405 -0.352134 -0.27777842 -0.25740093
-0.13663264 -0.1090798 -0.11944032 0.03767936 0.046458494 0.04586559 0.16310431 0.13110596
0.16932538 0.21520275 0.19413729 0.18193215 -0.2955816 -0.2465372 -0.2455013 0.2449982
0.22480518 0.23987895 0.093683206 0.08970456 0.076821595 -0.3508222 -0.29499042 -0.28824928
0.16155218 0.14886865 0.13296612 -0.094587795 -0.12659629 -0.14521718 -0.14811987 -0.121081725
-0.119587936 0.21934003 0.19606741 0.25160116 0.23262915 0.20413111 0.21752208 0.1703204
0.15916872 0.19998649 0.063633405 0.037248783 0.03580518 0.078950346 0.07131054 0.06193358
-0.031903934 -0.038408734 -0.037533045 -0.18776685 -0.17286162 -0.22152977 -0.2986153 -0.2556566
-0.2660045 -0.26997426 -0.23141618 -0.26012638 0.07342938 0.07194968 0.104532875 0.028487833
0.06839341 0.15203628 -0.06022023 -0.028835988 0.06614921 0.16598491 0.06918615 0.024248822
0.120223336 0.0989471 0.07130186 0.011721423 0.024375712 0.0789198 0.16488133 0.061656788
-0.031520493 0.14586744 0.07922662 0.04977986 0.01324345 0.025485964 0.05122822 -0.071961924
-0.069862075 -0.096775435 -0.23680235 -0.19266176 -0.21037377 0.2864489 0.25277594 0.29680422
-0.24709676 -0.21909624 -0.25278547 -0.08056995 -0.08262004 -0.09960288 0.27437454 0.24538387
0.30649897 -0.13689867 -0.13244714 -0.1799271 -0.043293674 -0.04802428 -0.04414282 0.24877667
0.24047972 0.28594816 -0.13051784 -0.13321945 -0.15210783 -0.26194766 -0.23539728 -0.24143639
-0.19172661 -0.18031739 -0.22288503 0.12013338 0.112964265 0.098805375 0.00810303 0.013539345
0.03507097 -0.20895962 -0.15891187 -0.14356835 0.17813033 0.1696673 0.21239078 0.28027228
0.27020338 0.2563124 0.16035955 0.14187865 0.16335897 0.13574553 0.07687355 -0.1377209
0.07042119 0.012917041 -0.23517226 -0.06793875 -0.059057713 -0.15466096 -0.26533026 -0.14670546
-0.12761578 0.09203175 -0.012504119 -0.1742024 0.14206123 0.09104401 -0.23662272 -0.008172287
0.004762345 -0.013626378 0.031126587 0.0067638634 -0.17689195 0.13944851 0.07251421 -0.24276583
-0.04080906 -0.027437532 0.019969303 -0.16270868 -0.123986185 -0.10582156 0.15896447 0.119046226
0.09488472 0.15988238 0.1787232 0.17006736 -0.41696474 -0.37828562 -0.30018803 0.13299543
0.11360026 0.117876954 0.19278426 0.15603481 0.15475525 -0.148152 -0.111614436 -0.08923504
-0.085268445 -0.08625902 -0.06381259 -0.040752072 -0.09045762 -0.10572188 0.35677359 0.35515186
0.40341765 0.008183993 0.014928953 0.09680479 -0.38198468 -0.36763397 -0.4255704 -0.04988983
00000000: 49f4 04bd 1ad6 3a3d 903f da3c 8365 d83d
00000010: 8f7b d03d 633e 973d 8f83 cf3d 5bdc 32bd
00000020: ed98 ffbd f213 56be 8341 23be 902a b3bd
00000030: 342c a53e 34eb 8a3e 373d 8f3e a664 703e
00000040: adcb 723e 5f08 343e 304d f2be 6ff3 a9be
00000050: db56 9cbe d32b 74be c808 7fbe 5ac0 73be
00000060: cfed 293e 25d1 163e efe4 e03d 1881 dbbc
00000070: 8b5d 07bc 0b06 2dbc 48ea ec3d 4346 cf3d
00000080: b241 d23d 8439 2d3e b970 e73d 571e f23d
00000090: c79e aabd bc29 79bd 3b68 5cbd b059 f93d
000000a0: cf33 cf3d 50e3 993d 42ad 203e d9b1 f73d
000000b0: 0395 f63d e84a b4be f938 8ebe 0eca 83be
000000c0: 6de9 0bbe 3b65 dfbd 209d f4bd ac55 1a3d
000000d0: 434b 3e3d 8fdd 3b3d d104 273e a440 063e
000000e0: a263 2d3e 1c5e 5c3e edcb 463e 6c4c 3a3e
000000f0: 7956 97be 3f74 7cbe b164 7bbe cfe0 7a3e
00000100: 5433 663e d4a2 753e fbdc bf3d 06b7 b73d
00000110: a454 9d3d f89e b3be fc08 97be 6995 93be
00000120: ef6d 253e 0671 183e 4528 083e 3fb7 c1bd
00000130: 75a2 01be d0b3 14be bcac 17be b2f9 f7bd
00000140: 85ea f4bd ac9a 603e e5c5 483e ded1 803e
00000150: 5636 6e3e bf07 513e 1cbe 5e3e 7968 2e3e
00000160: 20fd 223e 42c9 4c3e 3b52 823d 2e92 183d
00000170: 74a8 123d b8b0 a13d 430b 923d 11ae 7d3d
00000180: b3ad 02bd 7a52 1dbd 40bc 19bd f445 40be
00000190: a302 31be b3d8 62be 1be4 98be 6ce5 82be
000001a0: be31 88be 113a 8abe 5df8 6cbe 492f 85be
000001b0: 2562 963d 5b5a 933d 5515 d63d 515f e93c
000001c0: d811 8c3d 66af 1b3e 7da9 76bd 7339 ecbc
000001d0: 3d79 873d f3f7 293e 78b1 8d3d 77a5 c63c
000001e0: a737 f63d c7a4 ca3d b606 923d 360b 403c
000001f0: 93af c73c b4a0 a13d a7d6 283e d48b 7c3d
00000200: a21b 01bd 465e 153e 9141 a23d f7e5 4b3d
00000210: 0efb 583c f1c7 d03c afd4 513d c660 93bd
00000220: d913 8fbd 3332 c6bd 517c 72be 2049 45be
00000230: 396c 57be 6ea9 923e d96b 813e b9f6 973e
00000240: ef06 7dbe c45a 60be 196d 81be dc01 a5bd
00000250: b234 a9bd 98fc cbbd d27a 8c3e e945 7b3e
00000260: 6fed 9c3e 2a2f 0cbe 39a0 07be cf3e 38be
00000270: b554 31bd 1cb5 44bd 1acf 34bd 50bf 7e3e
00000280: 5140 763e cc67 923e 78a6 05be ae6a 08be
00000290: 28c2 1bbe 011e 86be fc0b 71be 1a3b 77be
000002a0: fb53 44be 1fa5 38be f93b 64be 7d08 f63d
000002b0: cf59 e73d 795a ca3d 92c2 043c 21d4 5d3c
000002c0: 94a6 0f3d 83f9 55be cbb9 22be 9503 13be
000002d0: cc67 363e 44bd 2d3e f87c 593e d97f 8f3e
000002e0: 1958 8a3e 613b 833e 4b35 243e a348 113e
000002f0: 9347 273e e000 0b3e e16f 9d3d b506 0dbe
00000300: fc38 903d ffa1 533c ffd0 70be 7923 8bbd
00000310: 80e6 71bd 715f 1ebe 5ed9 87be f539 16be
00000320: b6ad 02be 247b bc3d 14de 4cbc 1d62 32be
00000330: 8078 113e 4875 ba3d 3a4d 72be 0ee5 05bc
00000340: 720d 9c3b 2c41 5fbc 2ffd fe3c 66a3 dd3b
00000350: 2a23 35be 97cb 0e3e 5582 943d 9b97 78be
00000360: 6727 27bd adc4 e0bc aa96 a33c 1b9d 26be
00000370: 78ec fdbd f9b8 d8bd 95c7 223e 82ce f33d
00000380: ec52 c23d 35b8 233e 3703 373e 2326 2e3e
00000390: 677c d5be a7ae c1be 3fb2 99be f42f 083e
000003a0: 41a7 e83d 7969 f13d 3d69 453e 97c7 1f3e
000003b0: 2978 1e3e 28b5 17be 1c96 e4bd dcc0 b6bd
000003c0: 39a1 aebd 92a8 b0bd 2db0 82bd a5eb 26bd
000003d0: d841 b9bd b784 d8bd 07ab b63e 77d6 b53e
000003e0: c28c ce3e 2816 063c 9198 743c 9741 c63d
000003f0: 7f93 c3be 853a bcbe 5de4 d9be 4759 4cbd

conv2.bias f4 [32]
-0.13797596 0.03438668 -0.363889 -0.038111486 0.06449871 -0.016124666 -0.30452457 0.0038382409
0.0072496086 -0.5046745 -0.033041783 0.10118665 -0.07508094 0.06683867 0.047459356 0.24471793
0.076853685 0.6049866 0.10365797 0.02855526 0.4779872 0.024515113 0.35479483 -0.18684106
-0.7184804 -0.10991089 0.00056320336 -0.08713724 -0.19004332 0.06300758 0.20360853 -0.2668735
00000000: 9249 0dbe 0cd9 0c3d a94f babe ca1a 1cbd
00000010: e617 843d e017 84bc a5ea 9bbe ff8a 7b3b
00000020: 208e ed3b 5932 01bf d256 07bd f23a cf3d
00000030: 09c4 99bd b6e2 883d be64 423d 5697 7a3e
00000040: 7765 9d3d 67e0 1a3f a14a d43d b8ec e93c
00000050: bdba f43e ebd3 c83c aba7 b53e 4353 3fbe
00000060: 55ee 37bf f618 e1bd f0a3 133a 0275 b2bd
00000070: b79a 42be 1e0a 813d c17e 503e a5a3 88be

conv2.weight f4 [32, 3, 3, 16]
0.15220796 -0.33613515 -0.36432883 0.37629765 -0.18211421 -0.18936156 0.12940398 0.15756433
-0.4860084 -0.1431935 0.24839303 0.22200985 0.050696027 -0.17972757 0.02890295 0.042702343
0.049137793 -0.30136967 -0.21732895 0.032646462 0.20705125 -0.030386327 0.4959477 -0.038728856
0.034509987 0.29885972 0.09001382 0.06397587 -0.4065052 0.086347714 -0.058420125 -0.008705954
-0.4285732 0.71595186 0.09555738 -0.45449796 -0.03700631 0.19091143 -0.05076659 -0.05240001
0.4744792 0.30050838 -0.30274945 -0.20094828 -0.30276135 0.13777784 0.12591203 -0.00032893274
0.009036701 -0.26618937 -0.059294067 0.046411105 0.24775855 0.06570251 0.030020611 0.0008156136
-0.061074607 0.25100294 0.19733617 -0.11306143 -0.09639568 0.23789923 0.14123492 0.22853807
0.26147097 -0.42508322 0.21748295 -0.29149365 0.21584707 0.14948717 -0.353735 -0.082368396
0.09964466 -0.2672016 0.10684936 -0.48294652 -0.11530474 -0.109041594 0.06739457 -0.005331112
-0.53206813 0.38398513 0.28313375 -0.60873663 -0.036605507 0.17327337 -0.7775874 0.09882332
0.2703402 -0.09638232 -0.23864573 -0.57613474 0.38714552 -0.03103777 -0.19503514 -0.11918947
0.17960133 0.11928739 -0.14898619 -0.04261451 0.21789372 -0.20370412 0.25430557 -0.09461152
-0.02243757 0.17971681 -0.050642185 0.16107939 -0.13086048 0.085962996 0.08911539 -0.03065495
-0.0036311788 -0.10515413 0.3841965 0.11796299 -0.19377944 0.35573846 -0.3362271 -0.028695159
0.2787194 -0.1655655 0.07044261 -0.035198055 0.0027721983 -0.04230846 -0.043299753 -0.06744713
-0.18773107 0.27325177 0.1836657 -0.3876369 -0.27973154 0.40166074 -0.70825654 0.19714195
0.033624742 -0.017947538 -0.1640554 -0.12246938 0.5360123 -0.18748349 -0.092906125 -0.03757434
-0.35926852 0.10851663 0.10537072 0.24398784 0.10930766 0.19835997 0.33570102 0.112093955
0.1877231 0.42143622 -0.2869894 0.015007839 0.15049371 0.42405006 0.18662453 0.2952237
0.2826001 0.025420502 -0.3750913 -0.45931664 0.07096932 -0.2512767 -0.50517213 -0.09532226
-0.15141091 0.2164275 -0.22926806 -0.7051465 -0.2749524 -0.22061883 -0.0021642724 -0.09038823
0.4807628 0.05805367 0.12591316 -0.91819525 -0.36346608 -0.28717753 -0.09224701 0.018185873
-0.0926813 0.22328073 0.4148734 -0.9119803 -1.166308 -0.3688036 -0.07741222 -0.31374294
-0.112487 0.15959175 0.009867007 0.21038455 0.11652552 0.34451112 0.12762228 0.34646088
0.14204714 0.3231598 -0.26657197 0.12301209 0.27043596 0.15630528 0.17102711 0.29061082
-0.0013304013 0.4415609 -0.46178913 -0.28348172 -0.05807707 0.015482928 -0.4675337 0.16973872
0.24853931 0.04925424 -0.26118532 -0.46948406 0.1476849 -0.036178388 0.10165256 -0.07825779
0.5144377 0.27668533 0.16301796 -0.1515973 -0.10875763 0.041409556 -0.060787264 -0.15705758
-0.26043892 -0.19968012 0.099001825 -1.2616607 -0.00076751004 -0.29460055 -0.5175563 -0.347521
0.054842215 -0.2534865 -0.0039480305 0.25820997 0.2586168 0.089371294 0.25851303 -0.05033765
0.12277353 0.09331475 0.14347477 0.14671998 -0.07856863 0.20728739 0.12125678 0.10504093
00000000: 67dc 1b3e e819 acbe 4f89 babe 16aa c03e
00000010: 267c 3abe ffe7 41be 7a82 043e 8b58 213e
00000020: 18d6 f8be 51a1 12be be5a 7e3e 8d56 633e
00000030: a3a6 4f3d 810a 38be e1c5 ec3c a7e8 2e3d
00000040: b644 493d 204d 9abe 7b8b 5ebe 4cb8 053d
00000050: 3e05 543e bfec f8bc dbec fd3e 26a2 1ebd
00000060: 585a 0d3d 2404 993e 2a59 b83d c805 833d
00000070: 7321 d0be 12d7 b03d f149 6fbd 6ba3 0ebc
00000080: f26d dbbe 9f48 373f 96b3 c33d f5b3 e8be
00000090: ee93 17bd 497e 433e a1f0 4fbd 65a1 56bd
000000a0: f0ee f23e 3cdc 993e fa01 9bbe 63c5 4dbe
000000b0: 8903 9bbe a215 0d3e 15ef 003e 9b74 acb9
000000c0: ac0e 143c f949 88be 56de 72bd 9219 3e3d
000000d0: 6bb4 7d3e 0a8f 863d c9ed f53c e7ce 553a
000000e0: 5e29 7abd 7583 803e 7e12 4a3e c08c e7bd
000000f0: 196b c5bd db9b 733e e39f 103e e205 6a3e
00000100: 86df 853e 82a4 d9be dab3 5e3e a83e 95be
00000110: 0407 5d3e 2a13 193e c11c b5be c3b0 a8bd
00000120: 8012 cc3d a6ce 88be d6d3 da3d c444 f7be
00000130: e424 ecbd 3351 dfbd 2a06 8a3d 9cb0 aebb
00000140: 9e35 08bf b399 c43e e8f6 903e 2ad6 1bbf
00000150: a8ef 15bd 936e 313e f80f 47bf e163 ca3d
00000160: 086a 8a3e 1864 c5bd 8c5f 74be 917d 13bf
00000170: f037 c63e ec42 febc 4bb7 47be 9c19 f4bd
00000180: 69e9 373e f24c f43d d68f 18be 8d8c 2ebd
00000190: 881f 5f3e d097 50be 5734 823e afc3 c1bd
000001a0: ffce b7bc af07 383e 2e6e 4fbd fff1 243e
000001b0: 4a00 06be 5e0d b03d 2182 b63d 1720 fbbc
000001c0: 12f9 6dbb 0c5b d7bd 67b5 c43e 9596 f13d
000001d0: 1e6e 46be 5a23 b63e f525 acbe 1c12 ebbc
000001e0: 4fb4 8e3e 018a 29be 3744 903d d62b 10bd
000001f0: c5ad 353b a34b 2dbd 155b 31bd b921 8abd
00000200: 933c 40be a8e7 8b3e dc12 3c3e 5878 c6be
00000210: f938 8fbe 7aa6 cd3e 4d50 35bf 94df 493e
00000220: 19ba 093d b706 93bc 24fe 27be 3ad1 fabd
00000230: 1a38 093f acfb 3fbe 9145 bebd 8de7 19bd
00000240: 0bf2 b7be f83d de3d 9bcc d73d f3d7 793e
00000250: b2dc df3d e01e 4b3e 01e1 ab3e 8491 e53d
00000260: 7c3a 403e 7dc6 d73e 46f0 92be 70e3 753c
00000270: 061b 1a3e 171d d93e 801a 3f3e 9027 973e
00000280: f6b0 903e a83e d03c f80b c0be 8d2b ebbe
00000290: 5d58 913d 57a7 80be f652 01bf 5138 c3bd
000002a0: 760b 1bbe 2c9f 5d3e 3fc5 6abe 7b84 34bf
000002b0: 90c6 8cbe e7e9 61be 77d6 0dbb 771d b9bd
000002c0: 8b26 f63e afc9 6d3d 61ef 003e d80e 6bbf
000002d0: 3a18 babe ef08 93be 00ec bcbd 8afa 943c
000002e0: b2cf bdbd b4a3 643e 496a d43e 8a77 69bf
000002f0: 9549 95bf d3d3 bcbe 4c8a 9ebd eaa2 a0be
00000300: 965f e6bd 056c 233e 3aa9 213c 0c6f 573e
00000310: efa4 ee3d c363 b03e 6aaf 023e 5263 b13e
00000320: ce74 113e 3475 a53e 1f7c 88be c3ed fb3d
00000330: 9576 8a3e 7e0e 203e bb21 2f3e f1ca 943e
00000340: dc60 aeba 4514 e23e a06f ecbe 8424 91be
00000350: 39e2 6dbd 1bac 7d3c 9460 efbe fdcf 2d3e
00000360: 1781 7e3e d0be 493d 15ba 85be 3760 f0be
00000370: b63a 173e ca2f 14bd 382f d03d 9f45 a0bd
00000380: 30b2 033f b3a9 8d3e 2eee 263e 533c 1bbe
00000390: 52bc debd 119d 293d 11fc 78bd b4d3 20be
000003a0: 4058 85be f278 4cbe 78c1 ca3d 197e a1bf
000003b0: ba32 49ba e2d5 96be 927e 04bf 46ee b1be
000003c0: 3ba2 603d fcc8 81be 7b5e 81bb 1934 843e
000003d0: 6c69 843e 4c08 b73d d25b 843e da2e 4ebd
000003e0: b070 fb3d ce1b bf3d 0deb 123e c33d 163e
000003f0: 97e8 a0bd 2543 543e 7a55 f83d b31f d73d

conv3.bias f4 [64]
-0.7174177 -0.28696138 1.0795796 -0.17629474 0.30000675 0.27482903 0.27908608 -0.5091843
-0.03818164 0.5031488 -0.003953531 -0.42974377 0.78475785 -0.2514777 -0.023050696 -0.25407988
0.1676327 -0.19301534 0.30984712 -0.12423844 -0.42044193 0.14856246 0.06823926 -0.34845912
-0.3125671 0.3130854 0.016895818 0.21264891 -0.6714242 0.2585851 -0.046325363 0.09136813
0.08341755 -0.043362144 -0.09970981 -0.29312074 0.12291573 -0.19958484 1.2652788 -0.39310673
-0.31869662 0.2343478 0.011986096 0.29850268 0.758067 0.17073521 -0.63345873 -0.027017284
-0.58324283 -0.8789248 -0.5685013 0.3328741 -0.022586828 -0.32553208 -0.23832448 -0.32896754
-0.50669396 -0.032057755 -0.2625212 -0.4268221 -0.85213435 -0.21732476 -0.29110783 -0.23912397
00000000: b0a8 37bf 9aec 92be aa2f 8a3f 9c86 34be
00000010: 7c9a 993e 64b6 8c3e 5fe4 8e3e e759 02bf
00000020: 5a64 1cbd 5cce 003f 9f8c 81bb 6007 dcbe
00000030: e4e5 483f afc1 80be d0d4 bcbc c216 82be
00000040: e8a7 2b3e d0a5 45be 48a4 9e3e b970 febd
00000050: 2a44 d7be c220 183e 06c1 8b3d 3c69 b2be
00000060: cc08 a0be bb4c a03e 1969 8a3c a3c0 593e
00000070: 75e2 2bbf 4465 843e aabf 3dbd 371f bb3d
00000080: d2d6 aa3d 819c 31bd a834 ccbd ec13 96be
00000090: 3ebb fb3d f85f 4cbe a8f4 a13f 4945 c9be
000000a0: 342c a3be dff8 6f3e 5561 443c 58d5 983e
000000b0: ae10 423f 36d5 2e3e 5a2a 22bf 5a53 ddbc
000000c0: 674f 15bf 3701 61bf 4d89 11bf 796e aa3e
000000d0: 0308 b9bc 24ac a6be 550b 74be 6f6e a8be
000000e0: b2b6 01bf fe4e 03bd 2e69 86be 6d88 dabe
000000f0: 7a25 5abf 628a 5ebe 160c 95be eadc 74be

conv3.weight f4 [64, 3, 3, 32]
0.26397163 -0.5748982 -0.13579579 -0.28859165 -0.36642092 -0.08600379 0.05331171 0.1180576
0.25595587 0.013970342 -0.09160242 -0.2828099 0.3098864 0.31347764 -0.10543764 -0.09992493
-0.41541213 -0.5059476 -0.16736741 -0.034426287 -0.3813442 -0.6402593 -0.603205 -0.087622255
-0.35134646 -0.656735 0.011629556 0.24868481 0.26337752 -0.22946344 0.14321424 0.049816266
-0.02636008 -0.025659129 -0.1292508 0.06657584 -0.14567232 0.0035779187 0.10466565 -0.3628086
-0.31285685 0.23816513 -0.04902852 -0.6105135 0.3338515 -0.023083935 0.073221184 -0.035191163
-0.9054535 0.051575262 0.009705454 0.4013638 -0.49489743 -0.2655824 -0.62091964 -0.1051253
0.046339713 -0.46583423 0.231105 -0.2314406 0.445078 -0.29255638 -0.4811366 -0.113697335
0.06348511 0.07497622 0.26245177 -0.055846106 0.1990296 -0.016417244 0.20552851 0.2416247
0.09981701 -0.029146075 0.35759884 -0.35966673 0.07324606 0.027846422 0.25728464 0.097351894
-0.053373326 0.09505018 -0.20616458 0.12759465 -0.19735362 -0.56558704 0.26937664 -0.18531679
0.15454754 -0.43327975 0.27438337 0.25276697 0.17007779 -0.39937446 0.15255864 -0.08389829
-0.047732506 -0.0045914436 -1.1305801 -0.12779361 -0.20950736 0.010605442 0.03561256 0.5210339
-0.24671485 -0.0084616635 -0.22246034 -0.3686008 -0.32336938 0.034778964 0.37193906 0.40723628
-0.09409824 -0.6783128 -0.2342385 -0.20551962 -0.13534515 -0.89264613 -0.16606195 -0.22090721
-0.56680536 0.1533133 0.30675235 0.4137146 0.040196914 0.17367406 -0.70136666 -0.045487646
0.005556665 -0.106122024 -0.30232295 0.20103836 -0.55974066 0.06618329 0.3613117 -0.027514135
-0.3003112 0.06568282 0.0882558 -0.82381374 -0.2519729 0.2011004 0.6756304 -0.061349854
0.15940082 -0.68845916 -0.19630764 0.23649937 0.036734283 -0.4257149 0.2575358 -0.3182224
-0.4160084 -0.8257757 0.12101363 0.05943079 -0.058477484 -0.10492241 -4.5468554 0.18018751
0.22692989 -0.006833918 -0.024075648 0.34601343 0.16032203 0.008604264 0.27514207 0.030796176
-0.31403062 -0.2043065 0.12795964 -0.62035155 -0.19913691 -0.23820442 -0.0679443 -0.23130757
0.24425015 0.4086294 -0.14893845 0.07028901 0.09769211 -0.031354547 0.06461744 0.10186734
-0.2832838 -0.11785446 0.5322305 0.052687205 0.0072386963 -0.044474926 -0.4164411 -0.0021841126
0.22939913 0.30944854 -1.2782665 0.04208682 0.09775127 -0.0007815178 0.2612968 -0.044932608
0.11876846 -0.056081936 0.030972641 -0.31256136 0.43255618 0.26106134 0.4591843 0.15797572
-0.30398718 -0.3087727 0.45917758 -0.20017502 0.21768083 0.2228137 -0.017395312 0.21053807
0.16542086 0.6888334 0.5460613 0.61199343 -0.14394525 -0.306752 -0.6285098 0.192809
0.25300986 -0.034783427 -0.07951297 -0.46634743 0.1427479 0.09478122 -0.041675426 0.106006466
-0.1841533 -0.41535413 -0.03813122 -0.20504244 0.049646925 0.5557638 0.2794213 0.5064667
0.18630768 -0.084483854 0.53251624 0.26018706 0.17988178 0.38641745 0.12630656 0.19664295
-0.19616236 -0.15701799 -0.043621007 0.2782597 -0.079408616 -0.30036315 -1.9394593 0.12371747
00000000: 4a27 873e 872c 13bf 0d0e 0bbe 49c2 93be
00000010: 869b bbbe c122 b0bd 615d 5a3d 2fc8 f13d
00000020: a60c 833e dde3 643c 0d9a bbbd 76cc 90be
00000030: 6ea9 9e3e 2480 a03e b0ef d7bd 71a5 ccbd
00000040: e6b0 d4be c885 01bf 5d62 2bbe 9402 0dbd
00000050: 8c3f c3be 09e8 23bf a56b 1abf 4c73 b3bd
00000060: afe3 b3be c91f 28bf e589 3e3c 3ba7 7e3e
00000070: 6bd9 863e 77f8 6abe c1a6 123e 240c 4c3d
00000080: 18f1 d7bc 1833 d2bc 525a 04be ea58 883d
00000090: 202b 15be 847b 6a3b f25a d63d 0cc2 b9be
000000a0: c62e a0be 8fe1 733e 21d2 48bd 9d4a 1cbf
000000b0: 95ee aa3e 851a bdbc fdf4 953d 9c24 10bd
000000c0: cdcb 67bf 9540 533d a003 1f3c 8e7f cd3e
000000d0: 3263 fdbe 6bfa 87be 97f4 1ebf ef4b d7bd
000000e0: b6ce 3d3d d381 eebe caa6 6c3e c4fe 6cbe
000000f0: 43e1 e33e f3c9 95be 8957 f6be 26da e8bd
00000100: 7b04 823d 228d 993d 1460 863e e3be 64bd
00000110: 6ace 4b3e 757d 86bc 1176 523e 776c 773e
00000120: dc6c cc3d c0c3 eebc 3217 b73e 3d26 b8be
00000130: 0802 963d 2e1e e43c d0ba 833e 6e60 c73d
00000140: fd9d 5abd aba9 c23d cf1c 53be 2ca8 023e
00000150: 1117 4abe 50ca 10bf bceb 893e afc3 3dbe
00000160: b641 1e3e d8d6 ddbe fa7b 8c3e ac6a 813e
00000170: df28 2e3e cf7a ccbe 5538 1c3e ded2 abbd
00000180: 2983 43bd d273 96bb d9b6 90bf 54dc 02be
00000190: 1989 56be 73c2 2d3c 7ade 113d 7a62 053f
000001a0: d1a2 7cbe caa2 0abc a5cc 63be 3eb9 bcbe
000001b0: ac90 a5be 6374 0e3d cc6e be3e 4681 d03e
000001c0: 94b6 c0bd e8a5 2dbf 38dc 6fbe bc73 52be
000001d0: eb97 0abe 7584 64bf 250c 2abe 8035 62be
000001e0: 281a 11bf 29fe 1c3e a50e 9d3e 66d2 d33e
000001f0: 85a5 243d 9dd7 313e c48c 33bf 4151 3abd
00000200: af14 b63b 8156 d9bd 13ca 9abe 00dd 4d3e
00000210: 2a4b 0fbf 1b8b 873d d9fd b83e 5365 e1bc
00000220: 64c2 99be b784 863d 75bf b43d 75e5 52bf
00000230: 9802 81be 43ed 4d3e 1df6 2c3f fc49 7bbd
00000240: f839 233e dc3e 30bf df04 49be e42c 723e
00000250: b076 163d 4ef7 d9be bbdb 833e 0cee a2be
00000260: 0eff d4be 0966 53bf fed5 f73d b36d 733d
00000270: 1686 6fbd 8fe1 d6bd d77f 91c0 1383 383e
00000280: 4f60 683e 0fef dfbb 4b3a c5bc ac28 b13e
00000290: 752b 243e e6f8 0c3c 6cdf 8c3e 4348 fc3c
000002a0: 9fc8 a0be b935 51be da07 033e 5ccf 1ebf
000002b0: 8cea 4bbe dceb 73be 6226 8bbd e4db 6cbe
000002c0: b61c 7a3e df37 d13e 5283 18be aff3 8f3d
000002d0: cd12 c83d a06d 00bd 2656 843d d39f d03d
000002e0: 930a 91be ae5d f1bd 4240 083f 8ace 573d
000002f0: 9632 ed3b 572b 36bd c537 d5be 5423 0fbb
00000300: 9be7 6a3e 0a70 9e3e 3d9e a3bf 3b63 2c3d
00000310: d131 c83d c6de 4cba b2c8 853e 410b 38bd
00000320: e13c f33d 2cb6 65bd 56ba fd3c 0b08 a0be
00000330: 0178 dd3e d5a9 853e 341a eb3e 63c4 213e
00000340: 35a4 9bbe 7517 9ebe 5319 eb3e aefa 4cbe
00000350: b9e7 5e3e 4629 643e 9d80 8ebc 4b97 573e
00000360: 1664 293e 6357 303f acca 0b3f 9aab 1c3f
00000370: 6266 13be 990e 9dbe 05e6 20bf b96f 453e
00000380: 828a 813e 1179 0ebd b2d7 a2bd 17c5 eebe
00000390: 812c 123e a81c c23d dab3 2abd eb19 d93d
000003a0: af92 3cbe 4ca9 d4be 7b2f 1cbd a5f6 51be
000003b0: 935a 4b3d 8946 0e3f 4f10 8f3e cda7 013f
000003c0: 71c7 3e3e df05 adbd fc52 083f 3d37 853e
000003d0: ee32 383e 82d8 c53e 8256 013e c55c 493e
000003e0: c9de 48be 53c9 20be f1ab 32bd 0e78 8e3e
000003f0: fca0 a2bd 33c9 99be 3440 f8bf 965f fd3d

fc1.bias f4 [128]
-0.20102529 -0.020775048 -0.2581804 -0.08928512 -0.71455365 0.60020304 -0.20505631 -0.1648291
0.07683592 -0.16167939 -0.15323481 0.24195595 -0.41839054 0.41810992 -0.23860367 -0.03546797
0.10740971 -0.66017735 0.120349206 0.47678423 -0.07802245 -0.10404672 -0.0026474309 -0.021062225
-0.31188565 -0.71704787 0.47162932 -0.037480548 -0.03149571 0.041193888 0.2403916 -0.020952018
-0.3433839 -0.4829719 -0.032881554 0.3832698 0.84574133 0.25566307 -0.01793748 -0.66287327
0.07612569 -0.02440547 -0.18403986 0.2033929 -0.021873418 -0.19974811 0.29247668 -0.03896279
-0.5290565 -0.104262434 0.31505466 -0.8260586 -0.0030191455 -0.107876554 -0.4097955 -0.28398576
-0.50370663 -0.04059611 0.38665178 -0.2557682 0.016148183 -0.14052434 0.25768134 0.1592856
-0.22321375 -0.06235972 -0.18347538 -0.026566746 -0.97772735 0.47679648 -0.14786346 -0.29076576
-0.0204162 -0.032917164 -0.3499554 -0.40573573 0.6802676 -0.0057348837 0.39733315 -0.03984348
-0.00023412453 0.05313614 0.06691522 -0.48867 -0.03249396 0.7001128 -0.61744875 -0.28815976
0.110466786 -0.38979363 0.21033975 -0.8091552 -0.6509934 0.19111264 -0.402451 0.14692421
-0.0027977487 -0.31689763 -0.1308377 -0.044616986 0.75923485 0.0008670047 -0.12759693 -0.09707712
0.36799243 0.1715282 -0.2588275 -0.030376134 -0.6294567 0.23675232 -0.21494937 0.001407883
-0.06907459 -0.40763438 -0.15843442 -0.8096267 -0.0940075 0.39186943 0.41956297 -0.17053251
-0.17022651 -0.032623354 0.26133358 -0.22333618 0.42366934 0.10282113 -0.45091707 0.23092079
00000000: 93d9 4dbe 6f30 aabc 3930 84be 1edb b6bd
00000010: fdec 36bf e8a6 193f 48fa 51be f6c8 28be
00000020: 275c 9d3d 488f 25be 96e9 1cbe 4dc3 773e
00000030: 4937 d6be 8112 d63e 8554 74be dd46 11bd
00000040: 9ff9 db3d 6201 29bf a579 f63d 101d f43e
00000050: 3cca 9fbd 7216 d5bd 8580 2dbb b08a acbc
00000060: 7aaf 9fbe 7390 37bf 6679 f13e 3485 19bd
00000070: a501 01bd ecba 283d 3729 763e 91a3 abbc
00000080: 04d0 afbe 1848 f7be cfae 06bd f03b c43e
00000090: 8182 583f 45e6 823e 9ff1 92bc 10b2 29bf
000000a0: c9e7 9b3d fbed c7bc f274 3cbe 3a46 503e
000000b0: e22f b3bc c58a 4cbe 81bf 953e 7297 1fbd
000000c0: 3f70 07bf 8b87 d5bd d84e a13e 9478 53bf
000000d0: dbdc 45bb 62ee dcbd b7d0 d1be 9566 91be
000000e0: ebf2 00bf 1b48 26bd 39f7 c53e 0df4 82be
000000f0: 3249 843c 9de5 0fbe cfee 833e c41b 233e
00000100: 2592 64be e86c 7fbd f8e0 3bbe 81a2 d9bc
00000110: 574c 7abf ab1e f43e 8569 17be 40df 94be
00000120: e03f a7bc 26d4 06bd 5b2d b3be 98bc cfbe
00000130: 0426 2e3f b1eb bbbb 406f cb3e eb32 23bd
00000140: 537f 75b9 48a5 593d d90a 893d f432 fabe
00000150: 6318 05bd 983a 333f 1f11 1ebf ad89 93be
00000160: 693c e23d 0893 c7be 4e63 573e cc24 4fbf
00000170: 81a7 26bf 08b3 433e 0f0e cebe 4d73 163e
00000180: 6f5a 37bb 6840 a2be 51fa 05be 4dc0 36bd
00000190: 375d 423f b347 633a c5a8 02be 5ed0 c6bd
000001a0: 8169 bc3e 17a5 2f3e 0a85 84be 5fd7 f8bc
000001b0: 1324 21bf 336f 723e b01b 5cbe b788 b83a
000001c0: fb76 8dbd 74b5 d0be a23c 22be b243 4fbf
000001d0: 0187 c0bd 1ca3 c83e f5d0 d63e 13a0 2ebe
000001e0: dc4f 2ebe 11a0 05bd 84cd 853e 3db2 64be
000001f0: 30eb d83e e293 d23d 9ade e6be 8076 6c3e

fc1.weight f4 [128, 1024]
-0.34490174 0.23835495 1.3635654 0.5318912 0.10761247 -0.671819 0.70570743 0.22127093
0.008902901 0.50100446 0.202998 0.27678826 0.74089503 -0.33882168 0.73442036 0.05824789
-0.1602128 0.38075477 -0.27131462 0.42014185 0.3632569 0.1267248 0.20024185 0.09492074
0.9163304 -0.44372126 0.6327477 0.012165346 -0.3498937 0.23016746 0.13766676 0.5058045
0.39375842 0.005747719 -0.50726014 0.19939716 0.32197863 0.5746412 0.08036001 0.56228775
0.36297798 0.023017552 0.40386763 0.89476067 0.37414917 0.41781342 0.42609933 -0.13181467
-0.12597556 1.0041783 -0.69382143 0.53231645 0.5931358 0.042432304 0.4807281 -0.08435376
0.23077735 0.97879595 0.5390885 -0.089754224 0.7001939 0.13578229 0.21378253 -0.13066284
0.22352256 -0.30034912 0.09908361 0.19006711 0.10389846 -0.13161416 0.29590097 0.12721293
-0.018032547 0.9531923 0.16099574 0.12022435 0.1269231 0.16668107 0.83951217 0.18890856
-0.22665083 -0.26736024 0.05461783 0.3926457 0.45089903 0.06499341 0.4985914 0.20982943
0.23103188 0.16312885 0.28953224 -0.07227355 0.4868535 0.2127726 1.0127027 0.6927387
0.44567364 -0.0027505024 -0.37072378 -0.51412225 0.50520587 0.5234773 0.38329002 0.092176944
0.7492572 0.07927279 -0.44948962 -0.18085298 -0.060052063 -0.23593128 -0.34247994 -0.1104043
-0.5020031 0.99599594 -0.5337378 -0.0728817 -0.3011291 -0.118207246 -0.26345083 -0.09941057
-0.41871804 0.99628234 0.44841647 0.3197746 0.38066486 0.0048384545 -0.5298116 0.40929532
0.22585715 -0.07245287 1.0955389 0.23078254 0.09947661 0.030440405 0.42013296 0.08773695
0.0029838532 0.31883037 -0.1428828 0.26373664 0.08416397 -0.08173927 0.4395098 -0.29098442
0.12727395 -0.37846076 0.070974305 -0.048314415 0.33313537 -0.5150603 0.7014437 -0.017931009
0.40627113 -0.632794 -0.025475858 -0.48648077 0.5027017 0.39600822 0.67699856 0.7293494
-0.62461925 -0.010100804 0.008669566 -0.0036551391 -0.09441051 0.19673732 0.73017937 -0.44594693
0.4024578 -0.06840155 -1.0974511 0.6204096 0.36209232 0.79780173 -0.4689549 -0.47946465
0.2818531 0.835923 0.18412282 0.53424865 0.54559666 -0.017388437 -0.3036641 -0.46365747
-0.066474535 0.029796815 0.69325805 0.2332689 -0.021992574 0.17324975 0.48918852 -0.53008527
-0.42927358 0.39794904 0.35002565 -0.42125857 0.8601483 0.5426782 0.24331452 0.5955809
0.0009336082 0.71888846 0.116186015 1.3821646 -0.2406814 -0.6282155 0.092714034 -0.18315053
0.5053931 0.065562636 -0.0030133142 -0.80026567 0.36150384 0.598685 1.207958 -0.5550913
0.8157686 -0.6555157 -0.23971695 0.5489522 0.16356836 0.7399821 0.0326543 -0.07854259
-0.36743125 0.0045246067 0.71227175 0.94202256 0.46232355 0.4855505 1.0135367 -0.7942296
0.0099110305 0.65062225 1.0805372 0.284087 0.022968646 0.4135505 0.24840562 0.37768275
0.29694122 0.62390965 0.20043907 -0.79812294 0.327854 -0.25481713 -0.3577342 -0.4011044
0.09626262 0.1992417 -0.38329715 -0.23034438 -0.26669726 -0.09299718 0.75497854 0.7184687
00000000: f696 b0be 5213 743e 5089 ae3f 062a 083f
00000010: ed63 dc3d 54fc 2bbf 3ea9 343f d994 623e
00000020: 79dd 113c d441 003f b5de 4f3e 31b7 8d3e
00000030: 4cab 3d3f 097a adbe f902 3c3f 5795 6e3d
00000040: d30e 24be 4af2 c23e c0e9 8abe d51c d73e
00000050: cffc b93e 25c4 013e 330c 4d3e ce65 c23d
00000060: a194 6a3f 6f2f e3be c1fb 213f 2951 473c
00000070: 4425 b3be 05b1 6b3e 84f8 0c3e 677c 013f
00000080: b49a c93e 5d57 bc3b cddb 01bf c52e 4c3e
00000090: 62da a43e b01b 133f ca93 a43d 17f2 0f3f
000000a0: 40d8 b93e 4e8f bc3c bdc7 ce3e 090f 653f
000000b0: 7b90 bf3e a4eb d53e b129 da3e 6dfa 06be
000000c0: bdff 00be ea88 803f 489e 31bf e445 083f
000000d0: bfd7 173f 7fcd 2d3d fe21 f63e aac1 acbd
000000e0: e650 6c3e 5f92 7a3f b401 0a3f 10d1 b7bd
000000f0: e83f 333f 830a 0b3e cfe9 5a3e 7bcc 05be
00000100: 19e3 643e 5cc7 99be 59ec ca3d f4a0 423e
00000110: b7c8 d43d ddc5 06be 5580 973e 1b44 023e
00000120: feb8 93bc 6904 743f 11dc 243e 2f38 f63d
00000130: 21f8 013e 71ae 2a3e 45ea 563f 3f71 413e
00000140: 2817 68be 71e3 88be f2b6 5f3d db08 c93e
00000150: 3ddc e63e 441b 853d 5f47 ff3e 87dd 563e
00000160: 9f93 6c3e 400b 273e 923d 943e 2804 94bd
00000170: dd44 f93e 0fe1 593e 3ea0 813f 5357 313f
00000180: 562f e43e c641 34bb 82cf bdbe 849d 03bf
00000190: 2c55 013f 9c02 063f 973e c43e 44c7 bc3d
000001a0: 52cf 3f3f c659 a23d 8123 e6be 8631 39be
000001b0: 27f9 75bd f897 71be 8859 afbe a61b e2bd
000001c0: 4683 00bf 97f9 7e3f 0aa3 08bf 0043 95bd
000001d0: 982d 9abe a416 f2bd 07e3 86be c597 cbbd
000001e0: 3662 d6be 5c0c 7f3f d896 e53e 7fb9 a33e
000001f0: 81e6 c23e e68b 9e3b bca1 07bf 288f d13e
00000200: 1947 673e 2c62 94bd 9e3a 8c3f 4252 6c3e
00000210: 65ba cb3d 285e f93c ab1b d73e 6eaf b33d
00000220: c08c 433b bc3d a33e de4f 12be 7d08 873e
00000230: 295e ac3d eb66 a7bd 6e07 e13e e9fb 94be
00000240: 1a54 023e 9cc5 c1be fa5a 913d 56e5 45bd
00000250: b890 aa3e feda 03bf d091 333f 0de4 92bc
00000260: c502 d03e cafe 21bf bfb2 d0bc 0214 f9be
00000270: 0fb1 003f 97c1 ca3e c74f 2d3f a4b6 3a3f
00000280: 0ce7 1fbf d87d 25bc cc0a 0e3c 0f8b 6fbb
00000290: 4c5a c1bd 8275 493e 09ed 3a3f 2853 e4be
000002a0: f30e ce3e 1d16 8cbd 4779 8cbf 2ad3 1e3f
000002b0: 2a64 b93e bc3c 4c3f db1a f0be 647c f5be
000002c0: 0d4f 903e 0dff 553f b18a 3c3e 85c4 083f
000002d0: 39ac 0b3f 3272 8ebc dc79 9bbe 8364 edbe
000002e0: cd23 88bd 7318 f43c 5c79 313f 0bde 6e3e
000002f0: c529 b4bc 6268 313e eb76 fa3e abb3 07bf
00000300: bfc9 dbbe fabf cb3e 9036 b33e 34af d7be
00000310: ae32 5c3f f5ec 0a3f 7127 793e fd77 183f
00000320: 63bd 743a 1309 383f eff2 ed3d c5ea b03f
00000330: 2f75 76be bbd2 20bf dbe0 bd3d d08b 3bbe
00000340: 7161 013f b445 863d 067b 45bb 36de 4cbf
00000350: 0817 b93e 6c43 193f 5e9e 9a3f 771a 0ebf
00000360: 36d6 503f e0cf 27bf 5c78 75be 2288 0c3f
00000370: 777e 273e 786f 3d3f 84c0 053d f0da a0bd
00000380: f31f bcbe 2743 943b 7157 363f 6428 713f
00000390: acb5 ec3e 139a f83e 92bb 813f a252 4bbf
000003a0: e061 223c 2e8f 263f 0b4f 8a3f da73 913e
000003b0: be28 bc3c e4bc d33e 0b5e 7e3e a25f c13e
000003c0: ae08 983e 8bb8 1f3f e63f 4d3e c951 4cbf
000003d0: 7bdc a73e 6477 82be f028 b7be 8e5d cdbe
000003e0: 5625 c53d 0406 4c3e 863f c4be 66df 6bbe
000003f0: 8b8c 88be 4e75 bebd 4646 413f 91ed 373f

fc2.bias f4 [13]
0.34324703 -0.27186328 0.05276203 0.72870636 -0.51744515 0.41805542 -0.60616624 -0.7476347
-0.42647687 -0.6757368 -0.73276305 -0.5821433 3.0026822
00000000: 13be af3e aa31 8bbe 001d 583d 808c 3a3f
00000010: 4977 04bf 5c0b d63e b62d 1bbf fd64 3fbf
00000020: 2d5b dabe 16fd 2cbf 5c96 3bbf 5807 15bf
00000030: f22b 4040

fc2.weight f4 [13, 128]
-0.2743247 0.042906705 -0.2262296 -0.37684792 -0.41783586 -0.4325236 -0.29571894 -0.49187583
-0.5444238 -0.7304165 -0.36114007 -0.50672 -0.20550974 -0.70504487 -0.1388271 -0.059896108
-0.7211963 -0.21892828 -0.4533546 -0.0798003 -0.14318271 -0.27103433 -0.3645368 -0.0459608
-0.75086117 -0.49086156 -0.3261514 -0.021362683 0.009828563 -0.062445134 -0.26696992 0.013348538
-0.15448941 -0.52521294 -0.041740753 -2.2488842 -0.6177274 -0.40847677 0.021004895 -0.12712164
-0.53313005 0.0027766863 -0.13444899 -0.37794623 -0.044294387 -0.09170326 -0.60003686 0.023047458
-0.38364413 -0.20773621 -0.5536171 -0.4529835 -0.69323426 -0.07503043 -0.49849924 -0.36010528
-0.40143794 -0.2607513 -0.14701986 -0.37566724 -0.46394527 -0.4322351 -0.21566507 -0.5613256
-0.2257451 -0.51226777 -0.55590576 -0.027359111 -1.3800628 -0.65498257 -3.7696455 -0.45437795
-0.07733177 -0.6132427 -0.12079518 -0.1416954 -0.4858854 -0.13905704 -0.096269384 -0.046912983
-0.56084883 -0.34199172 -0.21247475 -0.52968365 -2.1762216 -0.4871215 -0.40107903 -0.15050316
-0.39971128 -0.517661 -0.18759225 -0.41695696 -0.56705564 -0.55318475 -0.13975959 -0.5947601
-0.1368556 -0.5382209 -0.123970866 -0.022667138 -0.617211 -0.16534618 -0.18120691 -0.11773997
-0.5727509 -0.30735368 -0.4144035 -0.022122812 -0.15446478 -0.5163094 -0.15776415 -0.39411953
-0.7999359 -0.289954 -0.1681158 -0.25322506 -0.08596935 -0.48844284 -0.546538 -0.49563664
-0.56052965 -0.037933845 -0.5270485 -0.50082076 -0.46583873 -0.44862968 -0.11580353 -0.36736444
-0.56238604 -0.023144277 -0.40756163 -0.108952135 -0.27275756 -0.2264692 -0.45299047 -0.12145918
-0.13806729 -2.5382972 -0.46157357 -0.5497114 -0.16243815 -0.53879535 -0.14188161 -0.039799254
-0.6195842 -0.45166704 -0.3967927 -0.079588845 -0.3868104 -0.53535664 -0.34765184 -0.0368732
-3.4733148 -0.48145324 -0.09035962 0.00054593786 -0.04377906 -0.06445496 -0.48572525 0.0068770903
-0.42677438 -0.523706 -0.04780674 -1.5548141 -0.5199255 -0.12808765 0.026544219 -0.128441
-0.6153626 -0.029904013 -0.14325576 -0.16595978 0.026428351 -0.07704516 -0.4485798 -0.030236075
-0.2708927 -0.5027873 -0.53132844 -0.29136807 -0.84685 -0.08347274 -0.54170716 -0.15696205
-0.10329048 -0.5435229 -0.312571 -0.4221901 -0.40553582 -0.4957768 -0.4048689 -0.39301604
-0.41598684 -0.71724504 -0.54104805 -0.042336717 -0.36285985 -0.6488842 -0.5565905 -0.22124818
-0.026667943 -0.63977534 -0.13118961 -0.15020707 -0.25438944 -0.14380874 -0.07613491 -0.015016958
-0.14346777 -0.09574986 -0.40220332 -0.44431394 -1.7840872 -0.34190625 -0.105354 -0.1442379
-0.16472997 -0.38211772 -0.18330093 -0.27595213 -0.4175111 -0.40638378 -0.14220867 -0.48736313
-0.15677713 -0.295718 -0.38076708 0.023364026 -0.61757773 -0.16968313 -0.21138786 -0.11866643
-0.68041676 -0.36005428 -0.4126204 0.033098835 -0.09671428 -0.59655046 -0.15362321 -0.341285
-0.8549994 -0.18193296 -0.39997634 -0.37957066 -0.24929337 -0.46295935 -0.437933 -0.57352805
-0.45238903 -0.032243684 -0.53925246 -0.22012952 -0.37931955 -0.49480793 -0.09974455 -0.3543285
00000000: 4974 8cbe f1be 2f3d bba8 67be 36f2 c0be
00000010: 95ee d5be bc73 ddbe 7968 97be 26d7 fbbe
00000020: 5c5f 0bbf 93fc 3abf 5ae7 b8be 67b8 01bf
00000030: 2571 52be d27d 34bf b128 0ebe 9f55 75bd
00000040: 52a0 38bf bc2e 60be 181e e8be 576e a3bd
00000050: 7d9e 12be 03c5 8abe 91a4 babe 6441 3cbd
00000060: 7038 40bf 3552 fbbe 51fd a6be cb00 afbc
00000070: fb07 213c 78c6 7fbd 48b0 88be d4b3 5a3c
00000080: 7932 1ebe 5b74 06bf 5af8 2abd b8ed 0fc0
00000090: 6223 1ebf de23 d1be 7512 ac3c 2d2c 02be
000000a0: 367b 08bf 11f9 353b ffac 09be 2b82 c1be
000000b0: 086e 35bd ebce bbbd 049c 19bf 06ce bc3c
000000c0: 016d c4be cdb8 54be dab9 0dbf 74ed e7be
000000d0: cd77 31bf 8ea9 99bd 4b3b ffbe b85f b8be
000000e0: 4689 cdbe 3281 85be 608c 16be 7557 c0be
000000f0: 3c8a edbe eb4d ddbe 4ed7 5cbe 09b3 0fbf
00000100: b929 67be fb23 03bf d74f 0ebf 3720 e0bc
00000110: e6a5 b0bf f0ac 27bf df41 71c0 3aa4 e8be
00000120: 1e60 9ebd 79fd 1cbf 7763 f7bd 9918 11be
00000130: f9c5 f8be f864 0ebe e228 c5bd d427 40bd
00000140: ca93 0fbf 8a19 afbe fb92 59be 5999 07bf
00000150: 3747 0bc0 fd67 f9be 3b5a cdbe 801d 1abe
00000160: f5a6 ccbe 6e85 04bf 2f18 40be 627b d5be
00000170: 8f2a 11bf 849d 0dbf 231d 0fbe 3342 18bf
00000180: e023 0cbe d8c8 09bf 70e4 fdbd 6fb0 b9bc
00000190: 8a01 1ebf 8250 29be 4e8e 39be a721 f1bd
000001a0: ce9f 12bf 765d 9dbe b22c d4be e63a b5bc
000001b0: 042c 1ebe da2c 04bf ed8c 21be 09ca c9be
000001c0: 99c8 4cbf da74 94be 8c26 2cbe b7a6 81be
000001d0: b310 b0bd 2e15 fabe eae9 0bbf 16c4 fdbe
000001e0: df7e 0fbf 8560 1bbd a7ec 06bf ca35 00bf
000001f0: 6a82 eebe cab2 e5be 672a edbd 3117 bcbe
00000200: 88f8 0fbf 1199 bdbc ebab d0be 4c22 dfbd
00000210: e1a6 8bbe 8be7 67be 5eee e7be 97bf f8bd
00000220: 8361 0dbe 7673 22c0 5f53 ecbe e3b9 0cbf
00000230: 3056 26be 7eee 09bf 6a49 11be 8b04 23bd
00000240: 129d 1ebf e740 e7be 6a28 cbbe 7aff a2bd
00000250: 030c c6be 220d 09bf 6cff b1be 5a08 17bd
00000260: ca4a 5ec0 0a81 f6be 770e b9bd 451d 0f3a
00000270: ac51 33bd f600 84bd fbb0 f8be 3759 e13b
00000280: 2c82 dabe 9911 06bf 00d1 43bd 2604 c7bf
00000290: d619 05bf 6929 03be 4373 d93c 0a86 03be
000002a0: 6788 1dbf 43f9 f4bc a3b1 12be 5cf1 29be
000002b0: 4580 d83c dac9 9dbd 40ac e5be a5b1 f7bc
000002c0: 73b2 8abe abb6 00bf 2405 08bf 322e 95be
000002d0: 29cb 58bf c2f3 aabd 52ad 0abf a9ba 20be
000002e0: f689 d3bd 5124 0bbf 4e09 a0be 4d29 d8be
000002f0: 64a2 cfbe 75d6 fdbe fa4a cfbe 6639 c9be
00000300: 3afc d4be 5f9d 37bf 2082 0abf 4469 2dbd
00000310: c4c8 b9be 461d 26bf b77c 0ebf e28e 62be
00000320: bb76 dabc 51c8 23bf 9256 06be e2cf 19be
00000330: 553f 82be 9942 13be 9fec 9bbd b009 76bc
00000340: 37e9 12be 8118 c4bd 98ed cdbe 1e7d e3be
00000350: f85c e4bf 560e afbe d7c3 d7bd 1ab3 13be
00000360: f9ae 28be efa4 c3be 3db3 3bbe 9949 8dbe
00000370: 04c4 d5be 8911 d0be 269f 11be a987 f9be
00000380: 2f8a 20be 5a68 97be e7f3 c2be ea65 bf3c
00000390: 9319 1ebf 6ac1 2dbe 0f76 58be 6307 f3bd
000003a0: cb2f 2ebf 0959 b8be fb42 d3be a592 073d
000003b0: 2312 c6bd 88b7 18bf 674f 1dbe e8bc aebe
000003c0: 3ee1 5abf a24c 3abe b3c9 ccbe 1657 c2be
000003d0: c346 7fbe 0209 edbe c138 e0be bcd2 12bf
000003e0: 899f e7be f411 04bd 730c 0abf a269 61be
000003f0: 2c36 c2be 7757 fdbe df46 ccbd 8c6a b5be
