src/chess_cv/weights/snap.safetensors (safetensors, 620937 bytes, 10 tensors)

conv1.bias f4 [16]
0	0xbd7ab3cf	-0.061206635
1	0x3c9febef	0.019521682
2	0x3ee28893	0.44244823
3	0xbd683f88	-0.056701213
4	0xbdaf60cc	-0.085633844
5	0x3ca160ef	0.019699542
6	0x3eae8113	0.3408285
7	0xbda92dec	-0.08260712
8	0xbe822f22	-0.25426584
9	0xbdde017a	-0.108401254
10	0xbf47f47c	-0.7810743
11	0xbd13a257	-0.03604349
12	0xbdd41530	-0.10355604
13	0x3cf946a1	0.030429186
14	0x3f06eca7	0.5270485
15	0xbde5c844	-0.11219838

conv1.weight f4 [16, 3, 3, 3]
0	0x3e4c0985	0.19925506
1	0x3e2ac042	0.16674903
2	0x3e19ad66	0.15007553
3	0x3b9ccf20	0.0047854334
4	0x3cbe062a	0.023196299
5	0x3d217fe2	0.0394286
6	0xbe64b305	-0.22333916
7	0xbe41f425	-0.1894079
8	0xbe46b081	-0.19403268
9	0x3eb59204	0.35462964
10	0x3eab8055	0.33496347
11	0x3ea100fa	0.31446058
12	0x3e79d617	0.24398075
13	0x3e65035f	0.22364567
14	0x3e43e56d	0.19130488
15	0xbf10a975	-0.5650857
16	0xbf0359c5	-0.5130885
17	0xbf039cdf	-0.5141124
18	0x3d7cb879	0.061699364
19	0x3ca5c01d	0.020233208
20	0x3d566613	0.05234344
21	0x3d4a951c	0.049458608
22	0x3d5af210	0.053453505
23	0x3db77fd9	0.08959932
24	0xbe1d7542	-0.15376762
25	0xbde55d7c	-0.11199471
26	0xbdedcf41	-0.11611796
27	0xbe156cb7	-0.14592253
28	0xbba74086	-0.0051041273
29	0xbe7ea241	-0.24866582
30	0x3d82cb12	0.06386389
31	0x3ed1eacb	0.40999445
32	0xbd903f91	-0.07043374
33	0xbdb6a24b	-0.08917674
34	0x3e9e55f3	0.3092495
35	0xbe47023d	-0.19434448
36	0xbdee2899	-0.11628837
37	0x3e2000a6	0.15625247
38	0xbdba8b3d	-0.09108589
39	0xbe5e8c66	-0.21733245
40	0x3e7e302f	0.24823068
41	0xbe644eae	-0.22295639
42	0xbe4ee6b2	-0.20205191
43	0x3e8e6d74	0.2781788
44	0xbe151144	-0.14557368
45	0x3cfb7e7a	0.030699957
46	0x3e77bec5	0.24193867
47	0xbc49eaa6	-0.012324011
48	0xbe6292bc	-0.22126287
49	0x3df03f74	0.11730853
50	0xbe8754da	-0.26431924
51	0xbe080b96	-0.1328567
52	0x3ea622da	0.32448465
53	0xbe0c38e8	-0.13693583
54	0xbe4327eb	-0.19058196
55	0xbebe0bae	-0.37118286
56	0xbeb43fef	-0.35205027
57	0xbe2b103a	-0.16705409
58	0xbe664495	-0.224871
59	0xbe8847bf	-0.26617238
60	0x3cafec12	0.021474872
61	0x3e177895	0.14792092
62	0x3cc5ef2d	0.0241619
63	0x3e69842b	0.22804324
64	0x3e6c3350	0.23066449
65	0x3e9bce75	0.30430952
66	0x3e10ff36	0.14159855
67	0x3d78abd0	0.06071073
68	0x3de5e3b2	0.1122507
69	0xbefac56e	-0.48978752
70	0xbea34b9c	-0.31893623
71	0xbe8ff1a1	-0.28114036
72	0xbd34b7ef	-0.044120725
73	0xbd354e97	-0.044264402
74	0xbd9452cd	-0.072423555
75	0xbdfa9f0c	-0.12237367
76	0xbcbcc5f1	-0.023043605
77	0xbdde9c21	-0.10869623
78	0xbd57983a	-0.05263541
79	0xbd8dcf2b	-0.0692428
80	0xbe681bdd	-0.22666879
81	0x3d8c139d	0.068396784
82	0x3d02df9f	0.031951543
83	0xbca492b1	-0.02008948
84	0xbf21d30b	-0.6321265
85	0xbf084ba5	-0.53240424
86	0xbefeb3dc	-0.49746597
87	0x3f096e21	0.5368367
88	0x3f01beb7	0.5068163
89	0x3efde332	0.495874
90	0x3e607fba	0.21923724
91	0x3e3efcba	0.18651095
92	0x3e7b04be	0.24513528
93	0xbd8f6f5a	-0.070036605
94	0xbd7cc0d5	-0.061707336
95	0xbcffc361	-0.031221094
96	0xbe9843ae	-0.29739136
97	0xbe98bb3d	-0.2983035
98	0xbe8d6f16	-0.27623814
99	0x3aa4e185	0.0012579417
100	0xbd614a09	-0.055002246
101	0xbd352ef5	-0.044234235
102	0x3ec3dc59	0.3825405
103	0x3ec053d5	0.3756396
104	0x3ec85510	0.39127398
105	0xbe884372	-0.26613957
106	0xbe7886f2	-0.24270228
107	0xbe82e98d	-0.2556881
108	0x3ee2f40e	0.44326824
109	0x3ed976c3	0.4247342
110	0x3eaf2cee	0.34213966
111	0x3ea31b64	0.31856835
112	0x3e9f7e7b	0.31151184
113	0x3eb11632	0.34587246
114	0x3e91b9eb	0.28462157
115	0x3e8b7a03	0.27241525
116	0x3e75531f	0.2395749
117	0xbdf2af37	-0.11849826
118	0xbda2051c	-0.07911131
119	0xbc821f67	-0.015884114
120	0xbef9f524	-0.4881984
121	0xbeed64a2	-0.4636584
122	0xbeaf7baf	-0.3427405
123	0xbf06a7af	-0.52599615
124	0xbed3c5ac	-0.4136175
125	0xbed2ef02	-0.41197973
126	0xbe94cbe5	-0.2906181
127	0xbe4ccd93	-0.20000295
128	0xbe50af5d	-0.20379396
129	0x3dfc406a	0.123169735
130	0x3cef2af4	0.029195286
131	0x3c9123c8	0.017717257
132	0x3e65371c	0.22384304
133	0x3e112546	0.14174375
134	0x3d35f595	0.04442366
135	0x3e3ed4db	0.18635885
136	0x3c91e325	0.017808506
137	0xbe156c55	-0.14592107
138	0x3dfc7e64	0.123287946
139	0xbe89edff	-0.2693939
140	0xbdfc19ea	-0.1230963
141	0x3e839a0d	0.2570347
142	0xba916e44	-0.0011095484
143	0xbe3422c8	-0.17591393
144	0x3e3ba4a8	0.1832453
145	0xbdace3a6	-0.08441858
146	0xbe752c7a	-0.23942748
147	0x3e95a1d3	0.29225025
148	0xbe502b64	-0.20329052
149	0xbe5c197d	-0.21494098
150	0x3ea2cfb3	0.31799087
151	0xbe07795d	-0.1322989
152	0xbd63c5ba	-0.05560849
153	0x3dcab26a	0.09897311
154	0xbd5efc55	-0.05443986
155	0xbd634edd	-0.05549513
156	0x3e6041f7	0.21900164
157	0xbe5a758e	-0.21333906
158	0xbd8503fe	-0.06494902
159	0x3e3a57eb	0.181976
160	0xbd11f42a	-0.035633244
161	0xbe0bd47e	-0.13655278
162	0xbe3d30fd	-0.18475719
163	0xbdf55cc5	-0.11980585
164	0xbdbe8584	-0.0930281
165	0x3e681c1b	0.22666971
166	0x3e086033	0.13317947
167	0x3e0c9f47	0.13732634
168	0x3c04174d	0.008062196
169	0xbcbb1d0f	-0.022841005
170	0xbb85a6d9	-0.0040787277
171	0x3d949294	0.0725452
172	0x3dc0cf13	0.09414496
173	0x3dd7dacc	0.10539779
174	0x3e1cd4b3	0.15315513
175	0x3e2794b6	0.16365322
176	0x3e24b9a8	0.16086447
177	0xbd9bd05e	-0.07608102
178	0xbd9564e5	-0.07294635
179	0x3c5b4a35	0.013384392
180	0x3e076ba8	0.13224661
181	0x3ddb1b43	0.10698559
182	0x3e4cd4c9	0.20003046
183	0xbf526230	-0.8218107
184	0xbf501288	-0.81278276
185	0xbf391422	-0.72296345
186	0x3dc35ed8	0.095395744
187	0xbccb46a1	-0.024813952
188	0x3bf6484c	0.0075159427
189	0xbd2cb439	-0.04216406
190	0xbcb24ffb	-0.021766653
191	0xbd70083e	-0.05860161
192	0xbe9d37cf	-0.3070664
193	0xbe44dd50	-0.19225049
194	0xbe7ee6f4	-0.24892789
195	0xbf18dd6e	-0.59712875
196	0xbf0fb59c	-0.5613649
197	0xbf161c79	-0.58637196
198	0x3dbec839	0.09315533
199	0x3d67c7a4	0.056586877
200	0x3bd23bdd	0.0064158277
201	0x3d989305	0.07449917
202	0x3d56762e	0.0523588
203	0x3d2d9a1d	0.042383302
204	0x3e19379c	0.1496262
205	0x3e2feda8	0.17180502
206	0x3e4c26b5	0.1993664
207	0x3cf7f0db	0.030266216
208	0xbb699d18	-0.0035646614
209	0x3d03c55f	0.03217065
210	0x3e0bb934	0.13644868
211	0x3de8faed	0.11375985
212	0x3e4e9bcc	0.2017662
213	0x3eca35e4	0.3949424
214	0x3ec28be1	0.37997344
215	0x3ed9ea8b	0.42561755
216	0xbe7a2b1e	-0.2443051
217	0xbe130dbe	-0.14360711
218	0xbe67da5a	-0.22641888
219	0xbe0d726c	-0.1381318
220	0xbe0b8a6c	-0.13627023
221	0xbd9360fd	-0.071962334
222	0xbecaa07a	-0.3957556
223	0xbe97c3c0	-0.29641533
224	0xbe856afd	-0.26058188
225	0x3f12fd79	0.5741802
226	0x3ebc3f99	0.3676727
227	0x3e16b139	0.14716043
228	0x3f0a24c5	0.53962356
229	0x3ece93d6	0.40347165
230	0x3e696921	0.2279401
231	0x3e860c9a	0.2618149
232	0x3e52ba48	0.20578873
233	0x3d9c564a	0.07633646
234	0xbfa94d31	-1.3226682
235	0xbf8278e3	-1.0193142
236	0xbf81ec3a	-1.0150216
237	0xbfb575f3	-1.417662
238	0xbfa4df6f	-1.2880687
239	0xbf8e8e78	-1.1137228
240	0xbfbc1a64	-1.4695554
241	0xbf9f774c	-1.2458282
242	0xbf90f02f	-1.1323298
243	0x3e80ba2a	0.25142032
244	0x3e1c273d	0.15249343
245	0x3d263f7e	0.040587895
246	0xbef41f83	-0.47680292
247	0xbec0c45c	-0.3764981
248	0xbe90f5e8	-0.28312612
249	0x3e8087dc	0.25103652
250	0x3e680fc0	0.22662258
251	0x3e518621	0.20461322
252	0x3e34c8e9	0.17654766
253	0x3da849f8	0.082172334
254	0xbc64a633	-0.013955641
255	0xbf304b34	-0.6886475

conv2.bias f4 [32]
0	0x3d68e395	0.056857664
1	0x3f5ab469	0.85431534
2	0x3d371480	0.044697285
3	0xbdc48924	-0.0959647
4	0xbd95faa8	-0.073231995
5	0xbe42dc92	-0.19029453
6	0xbdec8bb7	-0.11550086
7	0xbd9492f8	-0.072545946
8	0xbdd2d553	-0.102945946
9	0xbd826f69	-0.06368906
10	0x3e9975cb	0.2997268
11	0xbde18e53	-0.11013474
12	0xbce8d304	-0.028420933
13	0x3e30b4d9	0.17256488
14	0x3f705485	0.93878967
15	0x3e661143	0.22467522
16	0xbe49762f	-0.1967399
17	0xbe52c3fa	-0.20582572
18	0xba462dab	-0.00075599056
19	0x3c935df8	0.017989144
20	0x3c2a028c	0.010376584
21	0x3e1b46c4	0.15163714
22	0x3ea26d77	0.3172414
23	0x3e563a83	0.20920758
24	0xbeaeeb3d	-0.34163848
25	0xbf022ee5	-0.50852805
26	0x3f4a3ff8	0.7900386
27	0xbeb1ae1d	-0.3470315
28	0x3ef2337c	0.47304904
29	0xbdcef9bb	-0.10106226
30	0xbf09321d	-0.5359209
31	0xbd35cb92	-0.044383593

conv2.weight f4 [32, 3, 3, 16]
0	0x3f1d83f7	0.6152949
1	0xbe901b03	-0.28145608
2	0x3e963351	0.29336026
3	0xbe40cf47	-0.1882907
4	0xbdc09d50	-0.09405005
5	0xbdbeca4b	-0.09315928
6	0xbee91a26	-0.45527762
7	0xbe9d1677	-0.30681202
8	0x3e5f13f1	0.21784951
9	0x3e2b4a98	0.16727674
10	0xbeacbcf7	-0.3373792
11	0x3e5a69a2	0.21329358
12	0xbe8f998e	-0.2804684
13	0xbdfd6cdc	-0.12374279
14	0x3d370490	0.044682086
15	0xbf4ac7a2	-0.79210865
16	0xbcfb4df8	-0.030676827
17	0xbdf8fe8b	-0.12157925
18	0x3e3cffa7	0.18456899
19	0x3ccf5056	0.025306862
20	0x3dc0b109	0.09408767
21	0xbe97c72a	-0.29644138
22	0x3fa4a981	1.2864228
23	0xbf50ec2c	-0.8161037
24	0x3f7ecad2	0.9952823
25	0x3ee62cec	0.44956148
26	0xbdb54e77	-0.088528566
27	0xbeafe9bd	-0.34358016
28	0x3eb21783	0.34783563
29	0xbee9d06c	-0.45666826
30	0x3edf4adc	0.436118
31	0x3b8a2fb5	0.004217113
32	0xbd464813	-0.04840858
33	0x3d24ad57	0.040204372
34	0xbd106c27	-0.035259392
35	0x3dd86d80	0.105677605
36	0xbeb6c4af	-0.35696933
37	0x3e1b2499	0.1515068
38	0xbf2a52e4	-0.6653273
39	0xbe014555	-0.12624104
40	0xbe1275d0	-0.14302754
41	0x3d857e5b	0.06518241
42	0x3e917bc6	0.28414744
43	0xbee32774	-0.44366038
44	0xbedbf67a	-0.42961484
45	0x3e1bbc76	0.15208611
46	0xbe548510	-0.20753884
47	0x3dc36e2b	0.09542497
48	0xbdc52696	-0.096265
49	0xbac0e989	-0.0014718036
50	0xbe9ecb43	-0.3101445
51	0x3dae0b81	0.08498288
52	0xbeab34cf	-0.33438727
53	0x3d1104d6	0.035405003
54	0xbdbe2b37	-0.09285586
55	0xbeea4383	-0.45754632
56	0xbf05c1fe	-0.52249134
57	0xbeb28abb	-0.34871468
58	0xbe86375e	-0.26214117
59	0x3e3024c6	0.17201528
60	0xbe90e516	-0.2829978
61	0x3de6bf8e	0.11267005
62	0xbe82c743	-0.2554265
63	0xbfd5be0e	-1.6698625
64	0x3e04ca46	0.12967786
65	0xbe96560c	-0.29362524
66	0x3eb9d389	0.362942
67	0x3f2f22ab	0.68412274
68	0x3e7199ed	0.23593874
69	0xbeb0c4bd	-0.345251
70	0x3e6d5508	0.23176968
71	0x3e214ecc	0.15752715
72	0x3ec2044f	0.37893912
73	0x3eedb0b6	0.46423882
74	0xbe2affca	-0.16699138
75	0xbf060ec6	-0.5236629
76	0x3f24d903	0.64393634
77	0xbebc02db	-0.3672093
78	0x3e8378c1	0.25678065
79	0xbe9847b3	-0.29742202
80	0x3e460fc9	0.19341959
81	0x3d831e5e	0.064022765
82	0x3e343c24	0.17601067
83	0xbf4df1fd	-0.8044737
84	0xbf040d43	-0.51582736
85	0x3e2c9768	0.16854632
86	0xbec2ce5e	-0.3804807
87	0xbcaa7cdd	-0.020811493
88	0x3e1da1ec	0.153938
89	0xbeaff0d2	-0.3436342
90	0x3d843e18	0.06457156
91	0xbf490887	-0.78528637
92	0xbec701eb	-0.3886865
93	0x3e5d918a	0.2163755
94	0xbf06f257	-0.5271353
95	0x3d152571	0.03641266
96	0xbf0f99e2	-0.5609418
97	0x3e86f6dc	0.26360214
98	0x3e96dc87	0.29465124
99	0x3f0d6d5a	0.5524498
100	0xbda5bcec	-0.080926746
101	0x3e47b541	0.19502737
102	0xbdb3aaca	-0.0877281
103	0xbdf8073c	-0.12110755
104	0x3e0a5115	0.13507493
105	0xbe9282d7	-0.28615448
106	0x3e635af4	0.22202665
107	0x3f2db610	0.6785593
108	0xbe9f2989	-0.31086376
109	0x3e8dd033	0.27697906
110	0xbd70d33b	-0.058795195
111	0x3d8e5d3a	0.06951375
112	0xbe1c8292	-0.15284184
113	0x3e6335b2	0.22188452
114	0x3dfafcf8	0.12255281
115	0x3cde5e62	0.027144615
116	0x3e0933ba	0.13398638
117	0x3e9663de	0.29373068
118	0xbe36c8d5	-0.17850049
119	0x3ed6598e	0.418652
120	0x3e0d9db7	0.13829695
121	0xbf85bcbd	-1.0448223
122	0x3e408856	0.18802008
123	0xbea63071	-0.32458833
124	0x3ea0c83e	0.31402773
125	0x3e6514f2	0.22371271
126	0xbdbd1efc	-0.092344254
127	0xbebc67cd	-0.36797944
128	0xbe4b7dfb	-0.19872276
129	0x3dc51374	0.09622851
130	0x3e9300bd	0.287115
131	0xbed301e0	-0.41212368
132	0x3c50f01f	0.012752562
133	0x3dc29b0d	0.0950223
134	0x3db11e0d	0.0864831
135	0xbe60c9f1	-0.21952035
136	0xbe8377bb	-0.25677285
137	0x3de54755	0.11195246
138	0x3e42c1ff	0.19019316
139	0xbdcc9c2d	-0.09990726
140	0xbe36a202	-0.17835239
141	0xbe2db4b9	-0.16963471
142	0xbe70cf6f	-0.2351663
143	0x3f6c2fde	0.9226054
144	0x3e4b37a7	0.19845448
145	0x3ef0c308	0.47023797
146	0x3d1c0b22	0.038096555
147	0xbde68754	-0.112562805
148	0x3e8c8673	0.27446327
149	0x3eea8466	0.45804137
150	0x3dba526a	0.090977505
151	0x3e18eb0a	0.1493341
152	0xbe617831	-0.22018506
153	0x3e38c2f0	0.18043113
154	0x3e37f21f	0.17963456
155	0x3e22de70	0.15905166
156	0x3e75189c	0.23935169
157	0x3e5b439a	0.21412507
158	0xbcc86fdd	-0.024467403
159	0xbdbedfcd	-0.0932003
160	0xbe6c7be6	-0.23094139
161	0x3e17adb3	0.14812355
162	0x3d468b04	0.04847242
163	0xbeaab9d0	-0.3334489
164	0xbcd5ceef	-0.02609965
165	0x3e033c22	0.12815908
166	0xbf18e1ce	-0.5971955
167	0xbe2f79e6	-0.17136344
168	0xbe5fbb52	-0.21848801
169	0xbe9c7584	-0.30558407
170	0xbe29a939	-0.1656846
171	0xbd71efa9	-0.05906645
172	0xbdb4fcef	-0.08837306
173	0x3d99a7d5	0.075027145
174	0xbcdcca54	-0.026951946
175	0xbeb88f30	-0.36046743
176	0x3dce946e	0.100869045
177	0x3ec2da65	0.38057247
178	0x3f3258be	0.6966666
179	0x3d703d59	0.058652256
180	0xbd58552d	-0.052815605
181	0x3ef80c62	0.48446947
182	0xbeda8e74	-0.42686808
183	0x3e3f1395	0.18659814
184	0xbed6c4f0	-0.41947126
185	0x3e4c27ff	0.19937132
186	0x3ebe5580	0.37174606
187	0xbd5d6f7f	-0.05406141
188	0x3e5648fa	0.20926276
189	0x3e02d649	0.12777056
190	0x3e13a36b	0.14417808
191	0x3e5ee8c4	0.2176848
192	0xbe5f019b	-0.21777956
193	0xbeecc97e	-0.46247476
194	0xbf5cdf1a	-0.86277926
195	0x3db47814	0.088119656
196	0x3e111cc5	0.14171131
197	0xbec40d66	-0.38291472
198	0xbb79b09f	-0.003809966
199	0xbf752371	-0.95757204
200	0x3e0e4784	0.13894469
201	0x3d9d5ba3	0.07683494
202	0x3d713862	0.05889166
203	0x3e29e3c0	0.16590786
204	0x3c1f8a68	0.009737588
205	0xbe94c9c6	-0.2906019
206	0xbe150d00	-0.1455574
207	0x3f2331a8	0.63747644
208	0xbf0a47c0	-0.5401573
209	0xbf749fd0	-0.95556355
210	0xbeac98b3	-0.3371025
211	0xbe13db20	-0.14439058
212	0xbf6748b1	-0.90345293
213	0xbf690d8a	-0.91036284
214	0xbe3b7a48	-0.18308365
215	0xbf522a66	-0.82095945
216	0x3e0b7135	0.13617404
217	0xbc5f9ed6	-0.013648709
218	0xbed3f7e6	-0.4140007
219	0xbf8872eb	-1.066007
220	0xbec98f33	-0.39367065
221	0xbf3b15ea	-0.73080313
222	0x3e06924c	0.13141745
223	0xbfa44b63	-1.2835506
224	0x3b337f3b	0.0027389068
225	0xbe945f62	-0.2897902
226	0x3eb5895b	0.35456356
227	0xbd26fee2	-0.04077042
228	0xbee32979	-0.4436758
229	0xbf15b1cb	-0.58474416
230	0xbe3f0e8d	-0.18657894
231	0x3e8da90b	0.27668032
232	0xbd000541	-0.03125501
233	0x3d0cb748	0.034354478
234	0xbdcba388	-0.099433005
235	0x3eb9d8ac	0.3629812
236	0x3df5a569	0.1199444
237	0xbeac1e25	-0.33616748
238	0x3e99c777	0.30034992
239	0xbd73c2e9	-0.059512053
240	0xbe56898d	-0.20950909
241	0x3dc80649	0.09766824
242	0xbcaea319	-0.021318005
243	0xbd8d5a53	-0.069019936
244	0x3ebcb2d1	0.36855176
245	0xbbaaf4a1	-0.0052171503
246	0x3e8cc385	0.2749292
247	0xbf3c7863	-0.73621196
248	0xbd85654c	-0.065134615
249	0xbd014fe2	-0.031570323
250	0x3edbd72c	0.429376
251	0x3dc91a25	0.0981944
252	0x3da8348b	0.08213147
253	0xbdbb52b1	-0.091466315
254	0x3e2b6190	0.16736436
255	0x3f6f8b44	0.9357188

conv3.bias f4 [64]
0	0xbe971467	-0.29507753
1	0x3f63bf49	0.88963753
2	0x3df4f1c9	0.11960179
3	0xbe6fabf4	-0.23405439
4	0xbed2e2c3	-0.4118863
5	0xbed2883d	-0.41119567
6	0x3b1c5df8	0.002385972
7	0x3e8a0670	0.26958036
8	0xbeb34481	-0.35013202
9	0xbf03df0f	-0.51512235
10	0xbf266ec0	-0.6501274
11	0x3ed88362	0.42287737
12	0xbec8227a	-0.39088804
13	0x3c95feab	0.018309912
14	0xbebb0d57	-0.36533615
15	0xbfb5e411	-1.4210225
16	0xbfdaaf71	-1.708479
17	0xbf96d2d6	-1.1783092
18	0x3f1ce9ab	0.6129405
19	0xbef8d8e9	-0.4860299
20	0xbe63d3f2	-0.2224882
21	0xbe312c04	-0.17301947
22	0xbf00cbde	-0.50311077
23	0x3ea0df5e	0.31420416
24	0x3f2d08ee	0.6759175
25	0xbf4e5f83	-0.8061449
26	0x3d950d65	0.072779454
27	0x3f90ec80	1.1322174
28	0xbec0915b	-0.37610897
29	0x3f4cd1dc	0.8000772
30	0xbe867a79	-0.26265314
31	0x3d82eec4	0.06393197
32	0xbf3231c3	-0.6960718
33	0xbe3815e9	-0.17977108
34	0x3e6ac754	0.229276
35	0xbf915ae1	-1.1355859
36	0xbf1daa60	-0.61588097
37	0xbf430df2	-0.76193154
38	0x3e5d79da	0.21628514
39	0x3eb041fa	0.34425336
40	0xbed970cb	-0.42468867
41	0xbe3a89c0	-0.1821661
42	0x3e7594f6	0.23982605
43	0xbf5f6723	-0.8726675
44	0xbf5522d1	-0.8325625
45	0xbea67b79	-0.32516077
46	0xbed90399	-0.42385557
47	0xbfa296f8	-1.2702322
48	0xbe62f41c	-0.22163433
49	0xbe9a2544	-0.30106556
50	0x3dce4cff	0.100732796
51	0xbefe9392	-0.49721962
52	0xbf5b49b6	-0.8565935
53	0xbf00348b	-0.50080174
54	0xbe0598d7	-0.13046585
55	0xbed8346e	-0.422275
56	0x4001e047	2.0293138
57	0xbf5da91d	-0.8658617
58	0x3e8d98e0	0.27655697
59	0xbf267551	-0.6502276
60	0xbed81720	-0.42205143
61	0xbed3fe5d	-0.41405
62	0xbdb21cd7	-0.08696907
63	0xbe9236f9	-0.28557566

conv3.weight f4 [64, 3, 3, 32]
0	0xbf348c37	-0.7052645
1	0xbde76c2b	-0.11299928
2	0x3eb3306d	0.34997883
3	0x3da4e0f0	0.08050716
4	0x3de4b6e2	0.11167695
5	0x3c61cf48	0.01378233
6	0x3eaea9d5	0.34113947
7	0xbbe2ba0e	-0.006919152
8	0x3ea9a06d	0.33130208
9	0xbe99bcb2	-0.30026776
10	0x3eb0e26a	0.3454774
11	0xbebcfc31	-0.36911157
12	0xbf2731bf	-0.6531028
13	0xbd7ea2a6	-0.062166832
14	0xbdeb34a7	-0.11484652
15	0xbe0e24c5	-0.13881214
16	0x3e0d1b6d	0.13779993
17	0xbe948604	-0.29008496
18	0xbe87d16e	-0.2652697
19	0xbd72d405	-0.05928423
20	0x3e8f28b5	0.27960745
21	0x3f10f68b	0.56626195
22	0x3ead63f5	0.33865324
23	0x3e102bb8	0.14079177
24	0x3e7b16ac	0.24520367
25	0xbe94f6a3	-0.2909442
26	0x3d43b2a0	0.047777772
27	0xbdbb950b	-0.09159287
28	0x3c839ecf	0.016066937
29	0x3e103414	0.14082366
30	0x3dd7789a	0.1052105
31	0xbc5416d5	-0.012944897
32	0x3edce294	0.43141615
33	0xbe91f4c3	-0.2850705
34	0x3d476c69	0.048687372
35	0x3e89e485	0.2693216
36	0xbd862e9f	-0.06551861
37	0xbd84be7b	-0.06481644
38	0x3e9240bc	0.28565013
39	0x3e277070	0.16351485
40	0xbe00b6a6	-0.12569675
41	0xbea7544d	-0.32681504
42	0x3e5b9297	0.21442638
43	0x3de16bbb	0.11006876
44	0x3b198e00	0.0023430586
45	0xbeea3069	-0.4574006
46	0xbef2f1c7	-0.47450086
47	0x3dc612e1	0.096715696
48	0x3e5237bf	0.20529078
49	0x3e7cc04e	0.24682733
50	0xbe33dd4c	-0.17564887
51	0xbce55acc	-0.027997397
52	0xbd81ef5a	-0.06344481
53	0x3d1369c7	0.03598955
54	0xbf121770	-0.5706701
55	0x3e92e3f3	0.28689536
56	0xbdafdd73	-0.0858716
57	0x3c2a17fd	0.010381696
58	0xbef786b9	-0.48344973
59	0xbe8831a8	-0.26600385
60	0xbed9782d	-0.424745
61	0x3e1f5f22	0.15563634
62	0x3f2ca567	0.67439884
63	0x3e2224de	0.15834376
64	0xbeafb3dc	-0.3431691
65	0xbe1c3f40	-0.15258503
66	0x3d2bd3f0	0.041950166
67	0x3d0e600c	0.034759566
68	0xbe52e3ba	-0.20594683
69	0x3eb51af2	0.3537212
70	0x3e914f35	0.28380743
71	0x3eb43719	0.35198286
72	0x3f3b11f5	0.73074275
73	0xbe3ec218	-0.18628728
74	0x3c474b95	0.012164016
75	0x3efd05a1	0.49418357
76	0x3e965280	0.29359818
77	0xbe169818	-0.14706457
78	0xbaf6d34a	-0.001883128
79	0x3e483e6f	0.19555067
80	0x3e956cef	0.29184672
81	0xbf10e2d9	-0.5659614
82	0xbd3ba63b	-0.045812827
83	0xbbeb8e3f	-0.007188588
84	0xbdb97641	-0.09055758
85	0x3e83dbce	0.25753635
86	0x3e6f9c03	0.23399357
87	0x3e34b65e	0.17647693
88	0xbddd868b	-0.10816678
89	0xbf335d43	-0.7006418
90	0xbe010757	-0.12600456
91	0xbb910803	-0.004426004
92	0xbebc4a05	-0.36775222
93	0xbe885645	-0.26628318
94	0xbe70e17a	-0.23523512
95	0x3e004edf	0.12530087
96	0xbe79dcc0	-0.24400616
97	0xbebcccc3	-0.3687497
98	0x3e18ec9c	0.1493401
99	0x3ea9be12	0.33152825
100	0xbdbd71b1	-0.092502005
101	0x3e90ddc4	0.28294194
102	0xbe42d964	-0.1902824
103	0x3d909ebb	0.070615254
104	0xbeaf5b0c	-0.3424915
105	0x3e78f4dd	0.24312158
106	0x3f03405d	0.51270086
107	0x3e67f5fc	0.2265243
108	0x3e85354c	0.26017225
109	0xbeb34451	-0.3501306
110	0xbe0c00cb	-0.13672177
111	0x3db55be7	0.088554196
112	0xbe8566df	-0.26055047
113	0xbdc7bbd4	-0.09752622
114	0x3ca105c8	0.019656077
115	0x3d86f2e8	0.065892994
116	0x3c98c93a	0.01865064
117	0x3e258c7e	0.16166875
118	0xbee734d4	-0.45157492
119	0x3dfc66d9	0.12324304
120	0x3e675b5f	0.22593449
121	0xbe323e0f	-0.17406486
122	0x3cf7ff77	0.030273182
123	0xbe7e9ed2	-0.24865273
124	0xbdcf8587	-0.1013289
125	0x3e3a45d7	0.18190704
126	0xbe1df42a	-0.15425172
127	0x3e1ecff8	0.15509021
128	0x3f569de3	0.83834666
129	0xbfa011f8	-1.2505484
130	0xbc022a4a	-0.007944653
131	0x3e23b05c	0.15985245
132	0xbdd871e9	-0.10568602
133	0x3d6e0a4d	0.058115292
134	0xbd9cc33e	-0.07654427
135	0xbe56985d	-0.2095656
136	0xbdeab0a1	-0.114594705
137	0xbe1313aa	-0.1436297
138	0xbd56ed0f	-0.05247217
139	0xbecdcf1c	-0.40197074
140	0xbe0db817	-0.13839756
141	0xbe8768f8	-0.26447272
142	0x3e0e795b	0.13913481
143	0x3da1c362	0.078985944
144	0x3e1839c6	0.14865789
145	0x3f07959c	0.5296266
146	0xbe8c91d7	-0.27455017
147	0xbe0a5ce8	-0.13512003
148	0xbec360d1	-0.38159803
149	0xbedb6d7d	-0.4285697
150	0xbf54088e	-0.82825553
151	0x3e33c17c	0.17554277
152	0x3dd9d985	0.10637192
153	0x3e2ad633	0.16683273
154	0xbd7b925b	-0.061418872
155	0xbd905d56	-0.070490524
156	0x3ed56ab0	0.4168296
157	0x3eb2678c	0.34844625
158	0xbd163d4e	-0.03667956
159	0x3e954af6	0.29158753
160	0xbe3c3897	-0.18380962
161	0xbf6a79c1	-0.9159203
162	0xbd0d4ca6	-0.034496926
163	0xbe148af2	-0.14506128
164	0x3eb6f2de	0.35732168
165	0x3ced0475	0.02893279
166	0xbec43b2a	-0.3832639
167	0xbc62e2cb	-0.013848017
168	0xbeb69855	-0.35663095
169	0xbeaefc1c	-0.3417672
170	0x3ec6fa31	0.38862756
171	0x3d227660	0.039663672
172	0x3eda9e99	0.42699125
173	0xbec86bdd	-0.39144793
174	0x3da0216d	0.078188755
175	0xbd9404bb	-0.07227465
176	0x3e6b2144	0.22961909
177	0x3e461182	0.19342616
178	0x3ec2c6bf	0.38042256
179	0xbe8a5566	-0.2701828
180	0xbeb6158b	-0.3556331
181	0xbe5a4350	-0.2131474
182	0xbebb3f09	-0.3657153
183	0x3d8a439c	0.06751177
184	0xbef4e6ff	-0.47832486
185	0xbcbe090c	-0.023197673
186	0xbc8faa32	-0.01753721
187	0x3eb46e2e	0.3524031
188	0xbd78c773	-0.060737085
189	0x3ebdfc94	0.37106764
190	0xbe8edc8a	-0.27902633
191	0x3eaeed69	0.34165505
192	0xbe02255c	-0.12709564
193	0x3ec1570c	0.37761724
194	0x3e00dd5a	0.12584439
195	0xbed06544	-0.4070226
196	0xbe6ba9bf	-0.23013972
197	0x3e11cb23	0.14237647
198	0x3eeee21d	0.46656886
199	0x3eda658b	0.42655596
200	0x3d96f0bb	0.073701344
201	0xbe395236	-0.18097767
202	0xbe015435	-0.12629779
203	0xbe624bee	-0.22099277
204	0x3e1dd821	0.15414478
205	0x3da5df31	0.08099211
206	0x3e1ed5fc	0.15511316
207	0x3e806242	0.25074965
208	0x3e045cff	0.129261
209	0x3e33a158	0.17542017
210	0xbd235430	-0.03987521
211	0xbe5eb8f8	-0.21750247
212	0xbd356ae9	-0.04429141
213	0xbe0e7300	-0.13911057
214	0x3e1ced05	0.15324791
215	0x3e399f4d	0.18127175
216	0xbd5da407	-0.054111507
217	0x3dc1ca1f	0.0946238
218	0x3ebad8fa	0.36493665
219	0x3e33f24f	0.17572902
220	0xbecb340f	-0.39688155
221	0x3eca3240	0.39491463
222	0x3d87756a	0.06614192
223	0xbeabe0cd	-0.33569947
224	0x3eb5f7c7	0.35540602
225	0x3eb9e4b2	0.36307293
226	0x3e76e7ac	0.24111813
227	0x3eb47e07	0.352524
228	0xbf11725e	-0.56815135
229	0xbe77f28b	-0.24213617
230	0xbe570e23	-0.21001486
231	0xbed4d5af	-0.41569278
232	0x3d7dd411	0.06196982
233	0x3ecb8bf8	0.39755225
234	0xbe88fe9e	-0.26756757
235	0xbe633483	-0.22188
236	0xbe70776d	-0.23483057
237	0x3ed1e727	0.40996668
238	0xbfc05733	-1.5026611
239	0x3f17d82c	0.5931423
240	0xbe58cc7d	-0.21171756
241	0xbea80614	-0.32817137
242	0x3e18a47c	0.14906496
243	0x3e481258	0.19538248
244	0x3ec3faa0	0.3827715
245	0x3ea47c65	0.32126155
246	0x3d33199b	0.04372559
247	0x3ed7140a	0.42007476
248	0xbe2f0729	-0.17092575
249	0xbf614122	-0.8799001
250	0xbe9e0e5f	-0.3087034
251	0xbcc53f58	-0.024078056
252	0xbf17c66d	-0.5928715
253	0x3ed9b6f7	0.42522404
254	0xbdbac6fa	-0.09119983
255	0x3efb45f2	0.49076802

fc1.bias f4 [128]
0	0xbd9cc086	-0.076539084
1	0x3da2725f	0.07931971
2	0xbe85dfda	-0.26147348
3	0xbf033a51	-0.5126086
4	0xbe0cc4d2	-0.13746956
5	0xbd62a803	-0.05533601
6	0xbe1a3ca3	-0.15062194
7	0xbdad488f	-0.08461105
8	0xbea632fe	-0.3246078
9	0xbe47de98	-0.19518507
10	0xbd6d3635	-0.057913024
11	0xbe7c87be	-0.24661157
12	0xbe559c94	-0.20860511
13	0xbd4f3626	-0.05058875
14	0xbc7090e3	-0.014682981
15	0xbe89bb37	-0.26900646
16	0xbe281c0e	-0.16416952
17	0xbf652e21	-0.8952351
18	0xbce4ef64	-0.027946182
19	0xbdc1fddf	-0.0947225
20	0xbef04501	-0.46927646
21	0xbe7b2ab7	-0.24528013
22	0xbc91b49d	-0.017786318
23	0xbf5dffb6	-0.8671831
24	0xbf177dd9	-0.59176403
25	0xbe32226a	-0.1739594
26	0xbf784637	-0.9698214
27	0xbeb6373f	-0.35589024
28	0x3e5f3ea8	0.21801245
29	0xbe49ebe9	-0.19718899
30	0x3c779a88	0.015112527
31	0x3e01f336	0.12690434
32	0xbe6116b0	-0.21981311
33	0xbe4e72a2	-0.20160916
34	0x3ebe8ca6	0.3721668
35	0xbec0dcac	-0.3766836
36	0xbf1f9be6	-0.6234726
37	0x3f23496f	0.63783926
38	0xbf1186af	-0.56846136
39	0xbf1c2860	-0.6099911
40	0xbe87cfdd	-0.26525775
41	0xbd9425a6	-0.07233743
42	0xbcc53c10	-0.024076492
43	0xbe6d4b90	-0.23173356
44	0xbd3549a2	-0.044259675
45	0xbcf90596	-0.030398171
46	0x3e2c9b12	0.1685603
47	0x3d96a123	0.07354953
48	0xbdb50b34	-0.088400275
49	0xbe76e04d	-0.24109001
50	0xbeb5290d	-0.35382882
51	0xbe1aced5	-0.15117963
52	0xbe7d3824	-0.24728447
53	0xbe37d43b	-0.17952053
54	0xbd9854b0	-0.07438028
55	0xbd3ec4e6	-0.046574496
56	0xbeb4077a	-0.35161954
57	0xbeee3168	-0.4652207
58	0xbe543f9d	-0.20727392
59	0x3baa35bd	0.0051943944
60	0xbce7318b	-0.028221866
61	0xbe2c3d91	-0.1682036
62	0xbefddc67	-0.49582216
63	0x3eb4c36c	0.35305345
64	0xbef68035	-0.4814469
65	0xbe548bbb	-0.20756428
66	0xbca38db6	-0.019965034
67	0xbf82f0a5	-1.0229689
68	0xbc2e39fe	-0.010633944
69	0x3d34676e	0.04404395
70	0xbeab9f70	-0.3352008
71	0xbd14f9f9	-0.036371205
72	0xbbd3d03b	-0.006464032
73	0xbe8e6eaa	-0.27818805
74	0xbe043b99	-0.1291336
75	0xbe56ab2f	-0.20963739
76	0xbeb01961	-0.34394363
77	0xbee88057	-0.45410416
78	0xbf6b0771	-0.9180823
79	0xbe8c9c55	-0.27463022
80	0xbf1f93e6	-0.6233505
81	0xbe80a25f	-0.2512388
82	0xbe989fbb	-0.29809365
83	0xbef305ba	-0.47465307
84	0xbf37937f	-0.71709436
85	0xbe9061ca	-0.28199607
86	0xbf4fd4dd	-0.8118418
87	0xbe1e8aa2	-0.15482572
88	0xbb8c7789	-0.0042867106
89	0xbf4f5719	-0.80992275
90	0xbecdeeb4	-0.4022118
91	0xbeb94655	-0.36186472
92	0x3ea4b061	0.32165816
93	0xbcbe830b	-0.023255846
94	0xbc87d812	-0.016582523
95	0xbf6a0eda	-0.9142891
96	0xbe9b90ae	-0.3038382
97	0x3e7f4478	0.24928463
98	0xbdc76e03	-0.0973778
99	0x3edd29ac	0.43195856
100	0xbc7f5ca5	-0.015586053
101	0xbee93819	-0.45550612
102	0xbf289778	-0.6585612
103	0xbe334f86	-0.17510805
104	0xbe212eb9	-0.1574048
105	0xbe6c7e08	-0.23094952
106	0xbedb8119	-0.4287193
107	0xbecb45da	-0.3970173
108	0xbf0300df	-0.51173204
109	0xbb30b374	-0.002696243
110	0xbeafa2bb	-0.3430384
111	0xbe8f8c04	-0.2803651
112	0xbd3b8eb4	-0.04579039
113	0xbe99d2ce	-0.30043644
114	0xbe9d8d15	-0.307717
115	0x3c95ebfc	0.018301003
116	0xbf73a71c	-0.95176864
117	0xbd283149	-0.041062627
118	0xbf2ae685	-0.66757995
119	0xbcc9df9c	-0.024642758
120	0xbf0f0027	-0.5585961
121	0xbee0cf6d	-0.43908253
122	0x3dcc3775	0.09971515
123	0x3eb3d071	0.35119966
124	0xbd9f4b40	-0.07778025
125	0xbdb80ceb	-0.08986839
126	0xbeb955df	-0.36198327
127	0xbec426a9	-0.38310745

fc1.weight f4 [128, 1024]
0	0x3f18bbb3	0.59661406
1	0xbe8ce85d	-0.2752103
2	0xbdbb4be0	-0.091453314
3	0x3f4a8d02	0.7912141
4	0x3ecb03d0	0.39651346
5	0x3e194046	0.14965925
6	0x3f3babe7	0.7330918
7	0xbbe33070	-0.0069332644
8	0x3c34878f	0.011018648
9	0x3e8c04e2	0.27347475
10	0x3ccc9d6a	0.024977405
11	0x3f1e5e2a	0.6186243
12	0x3e7f65e6	0.24941215
13	0x3ebde328	0.3708737
14	0x3f10f293	0.5662014
15	0x3f83d249	1.0298549
16	0x3e00effb	0.12591545
17	0x3ec7b461	0.39004806
18	0x3e322176	0.17395577
19	0x3ef26c55	0.47348276
20	0x3f1d3486	0.6140827
21	0x3e299dc9	0.16564097
22	0x3ea0ebee	0.3143
23	0x3eca9c68	0.39572453
24	0x3ecaae03	0.39585885
25	0x3e53b5ba	0.20674792
26	0xbc92df70	-0.017928809
27	0x3d52c00d	0.051452685
28	0x3f2c582b	0.67322034
29	0xbe17c38f	-0.14820693
30	0x3e0a6a7d	0.13517185
31	0x3e945688	0.28972268
32	0x3e9d96aa	0.3077901
33	0x3e7563c6	0.23963842
34	0x3deae3fe	0.11469267
35	0x3ece137e	0.40249246
36	0xbd803da6	-0.062617585
37	0xbe941e5a	-0.28929406
38	0xbd212564	-0.0393423
39	0xbc8d58ab	-0.017254194
40	0x3ef2ba2a	0.47407657
41	0x3e2d5236	0.16925892
42	0x3c111a67	0.008856392
43	0x393bfd87	0.00017928156
44	0x3f43ce5c	0.76486754
45	0x3f14d560	0.58138084
46	0x3e4de7b8	0.20107925
47	0x3cecded0	0.028914839
48	0x3e91f7b7	0.28509304
49	0x3eced503	0.4039689
50	0x3d98f850	0.07469237
51	0x3d47171c	0.048606023
52	0x3f1b8f3a	0.6076542
53	0x3eaddf74	0.33959544
54	0x3d9fbee3	0.078000806
55	0x3e4dc8fd	0.20096202
56	0xbda1f5f0	-0.07908237
57	0xbb33b939	-0.0027423634
58	0x3e7245b5	0.23659404
59	0x3f0b5065	0.5441955
60	0x3e9a5d47	0.3014929
61	0xbe310f20	-0.17290926
62	0x3ea0047d	0.31253424
63	0xbd81b080	-0.06332493
64	0xbe645f25	-0.2230192
65	0xbf1124e7	-0.56696934
66	0x3e6e9dd7	0.23302399
67	0x3f246145	0.6421092
68	0x3e8f6479	0.28006342
69	0x3edb9e39	0.42894152
70	0x3e8f2752	0.27959687
71	0x3f582d6b	0.844443
72	0x3dbbd252	0.09170975
73	0x3dab5013	0.08364882
74	0x3f1b4bd9	0.6066261
75	0x3f97b77c	1.185287
76	0x3e907751	0.2821603
77	0x3ed62f40	0.41832924
78	0x3e034b61	0.12821724
79	0x3e35b085	0.17743118
80	0x3eafce8c	0.3433727
81	0xbe62ee42	-0.221612
82	0xbf236f84	-0.63842034
83	0x3f427ac0	0.7596855
84	0x3f491fd1	0.78564173
85	0xbe52bd0b	-0.20579927
86	0x3e6e7977	0.23288523
87	0x3f047556	0.5174154
88	0xbe264984	-0.16238981
89	0x3f1fb1f0	0.62380886
90	0xbe12c371	-0.14332367
91	0x3c55133d	0.013005075
92	0x3f242f26	0.6413444
93	0x3eaf2596	0.34208363
94	0xbe937e1b	-0.28807148
95	0x3f2abb95	0.6669248
96	0xbdc421bb	-0.09576746
97	0xbe33118c	-0.17487162
98	0x3f2796a7	0.6546425
99	0x3e55038e	0.20802137
100	0xbdf66408	-0.12030798
101	0xbf121425	-0.5706199
102	0xbb25e38d	-0.0025312633
103	0x3ea44d6d	0.3209032
104	0x3d8059cb	0.06267127
105	0x3d6b9521	0.057515267
106	0x3d64df40	0.05587697
107	0x3ec8113c	0.3907565
108	0x3eb6f141	0.35730937
109	0x3f4d2905	0.80140716
110	0xbefd051e	-0.49417967
111	0x3e73c364	0.23805004
112	0x3f3ba1da	0.7329384
113	0x3e8f84c0	0.28030968
114	0xbd846ad0	-0.06465685
115	0x3e8d8a00	0.27644348
116	0x3d838108	0.06421095
117	0x3c947162	0.018120471
118	0xbd835195	-0.06412045
119	0x3ea1ad27	0.31577417
120	0xbeba4c41	-0.36386302
121	0xbd0e3c69	-0.03472558
122	0xbe9717f8	-0.29510474
123	0x3f35697f	0.708641
124	0x3f269799	0.6507507
125	0x3f6d21e7	0.92629856
126	0x3e4a1f34	0.19738466
127	0x3e2e58ea	0.17026106
128	0x3f1733f7	0.5906367
129	0xbe8541fd	-0.26026908
130	0x3d5f13d7	0.05446228
131	0x3d9356a3	0.07194259
132	0x3dd0decb	0.101987444
133	0x3f12d2c2	0.5735284
134	0x3f5a737d	0.8533247
135	0x3f743851	0.9539843
136	0x3eb1ca32	0.34724575
137	0x3e3f206f	0.18664716
138	0x3f2797f7	0.65466255
139	0x3f0fd284	0.56180596
140	0x3e491d46	0.19640073
141	0x3e9c9174	0.30579722
142	0x3e7fdc83	0.24986462
143	0x3ef5a1b3	0.4797493
144	0x3edd9069	0.4327424
145	0xbd1f02bd	-0.03882097
146	0xbea8982d	-0.329286
147	0x3e9dfa47	0.3085501
148	0x3f3c113a	0.73463786
149	0xbe893d90	-0.2680478
150	0x3db1912b	0.08670267
151	0x3f4392c7	0.7639584
152	0xbe282f20	-0.16424227
153	0x3eaea1c8	0.34107804
154	0x3e393194	0.18085319
155	0xbe5c8173	-0.21533756
156	0x3f37229e	0.71537197
157	0xbe0ee096	-0.1395286
158	0x3e33e7df	0.1756892
159	0x3e6612c1	0.22468092
160	0x3ebfdbe8	0.37472463
161	0xbea3d8a8	-0.32001233
162	0x3f51d6cc	0.8196838
163	0x3f556932	0.8336364
164	0x3eb96a42	0.3621388
165	0xbe86cdc1	-0.26328853
166	0xbea51fd2	-0.3225084
167	0x3efdb9b3	0.4955574
168	0x3d0cb2ab	0.03435008
169	0xbea94b97	-0.33065483
170	0x3cc80b36	0.024419408
171	0x3bcabc97	0.0061870324
172	0x3dc1da7b	0.094655
173	0xbb22dc3e	-0.0024850513
174	0xbe6a71dc	-0.22894996
175	0xbe5a13ff	-0.2129669
176	0x3f213951	0.6297808
177	0x3dba5c91	0.09099687
178	0xbe39f439	-0.1815957
179	0x3e307d54	0.17235309
180	0x3f70f2a1	0.9412022
181	0x3e9da475	0.30789533
182	0x3d7cfa77	0.0617623
183	0x3e903fce	0.2817368
184	0xbe5554bf	-0.2083311
185	0xbd50cc97	-0.050976362
186	0xbe10abd0	-0.14128041
187	0x3f876d21	1.0580178
188	0x3eddcb4d	0.4331917
189	0x3f13bd7b	0.57711
190	0xbee8f6c7	-0.45500776
191	0x3de9e186	0.11419968
192	0x3f46657e	0.77498615
193	0xbd7351a2	-0.059404023
194	0x3ec33e19	0.38133314
195	0xbbe93a82	-0.0071175704
196	0x3f299e76	0.6625742
197	0x3e8384cb	0.2568725
198	0x3ee97660	0.45598125
199	0x3f048541	0.5176583
200	0xbddde17d	-0.10834024
201	0x3d042bd2	0.032268353
202	0x3eef740a	0.46768218
203	0x3f183d00	0.5946808
204	0x3e9021f2	0.28150898
205	0x3dca1cd3	0.09868779
206	0x3eaddade	0.33956045
207	0x3efd2737	0.4944398
208	0x3f3b84ef	0.73249716
209	0x3edd24d5	0.43192163
210	0x3c29b888	0.010358937
211	0x3f26e606	0.6519474
212	0x3de4885b	0.1115882
213	0x3db2f399	0.08737869
214	0x3db033c4	0.086036235
215	0x3e87c0e4	0.2651435
216	0x3e43fc8e	0.1913931
217	0xbf217e6a	-0.6308352
218	0xbe96ab0f	-0.29427382
219	0xbd8ad452	-0.06778778
220	0x3f82a413	1.0206321
221	0xbd2b9f1a	-0.041899778
222	0x3edfb06d	0.4368929
223	0xbd9c1c45	-0.076225795
224	0x3e5b5e6e	0.21422741
225	0x3d5b5ced	0.053555418
226	0x3e8f0add	0.27937976
227	0x3f2eb26c	0.68241
228	0x3e9fe97b	0.3123282
229	0xbde26882	-0.110550895
230	0x3d5faa6a	0.05460588
231	0x3f0292b5	0.5100511
232	0x3e228508	0.1587106
233	0xbea19eaf	-0.31566378
234	0x3e01290e	0.12613317
235	0xbcd20a3b	-0.025639644
236	0x3f2e6041	0.6811562
237	0x3f25832d	0.64653283
238	0xbce7a140	-0.028275132
239	0x3ee762b3	0.4519249
240	0x3f0c327b	0.5476453
241	0x3ce59df1	0.028029414
242	0x3e798b00	0.2436943
243	0x3f0fdffa	0.56201136
244	0x3e70a22c	0.23499364
245	0x3ed9befd	0.42528525
246	0x3dd69166	0.10476951
247	0x3f486833	0.78283995
248	0xbec433f7	-0.38320896
249	0x3dea1168	0.11429101
250	0xbe2ba021	-0.16760303
251	0x3f27555a	0.6536461
252	0xbe5b84b8	-0.21437347
253	0x3b7108a5	0.0036778834
254	0x3f1ff7df	0.62487596
255	0xbe182638	-0.1485833

fc2.bias f4 [2]
0	0x3fb2a0f9	1.3955375
1	0xbfbe2fca	-1.4858334

fc2.weight f4 [2, 128]
0	0xbc4aec21	-0.012385399
1	0x3d02f16d	0.031968523
2	0xba000ddc	-0.00048848777
3	0xbc9eeb8b	-0.019399425
4	0xbc6f18c4	-0.014593307
5	0xbd9a930e	-0.0754758
6	0x3ca678e6	0.02032132
7	0xbca86b0f	-0.020558862
8	0xbb8bd1aa	-0.0042669373
9	0x3ca4e853	0.020130312
10	0xbcfe3e25	-0.031035492
11	0xbcf1399d	-0.029446417
12	0xbd3edca4	-0.046597138
13	0x3c06bde4	0.008223984
14	0xbcecda92	-0.028912816
15	0x3d47036b	0.048587244
16	0xbd397e79	-0.04528663
17	0xbc6222a5	-0.013802205
18	0xbd357ca5	-0.044308323
19	0x3c821397	0.015878482
20	0xbaf86595	-0.0018951172
21	0xbd761678	-0.06008002
22	0x3d12825f	0.035768863
23	0xbadd2c96	-0.001687425
24	0xbcda28dd	-0.026630813
25	0xbd4cde63	-0.050016772
26	0xbc38af16	-0.0112722125
27	0xbca2a677	-0.019854767
28	0x3d45dc8f	0.048306044
29	0xbbb28df9	-0.0054490534
30	0xbd02725c	-0.031847343
31	0x3c88ff25	0.016723225
32	0xbcd6d5c3	-0.026224976
33	0xbd3d289d	-0.04618131
34	0x3cc83f5a	0.02444427
35	0xbc72f552	-0.014828997
36	0x3c1574d1	0.0091220895
37	0xbc7676c0	-0.015042961
38	0xbd4f5d75	-0.050626237
39	0xbc11e4eb	-0.008904676
40	0x3cfd1483	0.03089357
41	0x3c092e94	0.0083729215
42	0x3c9141d5	0.017731586
43	0x3cf93c89	0.030424373
44	0xbd3394d4	-0.043843105
45	0xbcab9078	-0.020942912
46	0x3d4e46c4	0.050360456
47	0x3c59840b	0.01327611
48	0x3c71f408	0.014767654
49	0x3d209b9f	0.03921091
50	0xbc43060d	-0.011903298
51	0x3d372575	0.044713456
52	0xbd035d4e	-0.032071404
53	0xbd438886	-0.04773762
54	0xbd3b9bcd	-0.04580288
55	0x3ccc5ceb	0.02494665
56	0xbd26dc65	-0.04073753
57	0xbca92c7e	-0.020651098
58	0xbcf00946	-0.029301297
59	0x3d4ee03f	0.050506826
60	0xbc8e819d	-0.017395789
61	0xbd238b84	-0.039927974
62	0xbd87c33c	-0.06629035
63	0x3d4457af	0.047935184
64	0xbd163940	-0.03667569
65	0xbc0161f4	-0.007896889
66	0x3d09f2aa	0.033678688
67	0xbcff67f3	-0.031177497
68	0xbcbd445d	-0.023103887
69	0xbc9d4d30	-0.019201845
70	0xbcdb18e7	-0.026745273
71	0xbcebf36c	-0.028802596
72	0xbd382b4b	-0.044963162
73	0xbced622d	-0.028977478
74	0xbd2b797a	-0.041863896
75	0xbc996af0	-0.01872775
76	0xbaacf733	-0.001319623
77	0xbc5e8483	-0.013581398
78	0x3d184afd	0.03718089
79	0xbd04dcb7	-0.032437053
80	0x3d2210f6	0.039566956
81	0x3c45a402	0.012063028
82	0xbd1c4eba	-0.038161017
83	0x3d051864	0.032493964
84	0xbc2c4805	-0.010515218
85	0x3bfe7032	0.0077648396
86	0x3ad3946e	0.0016142258
87	0xbc40de3e	-0.011771737
88	0xbc9ec3ee	-0.019380536
89	0xbceed9d6	-0.029156607
90	0x3c2ddb42	0.010611357
91	0xbcf35285	-0.029702434
92	0x3bfe80ec	0.0077668335
93	0x3b441786	0.0029921248
94	0xbd4b38bd	-0.049614657
95	0x3d621080	0.055191517
96	0x39e3e08d	0.00043464117
97	0x3cc5c39d	0.024141127
98	0xbd1e98d5	-0.03871997
99	0x3cada2d2	0.021195803
100	0x3cdafdea	0.026732404
101	0x3c888406	0.016664516
102	0xbc119cd7	-0.008887491
103	0xb9de495e	-0.00042397802
104	0xbd6ab517	-0.057301607
105	0xbb924c47	-0.0044646594
106	0x3ca5b457	0.020227594
107	0xbce9f94a	-0.028561253
108	0xbc33a970	-0.01096569
109	0xbd2da2b0	-0.04239148
110	0xbd6937a5	-0.056937832
111	0xbc9d652e	-0.019213285
112	0xbd250ae2	-0.04029358
113	0x3d38dafb	0.04513071
114	0xbd3fbf4a	-0.046813287
115	0xbd5e8699	-0.05432758
116	0x3d4aa829	0.049476776
117	0x3cace4a7	0.021105124
118	0x3bbce513	0.0057646125
119	0xbc7eda7f	-0.015555023
120	0xbb5600d2	-0.0032654298
121	0xbcaf7c73	-0.021421647
122	0xbd1c0c48	-0.03809765
123	0x3c517d56	0.01278623
124	0xbc1c7bf3	-0.009551036
125	0xbb9db36c	-0.0048126485
126	0xbc8a7bea	-0.01690479
127	0xbd0c045d	-0.03418385
128	0x3dd899a7	0.10576182
129	0x3be86fea	0.0070934193
130	0xbcc3a25e	-0.023881134
131	0xbd27a757	-0.040931072
132	0x3d37c199	0.044862363
133	0xbc82138a	-0.015878458
134	0x3b949426	0.004534262
135	0xbd37c245	-0.044863004
136	0x3d440573	0.04785676
137	0xbbca214b	-0.0061685196
138	0xbd913bec	-0.07091507
139	0x3c6c861e	0.014436273
140	0x3c9cfbd4	0.01916305
141	0x3c42d1a0	0.011890799
142	0x3d5c62db	0.053805213
143	0x3c8fae87	0.017539276
144	0x3c887ff5	0.016662577
145	0xbd16b3ef	-0.03679269
146	0x3c857cd9	0.016294884
147	0x3d91d91b	0.07121488
148	0xbcc63a1d	-0.024197632
149	0xbb8e2638	-0.004338052
150	0x3d164284	0.036684528
151	0xbd00ddb1	-0.03146142
152	0x3cafae0c	0.021445297
153	0x3bcfb2d2	0.0063384557
154	0xbcd261cf	-0.025681404
155	0xbd617858	-0.05504641
156	0x3cc7adcc	0.024374865
157	0x3d25bc85	0.04046299
158	0x3c6902d4	0.014221866
159	0xbc26cd1a	-0.010180736
160	0x3ccb84be	0.02484357
161	0xbb6e3150	-0.003634531
162	0x3aede60e	0.0018150227
163	0x3d0bbe0a	0.034116782
164	0xbc1c4c96	-0.009539744
165	0xbd0a2b37	-0.03373262
166	0x3d49d77a	0.04927776
167	0xbccc0305	-0.024903784
168	0x3da0ffa0	0.078612566
169	0x3d731356	0.059344612
170	0xbd147579	-0.036244843
171	0x3d93420d	0.071903326
172	0xbd1a740a	-0.03770832
173	0xbb4c924e	-0.0031215134
174	0x3cd4491e	0.025913771
175	0xbc8379dd	-0.01604932
176	0x3da1eb14	0.07906166
177	0x3c836da2	0.016043488
178	0x3d53c9b8	0.051706046
179	0x3cd77fb9	0.02630602
180	0x3bfec8f3	0.00777542
181	0x3b8a4a23	0.0042202636
182	0x3c3064f0	0.010766253
183	0xbcb2cda1	-0.021826567
184	0x3c76442f	0.015030905
185	0x3d171fbf	0.03689551
186	0x3c7cc962	0.015428873
187	0x3cf9b6d0	0.03048268
188	0x3d3952d4	0.045245007
189	0x3c326755	0.010888894
190	0xbcad9dc9	-0.021193402
191	0x3d0f70e5	0.035019774
192	0x3d289752	0.041159935
193	0x3d01153a	0.031514384
194	0x3c6cc547	0.014451331
195	0xbd5a7d00	-0.053341866
196	0xbc58a4b4	-0.013222862
197	0x3d2d68d0	0.042336285
198	0xbd351cd4	-0.044216946
199	0x3d1fda4a	0.039026536
200	0xbd1e1991	-0.0385986
201	0x3d1e7aa2	0.03869117
202	0x3d1646b6	0.03668853
203	0x3d021633	0.031759452
204	0x3d93d068	0.07217485
205	0x3d69b004	0.057052627
206	0x3cd66af4	0.026174046
207	0x3cb3f2ff	0.021966456
208	0x3c9bb7d2	0.01900855
209	0x3d897e64	0.0671356
210	0xbd80b234	-0.062839895
211	0x3d88f572	0.0668744
212	0xbc6f603c	-0.014610346
213	0x3d88b562	0.06675221
214	0xbd13d6c1	-0.036093477
215	0x3cfdbc85	0.030973682
216	0x3d91770b	0.07102784
217	0xbd67b27d	-0.056566704
218	0xbc55a325	-0.013039385
219	0x3c4ca0d3	0.012489515
220	0xbcf2d1cb	-0.029641053
221	0xbc886c7e	-0.016653296
222	0xbbc26500	-0.0059324503
223	0x3d09d12b	0.033646744
224	0xbc7cae2c	-0.015422385
225	0xbbaef436	-0.005339171
226	0x3cbec60e	0.0232878
227	0x3b8b597e	0.0042526117
228	0xbc4beabf	-0.012446105
229	0x3d966049	0.07342584
230	0xbcf40b88	-0.029790655
231	0x3d7eb457	0.062183704
232	0x3bf0784a	0.0073385583
233	0x3d90b613	0.07065978
234	0x3bdc3cbc	0.0067211073
235	0x3ce8aa98	0.028401658
236	0x3da8807e	0.08227633
237	0x3bec1e38	0.007205751
238	0x3cefc3c3	0.029268151
239	0x3cf49111	0.02985433
240	0x3cc5efd6	0.024162214
241	0x3d0f5f9b	0.035003286
242	0x3c9ab260	0.018883884
243	0x3c3a2b50	0.011362866
244	0x3cf10bc6	0.02942456
245	0x3daf3667	0.08555298
246	0xbc89ce27	-0.016821934
247	0xbcff5ca7	-0.03117211
248	0xbcac5432	-0.021036241
249	0x3cc4033f	0.02392733
250	0xbd822bab	-0.06355985
251	0xbc9d8280	-0.019227266
252	0x3d43bc76	0.047787152
253	0xbcdeb600	-0.027186394
254	0x3cdfc046	0.027313363
255	0x3cb5cfd1	0.022193821
