src/chess_cv/weights/snap.safetensors (safetensors, 620937 bytes, 10 tensors)

conv1.bias f4 [16]
00000000: 3152 a6bd 00c2 42bd 29fe 7dbf 146f aebd
00000010: 1efb d1bd 01aa 88bd 7607 c4bc a0d9 3f3d
00000020: a7ce ac3e 6589 113f 3ac1 62be 1e43 343c
00000030: ac0b 953e b5d3 953c c1b6 6abd b0b7 debd
-0.081211455 -0.047548294 -0.9921594 -0.0851728 -0.10252975 -0.06673051 -0.023929339 0.046838403
0.33751413 0.5685027 -0.22144023 0.01100233 0.29110467 0.018289426 -0.057303194 -0.10874879

conv1.weight f4 [16, 3, 3, 3]
00000000: 62e9 3f3c 0379 9c39 4559 1d3d f525 97bd
00000010: 6f02 5dbd 41ae d9bd 24f1 693d 38c5 5f3d
00000020: 080c 8b3d 879a a93e 4b83 863e 8994 a33e
00000030: 8ba6 a53e dcd4 a33e 4754 893e 656e 23bf
00000040: 508c 1dbf eea8 12bf 1237 ee3d 1113 a43d
00000050: dca0 053e 2a45 a83e 1496 b03e 22df a73e
00000060: 7c56 01bf 1e35 cfbe d5b3 cebe d76f ab3e
00000070: 65a1 b73e 6bf1 bf3e d035 ba3e f3f8 8b3e
00000080: 8220 c93e 6f68 a63e 176b ac3e 9e83 de3e
00000090: 11c7 9abe 07fa 8fbe 219a 7abe ca0c d1be
000000a0: 333c b1be a734 b7be 4e61 fdbe 39a9 bbbe
000000b0: 38d0 b4be 11bd febc 0bb5 87bd 1323 13be
000000c0: b5ea 663d 0cad 103d 2839 8cbd 68aa d23d
000000d0: 029c df3b 308c f03c 459e 213e e810 433e
000000e0: c4bc 2a3e d943 c83d e8ad 1a3e 9f0d a73d
000000f0: 4e9c 73bd 7d8f f3bb 7cca 90bb 9ec7 0f3e
00000100: f9a2 1f3d cd16 56bc 70b5 253e c54c 463d
00000110: 54bf 22bd 0555 1ebe 1785 20be 1cdc 18be
00000120: a9db 763e e4e0 c73d 098c 1cbd 4601 743e
00000130: 78f0 123e 9234 a53d d587 113e 4a00 343e
00000140: 76a0 d23d 9a49 bf3c 2054 8f3c a50e 38bd
00000150: d280 163d e365 193d 84de 3f3d 9402 d53c
00000160: cb1b b1bc afbc 3abd 67c5 e6be 2f26 b6be
00000170: 5b6a b2be ecae e2be 3e19 cdbe 1a71 bbbe
00000180: 0f85 d5be 458e c4be 462b a4be 1ce0 c93e
00000190: 1563 b43e 95f7 9b3e 5d4d d03e 519f ba3e
000001a0: a8cc c53e c241 be3e d296 ba3e 42f3 c53e
000001b0: 8a10 22bf edd4 0cbf c025 08bf 7a4e 753e
000001c0: f521 693e 9308 473e 7a61 b83e 97ea 9e3e
000001d0: cb3b ae3e 0b15 03bf 2a76 00bf ea97 fdbe
000001e0: 69d3 993e f4d2 9b3e 4ce8 743e 7572 883e
000001f0: e62b 603e 54c0 823e da12 47be 6875 15be
00000200: 311e 09be 0f64 e43d 736c de3d 92ea e83d
00000210: 0a9f d73c 2c4a 0f3d 13a9 673d 7392 bd3d
00000220: 1c8f f93d 704a 223e 1261 963e b436 543e
00000230: 9671 753e 2f93 c33d e465 a23d 51f6 bd3d
00000240: 3e97 35bf f6af 0fbf c7d6 0ebf 380e 843c
00000250: cb5a 92bd 300a 2abd db73 563e 10f3 7d3e
00000260: 4576 783e 64f0 b73e 60ac be3e 9099 b43e
00000270: 0728 cfbe 2c80 d6be f890 bbbe 0036 cfbd
00000280: 4a86 05be 9b8a 65bd 806f bcbd 805a aa3d
00000290: e760 86bd 4a20 f4bd c3ea 543e c72a c2bd
000002a0: c316 cabd 362d 683e 4d65 0dbe 22dd 02be
000002b0: e535 383e d8ee 363c 0cc6 ccbe e07b 973e
000002c0: dd2f 71bd 1232 96be 7c99 b33e 93e6 70bd
000002d0: d4dd ac3d 4ecb f23d 8e4e 90be 1890 abbe
000002e0: 46aa 903e c1a3 51bd be40 91bd d6e0 9c3e
000002f0: 4599 59be 6083 f53d 81ff 6e3e e270 b23d
00000300: 9a84 e2be cb77 fcbe 516c b33e 7d63 08be
00000310: 1343 8dbd f867 a63e 104f eebd d089 95bd
00000320: 4282 1e3e 3ca6 09bf 579a 1bbf 219b b43e
00000330: 9ac4 9bbe 43a7 d4be 8fc8 fc3e 81e3 7c3e
00000340: 8c8c 083e 1884 b73d aec2 79be c826 67be
00000350: 054c 3f3d e11e 1b3e 63d2 e43d 7179 3f3e
00000360: 67e0 0abe 42b5 58be 0a0d 17bf 643d b33e
00000370: eeb0 903e 589c e6bd bd49 7e3d d8ba ee3d
00000380: 1086 a5be e207 193d 07f7 9dbd 902a dbbe
00000390: d626 ce3d e0a6 96bd 9e57 a1be 6d14 f03d
000003a0: 79d7 733d 2e33 7ebe 90aa a43e eb62 a63e
000003b0: 68cd 6ebe 1b23 6dbe b862 20be cc3c 90be
000003c0: e30c 28bc 1fca aa3d 9772 27bd 0a6e 283d
000003d0: a7a8 493d 39ae 643d 99a2 68be 3988 4abe
000003e0: ca27 09be b2c3 093d e718 433c 457a cc3c
000003f0: 71af b43e 59ec af3e f6dc 993e a273 62bf
0.011713358 0.000298448 0.038415212 -0.073802866 -0.0539574 -0.106289394 0.057114735 0.05463144
0.06789404 0.33125708 0.26272044 0.3194926 0.32353625 0.31998336 0.2682211 -0.63840324
-0.61542225 -0.57289016 0.116315976 0.08011449 0.13049644 0.32865268 0.344895 0.32787424
-0.5052259 -0.40470213 -0.40371576 0.33483765 0.35865322 0.37488875 0.3636918 0.2733837
0.39282614 0.32501552 0.33675453 0.4345979 -0.3023 -0.28120443 -0.24472858 -0.4083007
-0.3461624 -0.35782358 -0.494883 -0.36652544 -0.35315108 -0.031096013 -0.06626328 -0.14368849
0.056376178 0.03532128 -0.06846839 0.10286409 0.0068240175 0.029363722 0.15783031 0.19049418
0.16673571 0.09778566 0.15105402 0.08156895 -0.059475236 -0.0074328766 -0.0044186693 0.14040992
0.038973782 -0.01306696 0.16182494 0.048413057 -0.039733246 -0.1546212 -0.1567577 -0.14927715
0.24107231 0.09759691 -0.038219485 0.23828611 0.14349544 0.080666676 0.14211972 0.17578235
0.10284512 0.023350526 0.017496169 -0.04493584 0.036743946 0.037450682 0.046843067 0.026002206
-0.021619698 -0.0455901 -0.4507248 -0.35576007 -0.34846768 -0.4427408 -0.4005832 -0.36609727
-0.41703078 -0.38389793 -0.32064265 0.39428794 0.35231844 0.30462328 0.40684023 0.36449674
0.38632703 0.37159544 0.36443192 0.38662153 -0.63306487 -0.550124 -0.531826 0.23955718
0.2276686 0.19436865 0.3601187 0.31038353 0.34029993 -0.51203984 -0.50180304 -0.49529964
0.30044106 0.30434382 0.23916739 0.26649824 0.21891746 0.2553736 -0.19440785 -0.14595568
-0.13390423 0.11151897 0.10860529 0.11372866 0.026320953 0.034982845 0.056557726 0.092564486
0.12185499 0.15848708 0.29370934 0.20723993 0.23969111 0.095495574 0.0792959 0.09275497
-0.709339 -0.5612787 -0.55796474 0.016120061 -0.07146224 -0.04151362 0.20942633 0.24799752
0.24263866 0.3592559 0.37240887 0.3527341 -0.40460226 -0.41894662 -0.3663404 -0.101177216
-0.13039508 -0.056040388 -0.092009544 0.08318043 -0.065614514 -0.11920221 0.2079268 -0.094808154
-0.09867623 0.22673497 -0.13808174 -0.12779668 0.17989309 0.011165343 -0.39994848 0.29586697
-0.058883537 -0.29335076 0.35078037 -0.058813643 0.08440748 0.118551835 -0.28184932 -0.33508372
0.28254908 -0.05118156 -0.07092427 0.30640286 -0.21249874 0.119879484 0.23339655 0.08712937
-0.44241792 -0.49310145 0.35043576 -0.13319202 -0.06897559 0.32501197 -0.11636174 -0.07301676
0.15479377 -0.5376928 -0.6078238 0.35274604 -0.30423433 -0.4153386 0.49371764 0.24696161
0.13334864 0.08960742 -0.2439067 -0.22573388 0.046703357 0.15148498 0.111729406 0.1869867
-0.13562165 -0.21162894 -0.5900427 0.35007775 0.28259987 -0.11260289 0.06208204 0.11656731
-0.32328844 0.037361033 -0.07713132 -0.4280591 0.10066001 -0.07356048 -0.3151216 0.11722646
0.059531663 -0.24824211 0.3216138 0.32497343 -0.23320544 -0.23157923 -0.15662658 -0.28171384
-0.010256979 0.08339333 -0.040880766 0.041120566 0.049233105 0.055830214 -0.22718276 -0.19778527
-0.13394085 0.033633895 0.011907793 0.024960646 0.352901 0.34360006 0.30051392 -0.8845769

conv2.bias f4 [32]
00000000: d93d a83d 6c1c c53d c88f 37be 0d60 33be
00000010: 0dfe 7bbd 0565 9bbd aeab 0bbe 5664 6dbe
00000020: 6904 91bd 9bf4 753e a6d1 c93e aead 0fbe
00000030: ed30 9a3e aa05 d0bd 8a12 163f 19f9 7fbe
00000040: fcb6 8fbe 599c d2bd 0e26 39be b6c3 bcbc
00000050: 61e6 23bd 567e 01bf 29f8 743f bb93 23be
00000060: 8cfa e23d 8176 75be ce53 b73e 5a34 01be
00000070: 6143 673e fe21 c4bc 303a d23e 744d 853f
0.082149215 0.09624562 -0.17925942 -0.17517109 -0.06152158 -0.07587627 -0.1363971 -0.23182806
-0.07080919 0.24019091 0.39417762 -0.14031097 0.30115452 -0.1015733 0.5862204 -0.24997367
-0.28069293 -0.10283727 -0.18080923 -0.023042541 -0.04001463 -0.505834 0.9569116 -0.15974323
0.11082944 -0.23970987 0.35806125 -0.12617627 0.22584297 -0.02394199 0.4106002 1.0414262

conv2.weight f4 [32, 3, 3, 16]
00000000: 340f 52be 63e1 423e 7081 9fbe 8941 3abf
00000010: 3e29 973e 4709 1e3f 666a 423d c9bf 1cbe
00000020: 8cca aa3e 8ba3 5b3e ecd4 b43d efae f2be
00000030: 8698 bebd aff4 4dbe 1574 c2bd 6734 dabe
00000040: 30d9 45be f37d 8ebe 0ae6 3f3c e801 8fbd
00000050: 8912 61be 2f9d f4bc d3ef d73d 0885 e2bd
00000060: fe7a a2be 8988 34bf d18a 923d e1d1 bb3d
00000070: ce95 debe dede 6b3d b238 943d 0a9d 06bf
00000080: 9f54 77be 0474 99bd 1233 ff3e 0d45 103e
00000090: 8c31 10bd 4b6b 3fbf e4f9 21bd 851e ae3d
000000a0: d6b5 47be 9800 213e ec11 7a3d d833 353e
000000b0: 1eb6 db3e 9b69 3cbe 288b 6ebd f7c8 b0be
000000c0: 56b9 1a3f 342f a1be 618c d8be e43d 773c
000000d0: 7f6e c1bd cd8a fd3e a728 b7be f519 f5be
000000e0: 3fca 6b3e 2a92 e33e d970 9ebe 04db 693e
000000f0: d146 8ebc 764e 91bd 8675 16be 0c4b 6bbe
00000100: 7df6 36bf a443 383e ca6d 93bd 710c 52bf
00000110: 2d5c 7abd dd41 003f 5a3b acbc bb61 503e
00000120: 838e 073e 0be1 94bb 6782 84be 6ce8 aabe
00000130: f29b a8be 62a7 9c3d 68e3 16be af31 10be
00000140: e9ca 0cbf 309d 60be aa8d fc3e 6203 0cbe
00000150: a737 dcbd 8d7c e0bd 766b 3fbc 56e6 3ebe
00000160: 766d 9abe 6d29 f2bd 0cda 4b3e 5627 12be
00000170: af64 783d 8b64 3d3d 44e6 4ebe 60bb ed3e
00000180: 16a4 a83e 27b9 6fbd b4de d0be 4d99 b4be
00000190: 118c 47be 1e40 f23e 217c 873e d35a 3ebe
000001a0: 37c1 1ebe 3137 ac3c 80c1 86bd e884 a43d
000001b0: d76b 883d 4980 da3d b5f6 fa3e f07a 05bf
000001c0: 9e50 ae3e 76e1 a9be 0fe1 37be 457b 41bf
000001d0: 217b ea39 2cbd fe3e cd96 32bd a771 4e3d
000001e0: 7463 fc3d d605 ef3e 539a 31bd 2e7f 09be
000001f0: d800 cabc c320 03be 0bdf 983c 00b0 b0be
00000200: f77e 1bbf c064 e73d 80c1 df3e 75b8 703e
00000210: 8d5e ce3d 1dfa 1ebf 69a4 6f3d 592e 4e3e
00000220: 06d8 bebe fecf c1be 51ed 833e 4655 04bf
00000230: 06c9 873e 2eec 03be 205a fb3d 0391 d8bd
00000240: fed9 8cbe c0d3 1abe c786 0dbc f4ac 56be
00000250: 87da e7bd 096b 39be 7e20 a9bf 0956 59bf
00000260: d5ab 1f3f 6bb2 08be f1e9 1a3f 27bf 093d
00000270: 99b6 3d3e 3ff0 13be 7fbb b7bf 0190 69be
00000280: 6866 70bd 44ea 11ba 4649 133d 14f9 94be
00000290: aa21 47bd fb2a f4be ef81 febe acaa babe
000002a0: c51a 803e 4617 c0be 8771 f83e 4d30 a3be
000002b0: bfc3 b93e 5a41 78bf e477 07bf 8f22 893e
000002c0: 6460 e1bd 2cd8 dcbd 1458 953e bebb 453e
000002d0: cfd5 78be f9fd 07bc 00c2 41bb 02d9 4cbe
000002e0: 6bcc 7d3e bd62 21bf bcf2 1e3e 0caa 613b
000002f0: c932 833d 22ab b9be d942 11be 8acd 4abe
00000300: 93b8 853c 700d 713e 390f a63d 9ccd a6be
00000310: 4eca 20be fabd 4dbe cd6e b5be 232c 86be
00000320: b459 f5bd 7cb9 e4be e2f8 a43d 0839 c7be
00000330: e096 e83e f5e1 cebe 0b32 37bf c52e 123e
00000340: 93f0 443e 0f17 a03e 6508 413c 9e28 d2be
00000350: fbf3 5abe 4316 bdbe 4035 ba3d 4699 a23e
00000360: c0b1 8dbd 4aca 193e dde7 bbbe de31 a6be
00000370: f999 c83d 7f3b a3bf 2272 823e 2454 c53e
00000380: 18e5 dcbe 80ea 983e 25d9 f239 3de9 10be
00000390: 0fe6 95be 085f b63d b861 313e d041 15bd
000003a0: bad3 7fbe 415b 313e 9180 9dbe 1414 34be
000003b0: 76da 663c 38e9 923e 5838 8a3d 2069 0c3e
000003c0: acda 963d ad72 14be 2c89 9d3d 775d a1be
000003d0: eddd fcbd 8393 8f3e ad93 e23e a682 413e
000003e0: 2272 1fbe 6810 b4be c7d9 98be e308 48bf
000003f0: ed05 e6bd 9c9a af3e 6664 113f b4e9 b4be
-0.20513612 0.1903129 -0.3115344 -0.7275625 0.29523653 0.61732906 0.04746475 -0.15307535
0.33357656 0.21449105 0.08829674 -0.4739909 -0.09306435 -0.2011287 -0.09494797 -0.42618105
-0.19321132 -0.27830467 0.01171256 -0.069827855 -0.21979727 -0.029860107 0.1054379 -0.1106053
-0.3173446 -0.70520836 0.071553834 0.091708906 -0.43473667 0.05758559 0.07237376 -0.5258337
-0.24153374 -0.07492831 0.4984365 0.14088841 -0.0352035 -0.7477309 -0.039544955 0.08501915
-0.19502959 0.15722883 0.061052248 0.17695558 0.42912382 -0.1839966 -0.05823818 -0.34528324
0.6043905 -0.31481326 -0.422946 0.0150904395 -0.094449036 0.4951996 -0.35773203 -0.47871366
0.2302637 0.44447452 -0.3094547 0.22837454 -0.017367752 -0.07095043 -0.14693269 -0.22977847
-0.7146986 0.17994553 -0.07198675 -0.82050234 -0.061123062 0.501005 -0.021024395 0.20349781
0.13237958 -0.004543429 -0.2588074 -0.3338045 -0.32931477 0.07649113 -0.14735186 -0.14081453
-0.54997116 -0.21934962 0.4932683 -0.13673165 -0.10752802 -0.10961256 -0.0116833355 -0.18642554
-0.30161637 -0.118243076 0.19907397 -0.14272818 0.060642894 0.046238463 -0.20205027 0.46432018
0.32937688 -0.058526184 -0.4079491 -0.3527321 -0.19487025 0.47314543 0.2646189 -0.18589334
-0.15503393 0.021022411 -0.06579876 0.08033162 0.06661194 0.10669 0.49016348 -0.5214071
0.3404588 -0.33179826 -0.17956947 -0.7557872 0.00044723696 0.49753702 -0.043600846 0.050401356
0.12323657 0.4668414 -0.043360066 -0.13427421 -0.024658605 -0.12805466 0.018661043 -0.34509277
-0.6074061 0.112985134 0.43702316 0.23507865 0.10076628 -0.6210039 0.058506403 0.20134868
-0.37274188 -0.37853998 0.25766996 -0.51692617 0.26520556 -0.12883064 0.12273049 -0.10574534
-0.27510065 -0.15119839 -0.00863809 -0.20964414 -0.11320978 -0.18107237 -1.3213041 -0.84896904
0.6237157 -0.13349311 0.60513216 0.033629563 0.18526687 -0.14447115 -1.4354094 -0.2280884
-0.058691412 -0.00055662193 0.03595855 -0.29096282 -0.04861609 -0.47689041 -0.49708506 -0.36458337
0.25020424 -0.37517756 0.48524114 -0.31872788 0.36282155 -0.9697472 -0.52917314 0.2678418
-0.11004713 -0.10783419 0.2916876 0.19309899 -0.24300312 -0.008300298 -0.0029565096 -0.20004657
0.2478501 -0.6304129 0.15522283 0.0034433631 0.06406171 -0.36263376 -0.14185657 -0.1980497
0.016323363 0.23540282 0.08108372 -0.32578743 -0.15702173 -0.20092002 -0.35436097 -0.2620555
-0.1198 -0.44672763 0.08055283 -0.389107 0.45427608 -0.40406767 -0.71560735 0.14275654
0.19232397 0.31267592 0.011781787 -0.41046613 -0.21382134 -0.36931047 0.09092188 0.31757563
-0.06918669 0.15018573 -0.36700335 -0.3245992 0.09794993 -1.2752532 0.254777 0.38540757
-0.43143535 0.2986641 0.00046319622 -0.14151473 -0.29277083 0.089048445 0.17322433 -0.036439717
-0.24983111 0.17319967 -0.3076215 -0.17585784 0.014090171 0.28693557 0.06749028 0.13711977
0.07365927 -0.1449687 0.07692179 -0.3151662 -0.123470165 0.2804223 0.44253293 0.18897495
-0.15570882 -0.35168767 -0.2985365 -0.7813856 -0.11231599 0.34297645 0.5679382 -0.3533455

conv3.bias f4 [64]
00000000: 88cf 02be 72ac 8c3d 5f5f 81bf a8e7 02bf
00000010: b594 94bc 6dc0 34be 68d1 14bf 8eb2 21bf
00000020: 1d5a 9bbf 7cdc c03f 4ae9 5fbe eec9 08bf
00000030: ea91 9fbf ef22 3fbf 3a33 6dbf 095c 063f
00000040: fb76 24be cb02 f5be cf0d 393f 59dd 64bf
00000050: 44b0 6b3f 371f d2be f775 13be 7f4c 8bbe
00000060: be73 6bbc 6994 dfbe 3dee 19bf c4b2 bebd
00000070: 0708 1bbf 2bc2 0bbe ab0b 323d a703 02bf
00000080: 0b02 6bbf ccce 213e f5e5 a8bf 8ea8 8b3e
00000090: f2bb 633d 7b83 0ebf 0ce1 e8bd c572 8f3e
000000a0: f9ec 023f c851 e5bc 4fcf babe 2f2d a0be
000000b0: 864e b33f a338 40bf e19a dcbe 0cde 1fbf
000000c0: b8c5 14bf 0824 963e 0c30 29bf 00ec eebe
000000d0: 2cb9 a7be 5d18 ddbe a2a1 e13e a7dd e13d
000000e0: f18d 93be 169c 8ebf ee88 4dbf 0b3f 17bf
000000f0: f31e 36bf f115 33bf 4ff8 41be a2e0 ce3e
-0.1277448 0.06868829 -1.010723 -0.5113473 -0.018137315 -0.1765153 -0.5813203 -0.6316308
-1.2136875 1.5067286 -0.21866336 -0.5343312 -1.2466404 -0.7466268 -0.9265629 0.52484185
-0.16061012 -0.47853693 0.72286695 -0.8940025 0.92065835 -0.4103944 -0.14400469 -0.272068
-0.014370857 -0.43667915 -0.6012915 -0.093114406 -0.60559124 -0.13648288 0.04346816 -0.50786823
-0.9179999 0.15801543 -1.3195177 0.27277035 0.05559916 -0.55669373 -0.11371049 0.2801725
0.5114284 -0.027993098 -0.3648629 -0.31284472 1.4008338 -0.7508642 -0.43086913 -0.6244819
-0.58114195 0.29324365 -0.6608894 -0.4666443 -0.32758462 -0.4318265 0.4406863 0.11028605
-0.2881923 -1.1141384 -0.80287063 -0.5908057 -0.71140975 -0.69955355 -0.18942378 0.40405756

conv3.weight f4 [64, 3, 3, 32]
00000000: 1ff1 8b3e 0eae 2e3e e5d7 51be 0f27 103f
00000010: edee ba3e 2d1b 66bd 2567 8f3e 3e7b 7bbd
00000020: d34b e53e 2cb1 11be 503c e63c a55c 693e
00000030: 90a0 87be 26e2 a03e c359 d9bd e48f ed3e
00000040: 55be ea3c 785c ec3e 2edd 12bf 8f83 683e
00000050: 1fc0 8f3d 520f c23d 41d6 02bf 794f 29be
00000060: 6188 acbe b65a 02bf b6d1 10bd 3585 c73d
00000070: dcf6 e13e beae 223f 5078 a0be 82a7 69be
00000080: 7886 4fbf 2245 f4be 6541 873e 804e 24bd
00000090: 311e 523e 298f 0a3e 66f8 ccbd 4adb 6b3e
000000a0: 6d1b 723f 37d0 9ebe af16 da3e 2100 5dbe
000000b0: 9147 80be b159 1abf acfc 7abe 67d0 fdbe
000000c0: 5de2 39be 745e 04bf 7f19 0d3f 53a3 f4be
000000d0: 711b c3bd cba1 a83d fa41 d23e 03e4 5b3d
000000e0: 6347 d8bd e2ff 89be 6cd7 8cbe 6c14 af3c
000000f0: 20d1 55be cf3c 4a3e 9984 763e 3be8 d3bc
00000100: 10bc ed3d 652f 283e 20b5 fe3d 51f4 e43e
00000110: 3389 4a3e d37d 1c3e d43f 4bbe 1dd4 8bbe
00000120: 4e58 833e ce4a 1ebe 7c0f 03bf cc52 843e
00000130: 91e9 73bd dd8a 5f3e 6aa3 113e d376 423e
00000140: 8196 9dbc 5dc8 45bf 5745 1abf ab04 de3c
00000150: 3168 7cbe a6c5 04be 943c 693e 3940 03be
00000160: 15c9 053e bfc8 4c3e d42b 83be accd 373e
00000170: 4341 46bd ca74 a1be 8ccd e7bd 3a63 8cbd
00000180: 55e6 75be d93b 72be 84a6 8bbe fa9f c73e
00000190: db9d 413f df45 013d ec43 093e 103d e73d
000001a0: 5901 acbe de9a 12be aa81 053e 7c8d bb3e
000001b0: c61e da3e 1092 093f f5bb 6f3e b6d7 c73d
000001c0: f21c d6be aa01 153e b4f1 91be 39f1 823f
000001d0: 74bb 853d 18c9 26be 1712 94bf 6e23 1c3c
000001e0: 1e01 8cbe e7e9 5dbe 4697 243f 8873 853d
000001f0: 45af 9e3e 55d7 9b3b ad6a adbe d4a3 ec3e
00000200: 21d1 0dbf d566 ffbd 6143 003e 11cd ac3e
00000210: 708a 5d3e 6e56 40be 1ea8 e1bd 36b9 823d
00000220: 1cc2 993d ce3c c5be d74f 8e3e a2cc cfbe
00000230: db32 0fbe 7b72 783e 854b 17bf 5db8 6e3d
00000240: 73bd f1bd 82ee f73d 84a7 d43e 7db4 66be
00000250: 69bf cd3e a017 083e 504a 6bbc 1dc2 c63d
00000260: afbc 943d 2d8b 29bf 4dde 193f ad0c 81be
00000270: 8dc5 743e b644 fa3e 566f e2be 16d3 bd39
00000280: 2fd1 093f 768c eabe 655a 123e b907 84be
00000290: 3d7f d53d 7cda b33e 5dae 9b3d 01bd 37be
000002a0: 4f48 d5be c8a0 51be a74b 25bf 04db f63e
000002b0: 0511 bf3d 873c a33e 6f1f ef3d 3892 9dbe
000002c0: aae6 303e 1929 8a3d c880 f2bc 83f7 2fbd
000002d0: 677a 383e 75d7 86bc 717c 25be 8405 a03e
000002e0: 147a d03d 0bd1 fd3c abe0 2ebe a2c0 5d3d
000002f0: a093 88be 531b f4be 53df 03bf 51ef 03bf
00000300: 97d3 233d 792e 413d 59ac 2bbf 842b e6bd
00000310: 06c7 9bbc 485c 9b3e d13a 06bf 20f4 f6bd
00000320: 5285 62bd fe59 113e 459c 6f3d d6de 45bd
00000330: 71cf 0f3e 0649 a3be 2b74 10be 03e8 593e
00000340: bccc 033d 0c01 a8bf 32a7 91bf b54a 923f
00000350: 7dc9 b4bf 696a e33e 9cf8 1a3f 71cb b2bf
00000360: 8f7d 613e 58f4 d9be b7ac 0e3f 12c7 6fbf
00000370: cddb 03be 39e9 cb3d 0bd1 04bf 72bc 453d
00000380: 75f3 22bf ab40 a93b f6d7 19bf 2cc4 9c3e
00000390: e47d c9bd 7976 9c3e 15b2 68be 36c7 04bf
000003a0: 9f12 d73e 4e33 3a3e d2f9 bf3e cbdb 12bf
000003b0: 104e c83e 68be abbf 6876 efbe ca71 e9bd
000003c0: 80d1 dcbe c2e6 b4bd 8d24 283b 9d22 54be
000003d0: 2320 09bf d19e 913d c1ae 6a3d e48e 9dbe
000003e0: c0b1 bcbe 4fa3 9fbf a0b5 d03e 906f 21bf
000003f0: e869 cc3d 5afe 9d3e 6a2b a1be 76ea ac3e
0.27332398 0.17058584 -0.20492513 0.563096 0.3651041 -0.05617826 0.2800838 -0.06139683
0.44784412 -0.14227742 0.028104931 0.22789247 -0.26489687 0.31422538 -0.10612824 0.46398842
0.02865521 0.46164298 -0.57368743 0.22706436 0.07019066 0.09475578 -0.51108176 -0.16534223
-0.336978 -0.50919664 -0.035356246 0.09742204 0.4413365 0.63547885 -0.3134179 -0.22817805
-0.8106456 -0.47708994 0.2641708 -0.040113926 0.2051933 0.13531174 -0.10008316 0.23032871
0.945731 -0.3101823 0.4259543 -0.2158208 -0.250546 -0.6029311 -0.24510449 -0.4957306
-0.18152757 -0.51706624 0.5511703 -0.47780856 -0.095267184 0.082339846 0.4106596 0.053684246
-0.10560491 -0.26953036 -0.27508104 0.021372043 -0.20880556 0.19749759 0.2407402 -0.025867572
0.11608136 0.1642433 0.124368906 0.4471765 0.197789 0.15282373 -0.19848567 -0.27310267
0.2565331 -0.15458223 -0.511955 0.2584442 -0.05954892 0.21830316 0.14222494 0.1899064
-0.019236805 -0.77258855 -0.60262054 0.027101835 -0.24649121 -0.12966022 0.22777015 -0.12817468
0.13064988 0.19998454 -0.25619376 0.17949551 -0.048402082 -0.31534415 -0.11318502 -0.068548635
-0.24013646 -0.23655643 -0.2727548 0.3898924 0.75631493 0.031560775 0.13404816 0.112909436
-0.33594778 -0.1431689 0.13037744 0.36631382 0.42601603 0.537385 0.23411544 0.097579405
-0.4181896 0.14551416 -0.28504717 1.0229865 0.065298945 -0.16287649 -1.156802 0.0095299315
-0.27344602 -0.21671258 0.64293325 0.065161765 0.30993095 0.004755894 -0.3387045 0.4621874
-0.5539723 -0.124707855 0.12525703 0.33750203 0.21634841 -0.1878297 -0.11018394 0.063829824
0.075077266 -0.38522953 0.27795288 -0.4058581 -0.13984244 0.24262421 -0.5909961 0.05828129
-0.11803713 0.12106039 0.41534054 -0.22529788 0.40185097 0.13290262 -0.014360979 0.09704993
0.07262551 -0.6622799 0.6010483 -0.25204983 0.23903485 0.48880547 -0.44225568 0.0003620616
0.53834814 -0.45810288 0.14292295 -0.25787142 0.104246594 0.35127628 0.076016165 -0.17943193
-0.4165673 -0.2047149 -0.6456856 0.4821397 0.09329418 0.31882116 0.11675917 -0.3077562
0.17275491 0.0674612 -0.029602423 -0.042960655 0.18015443 -0.01646016 -0.16160752 0.31254208
0.101795346 0.030983469 -0.17077892 0.054138787 -0.2667513 -0.47677097 -0.5151264 -0.5153704
0.03999671 0.04716346 -0.67059857 -0.11238769 -0.0190158 0.30343843 -0.52433497 -0.12058282
-0.055302925 0.14194486 0.05849864 -0.048308216 0.14043976 -0.3189165 -0.14106815 0.21279912
0.03217767 -1.312532 -1.1379149 1.1429049 -1.4123989 0.44417122 0.605356 -1.3968335
0.22020553 -0.42569232 0.5573229 -0.9366313 -0.12876816 0.09956593 -0.51881474 0.04827542
-0.63652736 0.0051651797 -0.60095155 0.30618417 -0.09838465 0.30559137 -0.22724183 -0.5186647
0.42006394 0.18183634 0.37495285 -0.5736663 0.39122057 -1.3417482 -0.46770024 -0.11398657
-0.43128586 -0.08833076 0.0025656552 -0.20716329 -0.5356466 0.0711037 0.057295565 -0.3077308
-0.36854362 -1.2471713 0.4076357 -0.63060856 0.099811375 0.30858117 -0.31478435 0.3377263

fc1.bias f4 [128]
00000000: 4ece 5ebf 6533 883e bfa6 933d d688 a7be
00000010: 3686 47bd 2216 9dbd b2d7 67be c3cd bebe
00000020: 20a7 ffbe f216 90be 853f b3bc 1dc0 ecbe
00000030: 2920 bebd 05bf b7be 4eec 71be 4e8e 33be
00000040: 407b 15bf e9b3 a5be 0473 76be f9f5 81be
00000050: 0e59 52bd 27a9 3abf 27d7 51be e54d b6bd
00000060: 253e c1be 5336 21bf a758 b4be faa2 173f
00000070: c79f a1be 485a 93be 289e 0bbf cf05 233f
00000080: 418a 83be f6f7 8dbe 980a dbbc 5761 8cbe
00000090: acd3 8dbe 1ffb 19bf 5710 0b3f 9c6d e7bb
000000a0: c4e2 a9be 3821 a2be 97d0 c8be b4fb 483e
000000b0: d069 a5be 40b9 00bf 23d9 63be 7733 ebbe
000000c0: 5ffc 3abe 68bf acbe 6a63 60be a821 e8be
000000d0: 9409 93be 4cd6 0ebf ff91 efbe f95b 8abe
000000e0: 9fcb abbe c662 84be 0e30 81bd b4de 01bf
000000f0: 122a 9ebe 0c6a 0c3e 3971 4cbe 784a 93be
00000100: 9240 96be 4a65 a9be b2df 03bf b004 fe3e
00000110: 87fe 60be 3ae5 09bf 0dcc b13e 140e 8dbe
00000120: c471 3ebc d5f1 3dbd f96b f0be 851d 413e
00000130: eb28 a8be 20cc cdbe 0a22 d8be 3173 69be
00000140: f75d 9abe 39da 04bf 2b64 94be 3d9d 0a3f
00000150: 2dbe 85bd b8c5 a2bc a574 a9be e789 30bd
00000160: eec6 f8bc d533 44bf 6233 d4bd af23 81bd
00000170: d9af a7be 83c9 b6be fe8a e8be 4b4f 04be
00000180: 3955 05bc 0aba d4be 20ba 673e 6023 9fbc
00000190: 34da e4be 354f b9be 7ad2 cebe 9752 99be
000001a0: 6f81 14bf 3228 95be 2608 a5bd 0123 d0be
000001b0: 192d 5fbf 0d2c 14bf c561 52be c3a1 bdbe
000001c0: 1431 93be dcf1 5abc de9c 12bf a045 0ebd
000001d0: ce04 d9be e458 64be 2d8c 73be 591a fabe
000001e0: e67d 79bd b428 debe 795f 713e 578f a9be
000001f0: 5737 afbe 1f39 29bf 929d 89be dc7f c7be
-0.87033546 0.2660171 0.07209539 -0.32721585 -0.048711978 -0.07670237 -0.22640875 -0.3726636
-0.49932194 -0.28142506 -0.021880874 -0.4624032 -0.09283478 -0.35887924 -0.236253 -0.17534754
-0.5839119 -0.32363823 -0.24067312 -0.25382975 -0.05135446 -0.72914356 -0.2049223 -0.08901576
-0.37742725 -0.6297352 -0.35223886 0.5923306 -0.31567213 -0.28779817 -0.545382 0.6368074
-0.25691417 -0.27728242 -0.02673845 -0.27418014 -0.27700555 -0.60148805 0.5432181 -0.007062627
-0.3318082 -0.3166597 -0.3922164 0.19627267 -0.3230729 -0.5028267 -0.222508 -0.45937702
-0.18260334 -0.3373978 -0.21912923 -0.45338178 -0.28718245 -0.5579574 -0.46791074 -0.27023295
-0.33553788 -0.25856608 -0.06307994 -0.50730443 -0.30891472 0.13712329 -0.19965066 -0.28767753
-0.29346138 -0.3308509 -0.51513207 0.4961295 -0.21972094 -0.53865397 0.3472599 -0.27549803
-0.0116238035 -0.046373207 -0.46957377 0.18858917 -0.32843718 -0.40194798 -0.4221347 -0.22797848
-0.30149814 -0.5189548 -0.28982672 0.54146177 -0.06530414 -0.01986967 -0.33096805 -0.043100264
-0.030368295 -0.7664159 -0.10361363 -0.06305634 -0.3275135 -0.35700616 -0.45418543 -0.12920873
-0.008137994 -0.41548187 0.22629595 -0.019426048 -0.44697726 -0.36193243 -0.40394956 -0.29945824
-0.5801 -0.2913223 -0.08058195 -0.40651706 -0.8717819 -0.57879716 -0.20545109 -0.37037477
-0.2874838 -0.013363328 -0.5727061 -0.03473437 -0.42386478 -0.22299534 -0.23783942 -0.48848227
-0.06091108 -0.4339043 0.23571576 -0.33117172 -0.34221908 -0.66102785 -0.2687803 -0.38964736

fc1.weight f4 [128, 1024]
00000000: 45f9 933f 1237 613f 1201 ba3f 905d e23f
00000010: c726 25bf 73ac 8b3f d30a bb3e 3546 4d3f
00000020: 4874 493f 39c0 1a3d dca6 9b3f 01ab 813f
00000030: 1c07 9b3f 71a9 973f 0ee2 bb3f da1a be3f
00000040: 593f 0340 60d1 863f ce53 0e3f 4fbb dc3e
00000050: ec09 f83d 4758 703e d0e0 b03f 321b 573f
00000060: 0858 ba3e ec1d 843f 757b 9d3e 1bbf d03f
00000070: 262b e83f 7106 b13f e755 9c3f 0634 103f
00000080: 89ea c03e 9cee 373f c6ec 833f f598 203d
00000090: c07f 593f 700b 8b3f b1a2 af3f f9c3 f63f
000000a0: ead9 c53f 9eff 833f a91d 853f a7c8 813f
000000b0: 574e e93f 3024 0140 9e0f 1d3f 67a2 853f
000000c0: fbae 503f ed4c 943f 1134 09be 65eb 0540
000000d0: e271 9d3f 71b4 9f3e 03e9 07be 5491 a93d
000000e0: 3933 7f3f 22ce 9c3f b4b2 fe3e ea7e ce3f
000000f0: a248 9f3e dbf4 a73f d7f6 40be f87a 13be
00000100: 4cd1 15bf 00fe 383f 8803 e23f 6cde be3f
00000110: 4efb 043e 3fd3 fa3f a3dc 0440 655d be3f
00000120: ad3b 0e40 56a8 c4bd 34ec 9b3f f90d 1a40
00000130: fdd1 a13f 2cd6 363f 5804 bf3f 0a73 743f
00000140: daf8 e43f 2668 d63e 7e6c cdbe 9c7d 2b3f
00000150: 468f 053f 97e4 d73d a9e4 943f e3eb c93f
00000160: f7cf 453f c606 183f 9e81 e73f 1462 e43e
00000170: f05c b73f c362 053d f2c3 083f 7e25 b63f
00000180: 6869 bd3f 1060 b23f a1fc 4b40 e73e d43d
00000190: 11eb 343f 5988 823f 50e6 a23e 4318 333e
000001a0: c138 923f 9700 293f 0639 883f 3ee8 983f
000001b0: 8b4d 3e40 9d06 1240 69d9 ffbe d64a 2140
000001c0: 062f 9cbd f912 76bf 1999 3f3e 714f f93f
000001d0: 0b3f 543f 6f26 533f 3a9e 4fbc 6d27 c6bd
000001e0: 8a54 3d3f 9a1a 8c3f c3cf e33f 3887 603f
000001f0: e7a0 e13f 1aee a33f 87aa 143f ab71 793f
00000200: e67d 2ebe 0325 9e3f 14c2 df3f bfe9 da3e
00000210: acee 8ebf 4866 b73f 5c38 b83f 657a 773f
00000220: 30b6 5a40 7d45 afbe 28a4 f33f 979b df3f
00000230: b7d6 e53f b51f 613f 9362 1d40 6380 c63d
00000240: f649 f23f 52ce ff3d a604 1a3d 37ba 093f
00000250: 057c e93e 9294 9dbf c068 8b3f 1c7a e03f
00000260: e47c 073e d81a ee3e a9d0 d93f 95e5 b23f
00000270: 7905 0040 e376 b13f 88b6 213f 03cd 983f
00000280: f997 1840 98c0 2a3f 947a 1240 03e2 823f
00000290: 1116 b13f 44bb 413f ad44 203f 0528 f13d
000002a0: f1bf f93e 22ff 63be 6e96 083f 0430 073d
000002b0: 9dff 1340 d628 3e40 76f1 a13f 09a5 5240
000002c0: d9a5 ffbe 94eb b73e 74af e03e dbbe da3f
000002d0: afbf 4f3f cb6e d4be dce4 04bf 266c 953e
000002e0: 08af fe3f a3ff fe3f 57a1 a93f f60d 263f
000002f0: 967d fa3f fb8c 793f 00ab 45be fda4 823f
00000300: 1502 013f c906 c73f 9a7e ec3f cf2b 6c3e
00000310: 32d7 cebe d109 7a3f efad 2740 d497 b73f
00000320: c55b 523f d8ec ee3e 43bc 233f fab3 9d3f
00000330: 9bf2 793f 2f92 ad3f d604 823f 2523 dc3f
00000340: 00af be3f 0850 933f 4612 db3e 05f9 0d3f
00000350: 47c0 67bd 3d6b 4b3f 998f a23f a3a4 7a3f
00000360: 396d fc3e b3e7 b83f a255 273f ca00 f33f
00000370: ac2d 0440 5c49 7d3f 318d 543f f396 fe3e
00000380: 2908 b83f cdd3 a93f 0b14 2f40 67c3 0b40
00000390: e1f3 993d 27f2 1d3e 7150 a03f cca1 1a40
000003a0: f34d 913f 1856 a43e c712 693f 6151 ac3f
000003b0: 328f f03f 0be7 f33f 3b9c 4d3e 2ef1 ce3f
000003c0: ee2b 803f cc4d f6be eb49 ebbe 543f 273f
000003d0: 6749 a43f d35b ae3f b55f 14bd ac7a 8a3f
000003e0: a6ca bd3f f00e 273f 1879 ea3f def6 b13f
000003f0: 3014 983f beb8 0640 dfc8 c53f a126 a03f
1.1560446 0.87974656 1.4531577 1.7684803 -0.64512295 1.0912002 0.36531696 0.8018525
0.78693056 0.037780974 1.2160296 1.0130311 1.2111545 1.1848584 1.4678361 1.4851944
2.0507414 1.0532646 0.55596626 0.43111655 0.121112674 0.23471175 1.3818607 0.8402587
0.36395288 1.0321631 0.30758253 1.6308321 1.8138168 1.3830091 1.2213715 0.5632938
0.37678936 0.71848464 1.0306633 0.03920837 0.84960556 1.0862865 1.3721524 1.9278556
1.5457127 1.0312383 1.0399677 1.0139359 1.8227032 2.0178337 0.61351955 1.0440186
0.81517 1.1585976 -0.13398768 2.0924923 1.2300379 0.31192353 -0.1327248 0.08279672
0.99687535 1.2250407 0.49745715 1.6132481 0.31110102 1.3121599 -0.18844162 -0.14402378
-0.58522487 0.72262573 1.7657328 1.4911628 0.1298649 1.9595717 2.0759666 1.4872252
2.2223923 -0.0960242 1.2181458 2.4071028 1.2642208 0.7142055 1.4923201 0.95488036
1.7888443 0.41876334 -0.40121835 0.6698854 0.5217174 0.10541647 1.1632282 1.5775112
0.77270454 0.59385335 1.8086431 0.44606078 1.4325237 0.03256489 0.5342399 1.4230192
1.4797792 1.3935566 3.1872942 0.1036356 0.7067118 1.019786 0.3181634 0.17489724
1.142357 0.66016525 1.0642402 1.1945875 2.9734828 2.2816536 -0.49970558 2.5201926
-0.076261565 -0.961227 0.18710746 1.9477369 0.82908696 0.8248052 -0.0126720015 -0.096754886
0.7395712 1.0945618 1.7797779 0.8770633 1.7627228 1.2807038 0.58072704 0.9743907
-0.17040214 1.2355045 1.7481103 0.4275646 -1.1166587 1.4328089 1.43922 0.96671134
3.4173698 -0.34232703 1.9034472 1.7469357 1.7956151 0.87939006 2.4591415 0.096924566
1.8928821 0.12490524 0.03760209 0.53799766 0.45602432 -1.2310965 1.0891342 1.7537265
0.13231236 0.46504855 1.7016803 1.3976313 2.000334 1.3864406 0.63169146 1.1937565
2.3842757 0.66700125 2.2887316 1.0225223 1.3834859 0.7567637 0.6260479 0.11775211
0.48779252 -0.22265294 0.5335454 0.033004776 2.3124764 2.9712424 1.2651813 3.291323
-0.4993122 0.3592192 0.4388386 1.7089494 0.8115186 -0.41490778 -0.5191171 0.29184073
1.9897165 1.9921764 1.3252362 0.6486505 1.9569576 0.97480744 -0.19303513 1.02066
0.503938 1.5548946 1.8476136 0.23063587 -0.40398556 0.9767123 2.619991 1.4343209
0.8217128 0.46665072 0.6395914 1.232055 0.9763581 1.3560237 1.0157726 1.7198225
1.4897156 1.1508799 0.4278738 0.554581 -0.056579854 0.7946051 1.2700073 0.97907466
0.4930208 1.4445709 0.6536504 1.8984616 2.0652876 0.9894006 0.8302794 0.4972454
1.437749 1.3267761 2.7355983 2.1838014 0.07517219 0.15424405 1.2524549 2.4161253
1.1351913 0.32096934 0.91044277 1.3462335 1.87937 1.9054884 0.20079128 1.6167352
1.0013406 -0.4810623 -0.45954832 0.65331006 1.2834901 1.3621773 -0.036224086 1.0818686
1.4827468 0.6525717 1.8318205 1.3903463 1.1881161 2.1050258 1.5451926 1.2511789

fc2.bias f4 [2]
00000000: 8621 c53f 230a cabf
1.5400856 -1.5784343

fc2.weight f4 [2, 128]
00000000: 24dc 43bc 6db1 923c a9e9 103d b651 5ebc
00000010: ea05 e23b dd8a 9ebc 71b6 67bd 36cd 543c
00000020: 8117 8c3c 1872 37bd b444 a13b 582b ae3c
00000030: dc85 a1bd 72e2 bcbb 3413 8dbd c28c 2c3c
00000040: e5b7 03bc b201 6fbd 41e3 8c3c 080c 5f3c
00000050: 73a6 a83b 43e7 753c 867e a43b c313 6ebb
00000060: 25c0 febc 0e96 933c 6318 96bc 6f82 713d
00000070: 06c0 01bd 7e66 cfba 7ec9 0cbd 8dd4 863b
00000080: 36a6 f6bc 154e 86bb 7042 0d3d 2ba1 9e3c
00000090: 7789 61bc 1609 1a3d cdf4 81bc 4212 f73c
000000a0: 25f6 2d3c 2114 43bd 4353 39ba 4c22 4e3d
000000b0: e725 a3bd 1fe4 7abd e32b ccbc 871f afbc
000000c0: 4cce 10bd e5b1 a63c 34c5 bcbc ab71 4abc
000000d0: 73c3 a8bc f82c 5f3c 9895 babc 7bda 91bd
000000e0: 620d f1bb 9d68 17bd 6d45 583d f6b1 113d
000000f0: 4cbc e2bc 0b94 f83c 5b3a 39bc 068b 35bc
00000100: c995 e6ba 9e88 f8bc bd80 c23b 47ed ef3c
00000110: 775d eabc 4f9a a73b 72fe 8ebc ab42 233d
00000120: c61f f73c 7519 873c 0081 503b 476b 363d
00000130: 85ee 54bd 48e3 cbbc df23 9f3c 75b2 e1bb
00000140: dfd6 a6bc 9f01 15bd 90bb f7bc 715c e8bc
00000150: c1c1 96bb 08ba 4c3d 6b0d 77bc 8174 1d3a
00000160: 63d0 9f3c a946 4d3c b44a 623d 4781 5b3d
00000170: b2e8 193d 134f 303d 984e e9bc b33f c1bc
00000180: caf1 c13c fa53 f33b 7a50 b33c 76bc 91bd
00000190: de62 f1bc 3918 1b3b 8531 4fbd a451 55bd
000001a0: 6271 693c 1c31 e9bc 9b8e b5bc 789c 123c
000001b0: e13a 3c3d efdb 793b 2329 bdbc feed d0bc
000001c0: d347 6cbb 3fb6 0b3d 1790 c6bc 5d74 c4bc
000001d0: 727a 473c e081 9f3c 0ee8 f3bb 9b88 0ebc
000001e0: c3d0 8f3c 3bb7 be3b fe3e 973c 26c8 3b3b
000001f0: 1357 5bbd 9ef8 02bd 2c92 25bd 1334 05bc
00000200: 53ea d0bc 8bf6 1b3c ab1e a53c 0c52 073d
00000210: 2cd6 043d 6fa5 b2bc 8ced 44bc 1325 14bc
00000220: 320c 383c dbf6 da3c 44c6 303d 2d16 93bb
00000230: 5fc6 debc 823c 9d3d dc7d 31bc 6989 3b3d
00000240: 19a1 c8bc eabc d63c 1cc8 553d ecc0 a53d
00000250: 0e1f 1ebd 016e 01bb 30fd a43d 32b5 1d3d
00000260: 6039 78bb 16f0 1abc 84e1 3a3d 8203 143d
00000270: b7ba 513c 4de8 9a3d 15fe af3c aae8 9abc
00000280: c810 043d c184 403d 2945 4a3d 342f 45bc
00000290: cdff 463d c024 90bd 8ff7 10bd 6680 1ebd
000002a0: f6dc 003d e90b aa3c ba4b 3e3d c795 a53c
000002b0: 2b9c b3bb 9738 a83a 9598 9b3c 39db f13c
000002c0: 80f9 163d cea8 5a3d 4d99 f1bc a5a6 083d
000002d0: ebcc 28bd c511 95bc 0848 443d 8680 753b
000002e0: b1ab b9bc 106b 5c3c e842 ab3c f9e2 333b
000002f0: fad2 443d f739 333b 773e 243d 4f8c 2b3d
00000300: ce06 3d3d 6196 683c 5700 efbb 6054 7e3b
00000310: 24e9 093d eb06 5d3b bf89 14bd 6cb8 0fbc
00000320: e58b 043c cd6f b33b f705 31bc dbde cf3c
00000330: 8697 8c3c 7390 153d 85f6 593c ab24 833d
00000340: 875c 5c3c c92c 21bd a9e9 ac3c 1e94 4bbd
00000350: 4b05 2d3c d60a ee3b b842 cb3c 5a6c 023a
00000360: 747e 533c 6d27 31bc a09c 943c 0c82 ec3c
00000370: 5062 333c a8d0 dabc caf3 943c be0d 263d
00000380: 3d5e 993c f671 42bc c9b8 a23b bdcf e4bc
00000390: dabf 953c 55fe a03d 8e79 f6bc 4ed0 e43c
000003a0: 7078 d63a a1e8 083d 09ce 1d3d 8c57 59bc
000003b0: 5deb 3f3c c981 23bc cb09 f73c 3ca4 9f3c
000003c0: 7760 2e3d 95f3 0abd 262b 40bd b616 213d
000003d0: 9e6a 163c f492 6e3d ec25 463d 181c 6f3d
000003e0: fe31 02bb 2203 963c 01f7 2cbc bd1b 1d3d
000003f0: 2d4b af3c 658d 5bbd c8b5 343d a18f 383d
-0.011954341 0.017906869 0.035379086 -0.013569286 0.0068976777 -0.019353325 -0.056570474 0.012988379
0.017101051 -0.044786543 0.00492152 0.021260902 -0.0788686 -0.005764299 -0.06888428 0.010531606
-0.008039449 -0.058351226 0.017198207 0.013613708 0.0051467954 0.01500875 0.0050199656 -0.0036327697
-0.031097481 0.018015888 -0.018322175 0.05896228 -0.03167727 -0.0015823392 -0.034371845 0.0041146935
-0.030108552 -0.0040986636 0.034487188 0.01936396 -0.013765684 0.03760632 -0.0158638 0.030160073
0.010617767 -0.04762662 -0.0007069597 0.050325677 -0.07966214 -0.06125271 -0.02492327 -0.021377338
-0.03535299 0.020348499 -0.023043253 -0.012356202 -0.02060101 0.013621561 -0.02277641 -0.0712175
-0.0073563317 -0.036965 0.052800585 0.035570107 -0.027677678 0.03034403 -0.011305417 -0.011080509
-0.0017592247 -0.030338582 0.005935757 0.029287947 -0.02860902 0.0051148306 -0.017455313 0.0398585
0.030166518 0.016491631 0.0031815171 0.0445359 -0.051985282 -0.02488865 0.019426284 -0.006887729
-0.02036613 -0.0363785 -0.030240804 -0.028364392 -0.004600734 0.0499821 -0.015078883 0.0006006435
0.019508546 0.012529054 0.055247024 0.053590085 0.03757543 0.04304416 -0.02847986 -0.023589944
0.023674864 0.0074257823 0.02188896 -0.07116024 -0.029466089 0.002366556 -0.050584335 -0.05207981
0.014248224 -0.0284658 -0.022162726 0.008948438 0.04595459 0.0038125475 -0.023090905 -0.025504109
-0.0036053553 0.03410935 -0.02423863 -0.023981268 0.012175189 0.019471109 -0.0074434346 -0.0086995615
0.0175556 0.0058201826 0.018462654 0.0028653233 -0.053549837 -0.03197538 -0.040422603 -0.008130091
-0.02550236 0.00951923 0.020156225 0.03303723 0.032430813 -0.0218074 -0.012019526 -0.009042042
0.011233376 0.026729038 0.04315783 -0.0044887275 -0.0271942 0.076775566 -0.01083323 0.04578534
-0.02449088 0.026213128 0.052192792 0.080934376 -0.038603835 -0.0019749405 0.08056104 0.03850288
-0.0037875995 -0.009456655 0.045625225 0.036136158 0.012800864 0.07563839 0.02148346 -0.018909771
0.032242566 0.047001604 0.049382363 -0.01203518 0.048583794 -0.070382595 -0.03539234 -0.03869667
0.031460725 0.020757632 0.046458937 0.020213021 -0.005481263 0.0012834248 0.018993655 0.029523479
0.036859035 0.05338364 -0.029492045 0.03336205 -0.04121105 -0.01819695 0.047920257 0.003746064
-0.022664877 0.01345326 0.020905927 0.0027448519 0.048052765 0.0027347782 0.040098634 0.041881856
0.046149068 0.014196009 -0.0072937417 0.0038807616 0.033669606 0.0033726047 -0.036264177 -0.008771997
0.008089994 0.005475974 -0.010804645 0.02537482 0.017162096 0.03651471 0.013303404 0.06403478
0.013449795 -0.03934935 0.021107512 -0.049701802 0.010560344 0.0072644753 0.024812087 0.0004975252
0.012908567 -0.0108126225 0.01814109 0.028870605 0.0109487325 -0.026710823 0.018182654 0.04054045
0.018721694 -0.011867991 0.0049658758 -0.027931089 0.018279959 0.0786101 -0.030087259 0.027931359
0.0016362797 0.033424977 0.03852657 -0.013265502 0.01171383 -0.009979674 0.030156037 0.019487493
0.042572465 -0.033923704 -0.04691615 0.0393283 0.009180693 0.058245614 0.04837601 0.0583764
-0.0019866223 0.01831204 -0.010556937 0.03835653 0.021398151 -0.05360164 0.044118673 0.04505885
