src/chess_cv/weights/snap.safetensors (safetensors, 620937 bytes, 10 tensors)

conv1.bias f4 [16]
00000000: cd0a 3e3d 648c 94bd f3c9 8fbf 3ac3 8fba
00000010: 84f3 5a3e 0a04 cbbc 8640 a5bd 767b 00be
00000020: 6b0c 253e 3a42 533d f22c 453e fb00 1e3f
00000030: 62f2 b2bd e4a8 7a3e 46f4 cdbe 0adf acbe
0.04639702 -0.0725334 -1.1233505 -0.0010968216 0.21381956 -0.0247822 -0.080689475 -0.12547097
0.16118018 0.05157683 0.19255427 0.61720246 -0.08737637 0.24478489 -0.40225428 -0.33763915

conv1.weight f4 [16, 3, 3, 3]
00000000: 47a0 973e 0aee fb3d 69c3 863e bafe a0be
00000010: 724b 46be 66e7 5d3e 4330 fbbe 19ff 9abe
00000020: 6109 d23e 447d d93c 4c38 bdbd a206 a5bc
00000030: 85b2 1bbf f23b 01bf c32e 253c e87f 7ebf
00000040: 1d2f 8cbf e21f d1bd ad94 de3e ab1c a13e
00000050: d022 5a3e 65be 8dbe f7af 62be 64f0 a23d
00000060: 587d 523e 6bdd 9c3e 2739 c63e 56e0 363d
00000070: 6199 a03c 6793 87bc 66d4 233d 9074 ee3c
00000080: 95f1 15bd cb30 47bc d19f 2fbc 6b2c ddbc
00000090: 49da d8bd 129a 30be 0b56 c7be 3699 6bbe
000000a0: 2892 aabe 7436 febe 9f23 85be e212 c4be
000000b0: 31f5 01bf b243 503d a568 3a3e 7f73 c83e
000000c0: 3400 5b3e f002 933e 0e50 0e3f 9e80 5b3e
000000d0: 8ded a93e 1cf1 153f 7398 3c3e 5ff7 593d
000000e0: 2b1d 87bc edce 983e 831f 843d c919 c5bb
000000f0: c716 723e 5b8f e83d 6234 b33d be3e 403e
00000100: c1d2 3a3e 8c2a 5bbd fd60 8a3e 4fd5 393e
00000110: 4081 e7bd 6440 7b3e f569 3d3e bce7 863c
00000120: 234a 833d bfff 40bd 5018 01be d08e 3e3e
00000130: b31c b0bc 975b 2bbe a2e0 ed3d e1d3 8bbb
00000140: 0a73 02be 708f a23e a938 803e 1caf bc3e
00000150: a7d1 a93e 0e72 a63e 3110 b93e d374 36bf
00000160: 0f02 28bf 93a9 28bf 64ba a63b 6622 853d
00000170: 1149 fb3d 52a5 03be c39e 07be 4842 46be
00000180: b760 7cbb d0fa 673d 8ea0 2a3d 4f22 2abe
00000190: 4d12 4dbe 232e 73be 51ad 45bd 7e29 d6bc
000001a0: cf07 b8bd 2fe9 5e3e 2991 7a3e 8479 c03d
000001b0: df2b c53c e1df 8e3d c4ed 96bd ffc8 833e
000001c0: d318 eb3d eed6 843d a6a6 f7be 3c47 cebe
000001d0: b33a 2bbf 8f20 a1be faab 90be 2c9b 83be
000001e0: 3ff0 cabd 41f7 03be 602f 21be e765 9f3e
000001f0: 5443 9b3e 185e 913e 0ae1 b13d e539 243d
00000200: e12b 483e bd4d 96be c38e 8ebe dd65 9abe
00000210: 9a34 393d 546f 89bd a96f 65bc 6bae e93e
00000220: 6ab2 cc3e 6323 9c3e d019 2dbf 6779 26bf
00000230: 0851 f9be ffad 223e ff34 283e 94a4 af3c
00000240: fc99 2fbe 0559 2ebe 48b7 24be fc81 113d
00000250: 3181 e1bc 62b4 d93d 559e c83d b9e5 943d
00000260: 07ef 3e3d 1b63 5bbe 46d2 3dbe 9ccb 69be
00000270: bb59 ce3e fc48 be3e f04a a83e cb32 01be
00000280: 9b85 c7bd 1d05 10be 1842 97bd a973 233d
00000290: 7a47 363e f956 133c 51df c93c 66fb 8c3d
000002a0: 79ce 69bd ed45 103d 41f6 ed3d 8a38 243e
000002b0: 0ef3 393e 6290 453e 1e96 42bd 821a 503d
000002c0: 929e ba3d 4ed7 5bbe 14bf 00be bcd9 8ebd
000002d0: d3e1 22bf 8434 4abf ae5e 57bf dfe6 af3e
000002e0: 2cea a73e 8766 823e 0608 903e 9b59 6f3e
000002f0: 876e 963e fc4e c23e 5247 b83e eb10 0e3f
00000300: 6a4b 673e 0dc9 c63e b2ff 153f c351 783e
00000310: 7183 813e 511e d63e 9267 a4be ef1c 95be
00000320: e761 d2be d479 dfbe 463e dabe 76be 00bf
00000330: f268 85be a04d 8dbe 2cc7 abbe ebfe a83c
00000340: 66c4 be3c 262c 6cbd 7c86 c73c e7e8 83bc
00000350: 3397 05be c95d be3c d495 333d d73f fcbc
00000360: 14c5 25be d58a 0bbe b8fc 01be 2b64 a73e
00000370: e413 8e3e 6bf4 773e b94e 1ebe f238 2fbe
00000380: 5885 3fbe 4211 0f3e dd26 123e 5740 193e
00000390: fe75 4abf dd51 4dbf 446c 15bf 72c0 d73e
000003a0: c8b3 a53e df31 cd3e 4d4f 39bc 0712 1b3d
000003b0: 4024 f33c 69ac 623e c31b fd3d fd0f 383e
000003c0: f6cb 9bbe 61f2 80be 9bb6 7cbe 55e0 453e
000003d0: 1996 343d eee5 51bd 25ee a3be 55da 7dbe
000003e0: 2cca 69be cb45 063e 0fe8 1e3d cd66 c3bc
000003f0: e94d f53e 3d38 da3e b3e2 933e c8ce 60bf
0.2961447 0.12301262 0.2632096 -0.3144434 -0.19364718 0.21670303 -0.49060258 -0.3027275
0.4102278 0.02654899 -0.092392534 -0.020144764 -0.60819274 -0.50482094 0.01008195 -0.9941392
-1.0951878 -0.10211159 0.43472806 0.31467184 0.21302342 -0.27684322 -0.22137438 0.07956007
0.20555627 0.30637679 0.3871548 0.044647537 0.019604387 -0.01654978 0.03999748 0.029108316
-0.036607344 -0.012157629 -0.010719256 -0.02699872 -0.105885096 -0.17246273 -0.38932833 -0.23007664
-0.33314633 -0.4965092 -0.2600374 -0.38295656 -0.5076476 0.05084581 0.18203981 0.39150617
0.21386796 0.2871318 0.55590904 0.21435782 0.3318905 0.5857103 0.1841753 0.053214427
-0.0164934 0.29845372 0.06451323 -0.0060150367 0.23641501 0.11355468 0.087502256 0.18773934
0.18244459 -0.053507373 0.2702712 0.18147777 -0.11303949 0.24536282 0.1849745 0.016467921
0.06410625 -0.0471189 -0.1260693 0.18609166 -0.02149806 -0.16734158 0.11615111 -0.0042672013
-0.12739196 0.3175006 0.25043228 0.36852348 0.33167765 0.32508892 0.36145166 -0.7127201
-0.6562814 -0.6588375 0.0050881375 0.065007016 0.12269796 -0.12856033 -0.13244157 -0.19361222
-0.0038509795 0.056635678 0.041657023 -0.1661465 -0.20026512 -0.23748069 -0.04826099 -0.026142832
-0.08985864 0.2176864 0.24469437 0.09398177 0.02406877 0.06976295 -0.07369569 0.25739285
0.11479344 0.06486307 -0.4836933 -0.40288723 -0.6688644 -0.31470153 -0.28256208 -0.25704324
-0.099091046 -0.12887289 -0.15740728 0.31132433 0.30324805 0.283921 0.08685501 0.040094275
0.19547988 -0.29356185 -0.27843294 -0.3015584 0.04521618 -0.06710687 -0.014003673 0.45640883
0.3997987 0.30495748 -0.6761751 -0.65028995 -0.48694634 0.15886687 0.16426466 0.021440782
-0.17148584 -0.17026146 -0.16085541 0.035524353 -0.027527424 0.106301084 0.097958244 0.072703786
0.046614673 -0.21424524 -0.18537244 -0.22831577 0.40302834 0.37165058 0.32869673 -0.12617032
-0.0974228 -0.1406445 -0.07385653 0.039905224 0.17800704 0.008992904 0.024642618 0.06883888
-0.057081673 0.035222936 0.11619235 0.16037193 0.18159124 0.19293359 -0.047506444 0.05080653
0.09112276 -0.21468851 -0.1257289 -0.06975123 -0.6362583 -0.7898638 -0.84128845 0.34355828
0.32795846 0.25468847 0.2813112 0.23374026 0.293812 0.37950885 0.35991913 0.55494565
0.22587362 0.38825265 0.58593285 0.2424994 0.25295594 0.41820005 -0.32110268 -0.29123637
-0.4109032 -0.43647635 -0.42625636 -0.5029062 -0.2605663 -0.27598286 -0.33550394 0.020629367
0.02328701 -0.05765929 0.02435612 -0.016102267 -0.13045959 0.02323808 0.04384406 -0.03079216
-0.1618846 -0.13627179 -0.12694061 0.3269361 0.2774955 0.24214332 -0.15459718 -0.17111567
-0.1870321 0.13971427 0.14272638 0.1496595 -0.7908629 -0.8020304 -0.58368325 0.42139012
0.32363725 0.4007711 -0.011310411 0.03785899 0.029680371 0.22136082 0.12358811 0.17974849
-0.30429047 -0.2518492 -0.24679033 0.19323857 0.044088457 -0.05124467 -0.32017627 -0.24790318
-0.22831029 0.13112561 0.038795527 -0.02385273 0.47911003 0.4262103 0.28883895 -0.87815523

conv2.bias f4 [32]
00000000: 4d64 a7bd bebb b13d 1dd6 89be 879d 6fbc
00000010: 1031 aebe 2ce6 003d eb60 be3e 56b3 45be
00000020: 479c e53e b57f 8c3f c7f0 223e 9d87 debd
00000030: 895c 64be 6c88 debe 96f2 2abe 0786 3cbb
00000040: 9c07 92be 6f6e fa3d d508 40bf 843d a23c
00000050: 3851 77be 06c4 57be c908 dfbe c950 16bc
00000060: 5c89 87be 16a9 b0bd ab9c 72bc 5bbd 093e
00000070: e102 89bd 4d60 22be 84ca cf3e cf46 eabc
-0.08173428 0.08678387 -0.26921168 -0.01462496 -0.34021807 0.03146951 0.37183318 -0.19306692
0.44845793 1.0976473 0.15912162 -0.1086571 -0.22300924 -0.43463457 -0.16694102 -0.002876641
-0.2852143 0.12228095 -0.75013477 0.019804724 -0.24152076 -0.21070871 -0.4356139 -0.009174534
-0.26471984 -0.086260006 -0.01480786 0.1345114 -0.06690002 -0.15857048 0.40584195 -0.028598217

conv2.weight f4 [32, 3, 3, 16]
00000000: 070d 1d3d f474 e3bd 3025 6e3d f587 1a3d
00000010: 7cb2 f73e 5a1a fbbd 6ebe 503e 20b7 e53d
00000020: 37a0 9d3e 7bee e43e 5384 fdbe 8fb2 af3d
00000030: 73d0 f4be 95ed 923e cafc b6be b21f bbbe
00000040: 3552 19bc ea9d 693d e034 8c3e ec6e 23be
00000050: ff02 8b3d 8184 08bf 9939 80be 90b8 8b3e
00000060: a8c4 55bf 4343 0cbf 7413 16bc 88bb 963e
00000070: fb84 3ebe c827 3cbe a6bc 55be 8911 1d3e
00000080: c3bb 36bf edc4 5abd 1ec0 86be b249 fdbd
00000090: 755e 033f 869f 953e 01b0 2b3e 5a4d 563e
000000a0: 8e45 043f 776e 553f 2a2b a4bc 7274 113e
000000b0: 8a2f 6cbd a512 233e 9012 3fbf 33de 263d
000000c0: 9cc5 003e a583 433e cb20 64bc 90d9 b83e
000000d0: 5ebe fc3e fab9 f93e b3b8 01bd cef4 50bc
000000e0: c3a9 51be 00f7 283e 5054 243f 53f5 0b3e
000000f0: 7565 37bd ae4f 0ebe a6d6 e73d 8433 d43d
00000100: 76c7 993e 59a6 d7be a875 cdbc 94ed 22bf
00000110: 9275 3ebc c811 9dbf 183d babe 61c8 3bbe
00000120: 4a65 62be 0067 3cbf ae92 2ebe 38f4 323e
00000130: 1a73 9c3e d400 84be 68d4 bbbe bf76 003d
00000140: 3997 ee3d 5f01 ed3e 56ed b3bd c498 893d
00000150: d3bb bbbd a1fe 213f 8cb5 cfbe a0d9 8d3d
00000160: 3599 813e 1cf8 31bd 829b 153f 8868 433e
00000170: 18ed 0a3e b486 e7bd b035 953e 8ea3 3d3d
00000180: 513e 1a3c 6dd8 4cbe 45b0 e43d c994 b33d
00000190: e332 ca3e 6188 053e 0578 a9be 92db a63c
000001a0: 357c 6fbe 44d4 49bf 9ed6 35be 15d0 e8be
000001b0: 9827 ac3e 56a0 ac3d 2f4d c23d ca4f 02bd
000001c0: 4267 febd 9689 94be f106 973d 419d e3be
000001d0: d55c 153f b4d5 61bf 113d 4d3e 6d0d e8be
000001e0: 9777 bebe a009 d3be 1fc3 b2be fc1f 86bd
000001f0: 747b 94bd 1c59 2d3e 5617 673e 7430 68bd
00000200: 93fe b63c bdc9 e53c bbf2 4f3d 0a4c b3be
00000210: fe33 c93e fd29 913e 97e3 bb3c 9e36 3ebe
00000220: 478f 8a3d 808d 66bf 899b 8cbd af0f ccbe
00000230: 3957 84be 7828 0c3e 07d3 ae3d 54e1 20be
00000240: a7c5 b33e 06d1 073e 5ed8 293f 6169 e53d
00000250: 7f2e 0fbe aad0 6e3e 4213 87bd ddb5 903d
00000260: e812 d93e 3544 ac3e 5e8d bbbd df73 973e
00000270: efdb de3e 5851 4c3e bff2 62be afec 0b3e
00000280: 362c 853e b9cc 83be 094d f2bd 2707 13be
00000290: 0ae7 70bf 697a 533e 85f1 ea3e bc57 bbbe
000002a0: 68fa 03bf 3e48 5d3e 52ba a7be 868b ebbd
000002b0: 9632 17be 1e5f 8c3e e50a c7be 5b78 e03c
000002c0: dc2b 843e 874b 43be 3275 2ebe 37ba 77bd
000002d0: aa09 87be ebd0 93bf c9a5 bebe 8207 23bf
000002e0: c7d2 f6be 18aa 36bf fe9a 173e 3386 d2bd
000002f0: 5e29 4fbe 3261 ccbc ac68 bcbd 5f6f c9be
00000300: b4be 24be a459 233f a166 433e fda3 8a3e
00000310: 73d6 6cbe 716e 413f 6b5f 883e 4806 d03e
00000320: 85c1 8dbd 546a 383d c2f5 5a3e f20a 8e3e
00000330: 4b03 a7be 425f d7bd 3643 24be 88e0 343e
00000340: bd83 31bf 0797 8dbe a374 01be b75f 19be
00000350: 2704 32bf a143 d6be 0af0 e6be 519e 57bf
00000360: e2e5 7bbf 4c93 41be 4e95 41bf ac6e 85be
00000370: f0fa 29bd c4e6 05bf ce2b 2ebe e606 abbe
00000380: 56d6 9cbd 2db4 18bf 79dd 7fbd 0d77 273e
00000390: 1766 65bd 84eb 15bf 6d89 833e 426d 6cbf
000003a0: 4e7a 0dbe 2b7c d83c 1a76 35be e7d0 933e
000003b0: 5b7e d83d db2c 4abd 5623 ffbe dcaf 86be
000003c0: 8fa0 4dbe 7542 c1bd b159 44be e6c2 e63d
000003d0: 4d97 45bf 25a5 0d3f 2376 a0be 43eb 283c
000003e0: 7933 ebbe 3868 003c 6b8f 81bd 09ba ba3c
000003f0: e80a 06bf f2fb d7bc ee9e 683e b198 8bbd
0.038342502 -0.111062914 0.058140934 0.037727315 0.4837836 -0.122608855 0.20385143 0.11216569
0.30786297 0.44713196 -0.49515018 0.08578979 -0.47815284 0.28696886 -0.35739738 -0.3654762
-0.009357979 0.057035364 0.2738409 -0.15960282 0.06787681 -0.53327185 -0.25043944 0.27289248
-0.835032 -0.54790133 -0.009159911 0.2943995 -0.18605416 -0.1837455 -0.20872745 0.1533872
-0.7138025 -0.05341046 -0.2631845 -0.12367572 0.51316005 0.2922327 0.16766359 0.20927945
0.5166863 0.8337168 -0.020040113 0.14204577 -0.057662524 0.15925081 -0.746377 0.04073925
0.12575382 0.19093187 -0.013923834 0.36103487 0.4936399 0.487747 -0.031670284 -0.0127536785
-0.20474915 0.16500473 0.6419115 0.13667803 -0.04477449 -0.13897583 0.11320238 0.10361388
0.3003499 -0.421191 -0.025080517 -0.63643765 -0.011624711 -1.2271051 -0.36374736 -0.18338157
-0.22108951 -0.73594666 -0.17048141 0.17475975 0.30556566 -0.25781882 -0.3668549 0.031363245
0.11649937 0.4629011 -0.087855026 0.06718591 -0.09166684 0.6327916 -0.40568197 0.06926274
0.253122 -0.043449506 0.5844041 0.19082844 0.13567007 -0.113049895 0.29142523 0.046298556
0.009414271 -0.20004435 0.11166433 0.08768613 0.39491948 0.13040306 -0.3309938 0.020368371
-0.23387225 -0.78839517 -0.17757651 -0.45471254 0.33623958 0.08429019 0.09487378 -0.031814374
-0.124220386 -0.2901122 0.07374371 -0.44455913 0.58344775 -0.8821671 0.20042826 -0.45322743
-0.37200615 -0.4121828 -0.3491449 -0.06549069 -0.07250109 0.16928524 0.22567496 -0.056686834
0.022338187 0.028050298 0.050768595 -0.3501895 0.3929748 0.28352347 0.022935672 -0.18575522
0.06765609 -0.9005966 -0.068656035 -0.39855716 -0.25847796 0.13687313 0.08536344 -0.15710956
0.35111734 0.1326333 0.66345775 0.1120174 -0.1398258 0.23321787 -0.0659547 0.07065938
0.42397237 0.33645788 -0.09157823 0.2958059 0.4352717 0.19952905 -0.22162913 0.13664506
0.26010293 -0.25742128 -0.118310995 -0.14358197 -0.9410254 0.20652165 0.4588739 -0.36590374
-0.51553965 0.2160959 -0.3275934 -0.11501221 -0.14765391 0.2741632 -0.388755 0.02740114
0.25814712 -0.1907178 -0.17036894 -0.060480323 -0.2637456 -1.1548132 -0.3723586 -0.6368333
-0.48207685 -0.7135329 0.14805219 -0.10279503 -0.20230624 -0.02494869 -0.09199652 -0.39342782
-0.16088372 0.63808656 0.19082119 0.27078238 -0.23128681 0.75559145 0.26635298 0.40629792
-0.069216765 0.045023277 0.21382812 0.27742726 -0.326197 -0.10516216 -0.16041264 0.17663777
-0.6934164 -0.27654287 -0.1264215 -0.14977919 -0.69537586 -0.41848472 -0.4510501 -0.84225947
-0.9839765 -0.18903846 -0.75618446 -0.26060998 -0.04149908 -0.52305245 -0.17008898 -0.334037
-0.07658069 -0.59649926 -0.062467072 0.16354008 -0.056005564 -0.58562493 0.25690785 -0.92354214
-0.13816187 0.026426395 -0.17720833 0.28870317 0.105709754 -0.049359184 -0.49831647 -0.26306045
-0.2008078 -0.09436504 -0.1917484 0.11267643 -0.7718399 0.55330116 -0.3134013 0.010309997
-0.45937708 0.007837348 -0.06326183 0.022793787 -0.5236039 -0.026365254 0.22716877 -0.06816233

conv3.bias f4 [64]
00000000: 4d05 83be 2e88 8ebe ac39 3cbf 4990 9bbf
00000010: b60e 42bf 34f9 75bf c710 7ebf 2139 06bf
00000020: 4dba 10be be7c 243e d692 52bf 376d d3bf
00000030: 4611 03bd 6b0f 8fbe 98ca 6bbf f037 2a3f
00000040: 8b46 dbbe 19af 4c3f 77ea 06bf 96d4 a83d
00000050: e3b1 95be 5618 55be 4408 81bf a47b 90bf
00000060: 543c 56bf a267 06be cea1 23bf aab9 44be
00000070: e18a abbf fd89 043f f54f 8ebf 2e2f 13bd
00000080: 6167 5cbf b721 023f 775b 1cbf 7cc1 65bf
00000090: b3cd 13bf d28c 453e 1541 4f3d aed5 3cbf
000000a0: 90d1 363e 7eee 9dbd e5d1 e9be da7d 33bf
000000b0: 9f6f a2bf 772d 8abe 903d cebf 613e 2fbe
000000c0: 247d b0be b503 debf c673 a2bf 2459 23bf
000000d0: c8b7 a6be 93d9 5abf b149 62bf d952 59bf
000000e0: 97bc 59be 8f9f fa3e 3737 0b3f 034e 34bf
000000f0: a0a3 5cbf fa4f 86be af0e 2bbf 0f2f 1dbe
-0.25589982 -0.27838272 -0.735255 -1.2153407 -0.758037 -0.9608338 -0.9924435 -0.5243092
-0.14133568 0.1606321 -0.82255304 -1.6517705 -0.031998895 -0.2794145 -0.9210601 0.66491604
-0.42827258 0.7995468 -0.52701515 0.082436725 -0.2923728 -0.20810065 -1.0080647 -1.1287732
-0.83685803 -0.1312547 -0.6391877 -0.1921145 -1.3401757 0.51773053 -1.1118151 -0.035933666
-0.86095244 0.50832695 -0.61077064 -0.8974836 -0.5773575 0.19292 0.050599176 -0.7376355
0.17853379 -0.077115044 -0.4566795 -0.7011391 -1.2690314 -0.26987812 -1.6112537 -0.1711364
-0.34470475 -1.7344881 -1.2691581 -0.6380789 -0.3256209 -0.8548824 -0.88393694 -0.8489204
-0.21263348 0.4894986 0.54381126 -0.70431536 -0.8618717 -0.26232892 -0.6681928 -0.15349983

conv3.weight f4 [64, 3, 3, 32]
00000000: 6ccc 65be f680 123f cd4d 5dbe d62b e9be
00000010: 7cfe 74be 8c16 b6be cbad 1d3e b6fd 61bd
00000020: d319 7dbc fd4a bb3e 2027 48be 691b 2cbe
00000030: 49d5 913e b46d e8bd 52dc 8bbe 1cde 49bf
00000040: 26ae 02bf b2d7 d7bd c182 c73d a89c 383e
00000050: c4e9 1abf 1a86 e73e d170 07be f282 41be
00000060: 5e4e e5be beb5 aabe 1f62 1d3f c9fc 0dbe
00000070: b918 bf3d f2d6 8dbd e8b8 e83d 8c77 9e3d
00000080: 6332 2a3e f0a2 74bd 6543 2d3d 2aac 003f
00000090: ccb9 b5be 3443 0c3d 36c1 c3bd 7f47 b7be
000000a0: a562 103e 4933 7ebd fade abbd 776b 5d3d
000000b0: 1975 73be e26b 4ebe 0d19 0a3f 2645 103e
000000c0: f80a 94bf b603 a6bd 69ae e43d c734 50be
000000d0: 2ca4 373e f522 ecbe 15cb 7ebe 4ebc cf3d
000000e0: 2fad b7ba 8d7a e33e be64 4c3e fbc6 b13e
000000f0: bc4b 0e3f 5304 69bd 0c14 903e cde7 8abe
00000100: 78dd c7bd 377a cfbd 8fdb 6bbd 4cf9 cf3d
00000110: 3b61 5c3d 6447 9d3e 7440 6abf 1dd6 713e
00000120: 98b0 b43d d9e4 d5be a58e 873d c8d1 1fbc
00000130: 7953 59bd bd05 93be 1924 773e 0bf7 a8be
00000140: e1b9 3b3f 44fe 233d 8f39 a3bd fcb8 60bf
00000150: db15 073f 02f6 3c3f b1ae 613e 14ef 91be
00000160: f974 09bf 4cb4 eabe e271 6c3f efb1 483f
00000170: f5d8 303e 6372 993e 82a0 9fbe 3e9b aabe
00000180: 701f edbe 7b5c 0e3c f04d 0abe 56e7 f1be
00000190: 4a90 053e e7fa acbe 8d1a 133e 6011 993e
000001a0: 4e65 c8ba a293 6f3e c047 19be 09c1 833e
000001b0: b99f a5be 0a5d 0f3f c49a ccbd aeb1 c3bd
000001c0: a8f0 f5bc c098 663d d1af bcbd d498 183e
000001d0: 037d 9fbe d2bc be3e cf81 293f 38ac 993e
000001e0: 5cca d03d 4b37 b93e 0536 e9bd ad78 93be
000001f0: 952c 063f 1ea1 8cbe 5620 9e3e b9ff a33e
00000200: 1dde 8d3e db9b b6be 6ea8 493d 6e16 debe
00000210: 3731 a13e b3e1 593e 1997 d3bc 81a0 743a
00000220: 9543 05be 0b33 68be 7fd3 e4be d558 823d
00000230: b3d2 a93d b3b0 1dbf 30af e43e 63da 0f3e
00000240: 5ea7 d4be 3c3a f5bd a959 52be 8a35 44ba
00000250: 97fc c13d c0c0 5f3e e68a 323e 491f 38bd
00000260: 43fc e0bd f25f 853e 7df0 873e c12e 453d
00000270: 9b20 afbe a3e0 e8bd 2128 9c3d 930d 72be
00000280: be8b 1f3f 1ce8 68be cd68 af3d 7727 a73e
00000290: 3632 793d 7e04 013e c689 94be 8d0b 113f
000002a0: ce1a e4bd c47e 943e f5ab 103e 7824 5fbe
000002b0: 3d55 7bbe d1ef 95be 9f05 f9bd 423f 46be
000002c0: d308 edbd afa8 2abe 58b8 d33d 6180 d8be
000002d0: 13b8 043f 99e3 043f b802 5ebe 7be7 3b3e
000002e0: e5d2 babe 03a8 88be f96e 573e 2442 253f
000002f0: b386 b9be 7a4c 0a3f 1e06 083d 9b4f e5bd
00000300: 42df 99be 8bb0 a63e 331f 69bd ff20 313f
00000310: b3bd 4b3e be35 303e b40e 1fbe c053 1ebe
00000320: ca75 393e 98a1 7dbf 945a 98be a828 29b9
00000330: af69 dd3e 1501 ddbd c436 b93e 60ba a83e
00000340: 1d56 0b3f faee cf3e b5aa 8cbe 2af1 cfbd
00000350: 66fb f2be d3f7 a63e 99c3 243e f4cb 173f
00000360: 4b57 5abe ccf2 b43e 741b 17bd ec0b abbd
00000370: cd58 48be 16bf 53be 56f7 833e 8cbb b4be
00000380: eb52 703e d335 a63e 847b bbbb 4533 213f
00000390: 0dc8 d83d c3fc 533f ce1c 24bf fe95 a0bd
000003a0: 7b3a d2bd 3679 303c 7055 c9bd 16d5 9c3e
000003b0: 082d 99bd f1b2 96bf f5ed 02bc bce9 23be
000003c0: 64a1 dabd f86d dabd de2d e43d a959 91be
000003d0: a95b 54bf 94d0 0c3f 8a82 cebe dbd5 ecbe
000003e0: 0f70 073f 2ea0 dbbd 68d6 81be 0fd8 b53e
000003f0: fad9 08bf 112f 5bbe 92a5 71bf b9d8 adbf
-0.22441262 0.5722803 -0.2161171 -0.45541257 -0.23925203 -0.35564077 0.15398328 -0.0551736
-0.0154480515 0.3658065 -0.19546175 -0.16807331 0.28483036 -0.11349049 -0.2731653 -0.78854537
-0.5104698 -0.105391875 0.09741736 0.1802851 -0.6051295 0.452195 -0.1322663 -0.18897608
-0.44786352 -0.33341783 0.61477846 -0.13865961 0.09330887 -0.06925763 0.11363393 0.077376455
0.16620784 -0.0597257 0.0423006 0.502627 -0.35493314 0.034243777 -0.095583364 -0.35796735
0.1410013 -0.062060628 -0.08392139 0.054057565 -0.23775138 -0.20158342 0.53944474 0.14088878
-1.1565847 -0.081061766 0.111660786 -0.20332633 0.1793372 -0.4612042 -0.24882157 0.10143338
-0.0014013405 0.44429436 0.19960305 0.34722123 0.5558431 -0.05688889 0.28140295 -0.27129975
-0.09759039 -0.101307325 -0.057582434 0.101549715 0.053803664 0.3071853 -0.915046 0.23616834
0.08822745 -0.4177616 0.06619004 -0.009754606 -0.05305812 -0.28715315 0.24134864 -0.3300098
0.73330504 0.04003741 -0.07969963 -0.87782264 0.52767724 0.7381288 0.22039296 -0.28502715
-0.5369411 -0.4584068 0.9236127 0.78396505 0.17270263 0.29970083 -0.31177145 -0.33321565
-0.46313047 0.008689041 -0.13506293 -0.47246808 0.13043323 -0.33785173 0.14365597 0.2989607
-0.001528898 0.23396161 -0.14968777 0.25733212 -0.3234842 0.5600134 -0.09990457 -0.09555374
-0.03002198 0.056298018 -0.09213222 0.1490205 -0.31150064 0.37253433 0.662137 0.30014205
0.10194847 0.36174998 -0.113872565 -0.28803006 0.52411777 -0.27466673 0.30884045 0.32031038
0.2770852 -0.35665783 0.049232893 -0.43376487 0.3148286 0.21277504 -0.025828885 0.0009331778
-0.13014062 -0.22675721 -0.4469261 0.063645996 0.08292141 -0.61597747 0.44664907 0.14048152
-0.4153394 -0.11973998 -0.20542015 -0.00074847846 0.09472006 0.21850872 0.17435798 -0.04495171
-0.10985615 0.26049763 0.26550665 0.04814029 -0.34204563 -0.11370971 0.076248415 -0.2363799
0.62322605 -0.22744793 0.08564911 0.32647297 0.0608389 0.1259937 -0.29011363 0.5665825
-0.11137925 0.29002964 0.14128096 -0.21791255 -0.24544235 -0.29284528 -0.12159275 -0.19360068
-0.11573949 -0.1666591 0.10337895 -0.42285445 0.51843375 0.51909786 -0.21680725 0.18350022
-0.36489025 -0.26690683 0.21038426 0.6455405 -0.3623558 0.54022944 0.03320896 -0.11196824
-0.30053145 0.32556567 -0.05691452 0.69190973 0.19896583 0.17208001 -0.15532953 -0.15461636
0.18111339 -0.990747 -0.29756606 -0.00016132242 0.43244693 -0.10791222 0.36174595 0.32954693
0.54428273 0.40612012 -0.2747399 -0.1015342 -0.47457427 0.3261095 0.1609024 0.5929558
-0.21322362 0.3534149 -0.036891416 -0.08351883 -0.19565125 -0.20678362 0.2577464 -0.35299337
0.2346913 0.3246294 -0.0057215113 0.62968856 0.10585032 0.8280756 -0.6410645 -0.07841109
-0.102650605 0.010771086 -0.09830749 0.30631322 -0.07479292 -1.1773359 -0.007991304 -0.16007131
-0.10675314 -0.10665506 0.11141561 -0.28388718 -0.8295236 0.55005765 -0.40333968 -0.4625691
0.5290536 -0.10723911 -0.2535889 0.35516402 -0.53457606 -0.21404673 -0.94393265 -1.3581764

fc1.bias f4 [128]
00000000: e880 4e3d 8a2f 49bd 4ad3 13bf edfc bfbe
00000010: 0995 abbe ffb9 c8be a60c c8be 8ec1 5a3f
00000020: b169 18bf fd3f c43d f103 84bf d025 abbe
00000030: 87a0 b6be 0a9f 25be 32f2 cdbe bb7a d2bc
00000040: 8dee d8bc 1886 19bf 2442 1ebb 7ebd a8bd
00000050: 7b6d eabe f1fb e3be 47a6 15bf 5523 853d
00000060: 9245 e0be 73ea 2a3f 2053 22bf 46bf 1abd
00000070: 3107 96bd 4bc5 bcbd 5909 bdbe 4aea fabd
00000080: e9d1 313f 5bd3 e1bc ad05 e0be 05a0 a7be
00000090: 287f 5bbf 1927 e9be 28ae 42bd aa87 3b3d
000000a0: 3c64 08bf 5b29 d5be b972 fcbe d892 143f
000000b0: faf2 47bf 4e7b e1bd 946b c6be 5cff 37bf
000000c0: 052b 83bf 0ee3 61be 9f0d fbbe a983 4fbd
000000d0: c6ef 443f e030 88be c3f3 52be 4be8 2abe
000000e0: 42b3 8ebe 53f8 f9be 18b1 e7be acfa d1be
000000f0: e335 debe 12d1 233f 86f0 28bf da51 e6be
00000100: e5a1 46be a79e 073d cecb 35be c1d8 17bf
00000110: 4f13 9dbe 1cf1 11bf 2cd1 78be 53cd 11be
00000120: 46bf d0be 393c f5be 7061 a2be 6096 e8bd
00000130: 1827 663f 98cc 94be 40c7 d23b 2357 e6be
00000140: f429 5bbf 36b7 dfbe 0b11 6bbf bc0d b7be
00000150: 56b9 00bf e9ac 0dbe a9a7 a5be 5039 00bf
00000160: e8d5 9fbb f6b5 b1be 7e04 ffbe c962 ba3c
00000170: c903 c9bd c609 02bd b60f 0bbf 9f4b 053e
00000180: f33b 76be 1672 fbbe 93ba f2be 89aa c1be
00000190: 4a5f 99be 24da 20bf 9990 e8be 393c a7be
000001a0: ed39 18be 76db bdbd 8cd6 1cbe fac3 36bd
000001b0: b61e 5bbe 3e89 ddbc 4042 a8be aa9a 73bf
000001c0: b97e 16bf 2587 c13e 56c2 e23d 8575 5fbf
000001d0: e9ed 02bf b686 ecbd f757 58bf 3614 32bf
000001e0: c0b3 1fbe 29d2 d0be d23b 9abe 0c2d 86bf
000001f0: 840b 33bf d380 43bf c17b b0be 1d10 babe
0.050415903 -0.049117602 -0.57744277 -0.37497655 -0.33512142 -0.39204404 -0.3907215 0.8545159
-0.5953627 0.09582517 -1.0313703 -0.33427286 -0.35669348 -0.1617395 -0.40223843 -0.025693288
-0.026480937 -0.59970236 -0.002414831 -0.08239268 -0.45786652 -0.44528154 -0.58456844 0.0650088
-0.43803078 0.6676399 -0.6340809 -0.03778007 -0.073255904 -0.09217318 -0.36921194 -0.12251718
0.6946092 -0.027566602 -0.4375433 -0.32739273 -0.857409 -0.45537642 -0.04752937 0.045783676
-0.53277946 -0.41633114 -0.49306276 0.58036566 -0.7810513 -0.11009847 -0.3875395 -0.7187402
-1.0247504 -0.2205927 -0.4903383 -0.05066267 0.76928365 -0.2659979 -0.206008 -0.16690175
-0.27871138 -0.4882227 -0.452523 -0.4101156 -0.43400487 0.6399089 -0.6599201 -0.44984323
-0.19397695 0.033110287 -0.17753527 -0.59315115 -0.30678794 -0.5700853 -0.24298543 -0.14238481
-0.4077093 -0.4789751 -0.31714964 -0.11356807 0.899034 -0.29062343 0.006432444 -0.44988355
-0.8561089 -0.43694466 -0.9182288 -0.35752666 -0.502828 -0.13835491 -0.32354477 -0.5008745
-0.0048777945 -0.34709138 -0.49808115 0.022752183 -0.09815175 -0.031747602 -0.5432085 0.13017128
-0.24046306 -0.49110478 -0.4740797 -0.3782542 -0.29955512 -0.62832856 -0.4542282 -0.32663134
-0.14865847 -0.092703745 -0.15316218 -0.04462049 -0.21398434 -0.027042981 -0.32863045 -0.95157874
-0.58787113 0.3779842 0.11072223 -0.87288696 -0.5114427 -0.115491316 -0.84509224 -0.6956209
-0.15595913 -0.4078534 -0.30123764 -1.0482497 -0.69939446 -0.76368445 -0.34469417 -0.36340418

fc1.weight f4 [128, 1024]
00000000: 2a8f 00be 18af 27be ef08 e33d 1f2e d5bd
00000010: f6a0 c3be 9dd0 6fbc ca14 9cbe 5fa5 f33e
00000020: 981b d9be 6444 c6be be16 8cbd b1bf a8bd
00000030: 488f b3bd afe5 8cbe 4895 ab3d 499f a53d
00000040: a357 0b3f f205 b33d 3fed 95be 9ab5 c1be
00000050: 1738 b5be dbf0 2fbe 7ba8 8a3d 7e7f b33d
00000060: afea 453e 69a3 29be 87d3 9bbe 3c88 58be
00000070: 7810 903e 5697 27bd 0056 123e 8221 5fbe
00000080: 7f37 813d 506c 1abd d94a 1f3e 8483 a5ba
00000090: e9be 323b 36be 18bf 5931 20be 7c95 66be
000000a0: 570f 98be 3dd5 94be bcb3 76bf 1f39 d43c
000000b0: a355 bc3d 7808 7ebe dbcb 1f3e aeec 063e
000000c0: f17d 1abf 1356 823d 3b5b eebb 0833 833c
000000d0: ff91 aabe 45d2 093d 0a54 4a3d 77cf bdbe
000000e0: 3bae b63c f0c0 1ebd 1537 19be ee12 97bd
000000f0: c1b9 bc3d 9633 213e 5343 15bd e692 a43d
00000100: 71d2 0abf c188 2fbf f2c5 54be 15b9 4cbd
00000110: 6c8e d0bd 40ba d0bc d18c 36bf f05d 7bbf
00000120: 689b 1fbf 6662 1dbe ac95 70bd 3968 5dbd
00000130: 4dc8 21be 63df a4be 480f 443e 7c0b fc3d
00000140: 5310 cabe e918 aa3d fc62 02bf 4ecb 18bf
00000150: 80eb 8f3e 3dab d5bc 0e31 e9bd 96e6 45be
00000160: 5ba9 94bc 5e8d 5f3e 4754 97be c00a b1be
00000170: d60b 65be 8039 f2bd 9111 c6be 78fc 1bbf
00000180: 8ec8 1a3e 055d e53d 7c6d afbe aa41 aebd
00000190: 408c e5be c54e 06bf 569d 26bf 0a22 e33d
000001a0: 0308 133d e28f c7be c117 9bbe cd78 cebd
000001b0: 3baf bb3e 5950 1bbf 934e 613e 91bd c7be
000001c0: 3efb 7dbf e469 25be 8c84 cd3b 0a4f 5fbf
000001d0: 5694 353e 38e7 b5be f503 a3bb 0942 a2be
000001e0: 4ce8 8bbd 7f6a f4bc 9fe1 23be 1f51 1b3d
000001f0: e01b 83bc 3c97 a3be 5e2b 813d 3a18 713e
00000200: 520d 2ebf 6f94 febd 1027 a9be 109a 643e
00000210: 4498 52bd a642 003d 05ed 7bbe 052b dabe
00000220: 0ddd e3be f866 91be 0de6 90bf 093b 1abc
00000230: 177e 98be efd7 cebe 0bf4 023d 5aed 913e
00000240: 049f 4ebd b886 343e f9b5 4dbf f606 3bbe
00000250: 2047 6dbe 7c59 083e e47e 1e3d 6ca9 b5bb
00000260: f8b5 603d 17dd 7dbe a63d 1b3e fca9 7f3e
00000270: b851 b73d ccb9 d63e edad 50be ec00 4e3d
00000280: e6de 893e eedd f63d e68c 463d 4a47 47be
00000290: 4a0b 39bf 88cf 10bf 2360 46be dc78 e3bd
000002a0: aa22 003f 1ae8 5bbf a5af d7be e9a7 a83e
000002b0: 0ac3 ae3d 6bc1 7cbf 30c6 9b3e 2bd6 d03d
000002c0: d62a 01bf e160 a23d 25bd f9bd 539a 54be
000002d0: 1687 9dbd 1406 b93e 2d7c 4cbe 3b0d 2a3e
000002e0: 4b7a a5be 6439 bc3e 91ad e83c 9c8e d43b
000002f0: 1cc4 90bc e3b5 84be 7648 17bd 04a7 20bf
00000300: ff27 2a3e 0e52 143e c888 7c3c 6401 d5bd
00000310: ab56 bc3e e33f 8ebd 74eb 35bd b1ec 30bf
00000320: f6be f0be 89fd 24be 9365 39be a448 b43d
00000330: e394 9dbd 28d8 a3be fe5c 08bd 601a 20bd
00000340: 0e56 dabc 5bbd bc3e e97b d7be 0e6f 373e
00000350: 09e1 a8be 9600 cabc 14c8 493e 6078 013f
00000360: db39 8cbc 04d1 c2be ca5f 1cbe 68c0 89be
00000370: c020 e73d c110 a9bc 2164 1e3d 453a d43d
00000380: c43a a0be 43f3 fabd e4ec acbc 497b ce3d
00000390: 8c7c 69be dbac 203b 6694 d7be 7e35 e33d
000003a0: 1d5b 2d3f 8922 8fbe 6acb 53be a89f b13e
000003b0: d557 d13c 85db 79bf 9b80 c63d 199d 033e
000003c0: caf2 393f 43d0 333e 6bbb 543e f63a bebd
000003d0: 53fc bf3e 4383 803e 3e8e ef3d b00f 92be
000003e0: 5d8a f73e 0750 7dbe 8789 8d3e e18c 903d
000003f0: 13c0 0ebe 544a f23d 19ef 0b3e 5340 1ebe
-0.12554613 -0.16375387 0.11085688 -0.104091875 -0.3820874 -0.01463714 -0.3048461 0.47587106
-0.42403865 -0.38724053 -0.06840275 -0.08239687 -0.08767563 -0.27518985 0.083780825 0.08087022
0.544306 0.08741368 -0.29282567 -0.37833863 -0.35394356 -0.17181723 0.06770416 0.087645516
0.19327806 -0.16566242 -0.3043482 -0.2114572 0.28137565 -0.04091581 0.14290619 -0.21790126
0.06309413 -0.03770095 0.15555896 -0.0012627696 0.0027274436 -0.5966524 -0.15643825 -0.22517961
-0.29699203 -0.29068938 -0.96368 0.025906144 0.091960214 -0.24807918 0.15605108 0.13176224
-0.6034842 0.063640736 -0.007274059 0.016015545 -0.3331451 0.033647794 0.049396552 -0.37072346
0.022299876 -0.03875822 -0.14962418 -0.073766574 0.09215117 0.15742335 -0.03644116 0.08035831
-0.5422736 -0.68568045 -0.20778635 -0.049981195 -0.10183415 -0.025479436 -0.7130862 -0.9819021
-0.62346506 -0.15369567 -0.05873649 -0.054054473 -0.15799065 -0.3220168 0.19146454 0.12306878
-0.3946558 0.083055325 -0.5093229 -0.5968522 0.2810936 -0.02608263 -0.113863096 -0.19326243
-0.018147161 0.21831271 -0.29556486 -0.34578514 -0.22367796 -0.118273735 -0.38685277 -0.6093211
0.15115568 0.11199383 -0.34263217 -0.08508618 -0.44833565 -0.5246394 -0.65083826 0.11090477
0.035896312 -0.3897696 -0.3029156 -0.10081635 0.36657128 -0.60669476 0.2200263 -0.39011815
-0.9921149 -0.16153675 0.0062719043 -0.8722998 0.17732367 -0.35527968 -0.004974837 -0.31691006
-0.068314165 -0.029835938 -0.16004036 0.03791916 -0.016004503 -0.3195132 0.063071 0.23544398
-0.67989075 -0.12430655 -0.33037615 0.22324395 -0.051414743 0.03131356 -0.24602135 -0.42610946
-0.44504586 -0.2839887 -1.1320206 -0.009413489 -0.297837 -0.4039912 0.03197102 0.28501397
-0.050444618 0.17629516 -0.80355793 -0.18264374 -0.23171663 0.13315386 0.03869523 -0.0055438783
0.05486104 -0.2479137 0.15160236 0.24967188 0.089511335 0.41938627 -0.20378847 0.050293848
0.2692787 0.120540485 0.048474215 -0.19460788 -0.7228285 -0.5656667 -0.19372611 -0.111070365
0.50052893 -0.85901034 -0.42126194 0.32940605 0.085332945 -0.9873263 0.30424643 0.10197099
-0.5045599 0.079286344 -0.121942796 -0.20761995 -0.07691781 0.3613745 -0.19969244 0.1660661
-0.32319865 0.36762536 0.028403075 0.006486727 -0.017671637 -0.2592002 -0.03693434 -0.62754846
0.1661682 0.14484426 0.015413471 -0.10400656 0.36784872 -0.06945779 -0.044414 -0.6911116
-0.47020692 -0.16112341 -0.18105154 0.088029176 -0.076944135 -0.32000852 -0.03329181 -0.039087653
-0.026652362 0.36863217 -0.42086723 0.17913458 -0.32984188 -0.024658483 0.1970523 0.505743
-0.017117431 -0.3805009 -0.15270916 -0.26904607 0.112855434 -0.020637872 0.03866971 0.103626765
-0.31294835 -0.1225343 -0.021109052 0.100821085 -0.22801417 0.0024517092 -0.42105407 0.11094187
0.6771715 -0.27956036 -0.20683065 0.3469212 0.025554577 -0.97600585 0.09692498 0.12852897
0.7263609 0.17559914 0.2077462 -0.0928859 0.37497196 0.25100145 0.116970524 -0.28527594
0.4834775 -0.2473756 0.27643988 0.070581205 -0.13940458 0.11830583 0.13665427 -0.15454225

fc2.bias f4 [2]
00000000: 51fc c13f c135 c8bf
1.5155126 -1.5641404

fc2.weight f4 [2, 128]
00000000: 8dd3 a3bd 90b5 29bc 21ec 95bd 7336 4ebd
00000010: b0ac 3ebc d756 09bc 3db0 18bd 437e 153d
00000020: 9d3d 5abd 85af 99bb 2e11 09bd 59f5 3ebd
00000030: e869 00bd f7a3 f0bc fc90 a6bc 07e0 c6bc
00000040: 690f 2a3d d5a5 333b fdfb 8bbd 3fdc c8bc
00000050: 7bb7 9fbd 7a22 e13c af5c 36bd c955 35bd
00000060: 99f0 f8bc 95dc b73c aa2e 57bd 3e30 52bb
00000070: 4381 4fbd f34d 433c 1f65 7abd 1bf5 2abd
00000080: 2f2e ee3b f117 57bd bc9f 29bd 0a45 8c3b
00000090: 9d69 4a3d 9871 efbb bb83 fa3c d18b 353d
000000a0: 39f5 22bc ad29 243d 74bd 9dbc 3b42 0d3d
000000b0: f78e 8fbc b420 aa3d 1cdd a8bc 4eec bebc
000000c0: dddc 153d 524d 8fbc 71fc c2bc c6c6 e53c
000000d0: 21ba fc3c 009c f4bc 0d77 92bd 2951 c5ba
000000e0: a9ec 3f3a 0f59 83bc 1a43 40bd 910b 6cbd
000000f0: 705f 86bd 81a4 3f3d 8bc9 14bd 2e12 98bc
00000100: ee75 a2bc 9a1b 7e3c 327a bcbc f6bb 20bd
00000110: 67ec 08bd ab49 cf3c 11b9 6ebd 6a7d 43bd
00000120: 8d70 9c3c 4942 26bd 0f6a b3bc f449 3a3c
00000130: 237d 683d c227 053d c26f 95bd 4d05 a3ba
00000140: 40df 043c 8c39 04bc 8934 bc3c e9fe 78bd
00000150: f75d 25bd ef26 e8bc cf48 9cbd 6b35 ccbd
00000160: baba 81ba 109b 69bd f600 c73b 5c27 eb3c
00000170: e5c6 11bd c802 c8ba 8691 3ebd 3b08 f6bc
00000180: dbb0 b9bb ba48 0bbd 88a1 b8bc aeeb 87bd
00000190: f33d aa3c 0ec0 2dbd b825 e6bb ad36 75bd
000001a0: 9866 aebd 6176 ad3c a507 38bd 82ca 88bc
000001b0: 4309 dfbb f405 f4bc 2cb3 04bd bdda f9bc
000001c0: 4067 2eba 7146 263d 291e 3ebb 8824 0f3d
000001d0: 8a02 b4bc ff2b 47bd d605 fd3c af6c 8fbc
000001e0: da85 d63c 64f1 a3bc 4971 e5bc 2781 9b3c
000001f0: 1810 dc3b b992 d53b 6866 043b 4d0b 973c
00000200: 3fcb 68bc fb9b 123c 25a0 92bb 07cf 3c3a
00000210: 3b4e 4abd 499b 973c 5e9e 5c3d 1f2d 64bb
00000220: 035d b63b a821 01bd 3aed a5bc 7ae5 05bb
00000230: 9b08 913d 50ea 033c f0f3 42bd 2b3a 94bc
00000240: 31c7 1f3c 5974 07bd 8507 06bd f9de 8d3d
00000250: 458a e13c 440b b73c c928 2c3d 7907 203d
00000260: 8401 15bc 1c50 a1bc 30ce e33c 29ea a33c
00000270: b1bb 263c 7882 4f3d b953 2b3d 299b 713c
00000280: 2f0b 45bc 0e47 013d 5376 d7bb ea46 a43d
00000290: ed5d 163d 80f5 803d a612 5e3d b086 45bd
000002a0: 9f2c 4a3d 17da 5b3c e38b 493d 9ab9 dd3b
000002b0: 1d38 2fbd 065d b4bd 15ce 0d3d 95de ecbc
000002c0: 29ca 2e3c 263c 9ebc 5f0d 4f3d a3b8 c83c
000002d0: cc08 613b cb7a 693d 5063 ae3c 0ee1 0ebc
000002e0: 64b5 b6bc 6679 cb3d 6e15 073d fb2b 2d3d
000002f0: 76a1 933b 2232 bf3c 0d63 b43c c45b 3c3d
00000300: 0239 573d 319f c53a 11fa 583d b7a3 143d
00000310: 72c4 093d 56a7 993b 4f20 0c3c 836d f73c
00000320: 79d8 4f39 fcf7 283d 87b4 2ebd 7e44 843d
00000330: c872 c03c 6998 653c d31a ec3c 70dd ccbc
00000340: 2935 31bb dd0e 9fbc b643 613c d2c9 703c
00000350: 3649 013b 5964 363d afa4 8cbc 6565 b83c
00000360: 80ad 64bc 7d1d 1a3d b33f 93bc e42d 073c
00000370: fac5 4abc bcdf e1bc 32cc 583c 6138 ad3c
00000380: 7261 c13c 1fbb 8e3d 934f 533d 3330 cd3d
00000390: 7090 da3b 6311 003c ac9a c6bb 5eb3 033d
000003a0: bfdc 303d d3aa 0ebc 8ace 733d af77 aebc
000003b0: 77c9 2cbd f85e cabc 2ca2 253d 32e7 67bd
000003c0: 178a 8a3c f6fa b33c 70cd a6bc 9659 313c
000003d0: c147 8f3d ee75 463d 2971 b4bc e1ce 623b
000003e0: e85a bbba 0c9a 943d 6fa6 f03c 1b5d f0bb
000003f0: 27aa 0fbb 14a3 4e3c 6d52 593d 691f af3c
-0.079993345 -0.010358229 -0.07320429 -0.050344896 -0.011637852 -0.008382521 -0.03727745 0.036497366
-0.053281415 -0.004690113 -0.03346365 -0.0466207 -0.031351 -0.02937506 -0.020332806 -0.024276746
0.041518603 0.0027412076 -0.06835172 -0.024519084 -0.07798668 0.02748226 -0.044521984 -0.044271264
-0.030388163 0.022444049 -0.052534737 -0.0032072212 -0.050660383 0.01192044 -0.061131593 -0.041737657
0.007268689 -0.052513067 -0.0414121 0.004280691 0.049417127 -0.0073072426 0.030580392 0.044322792
-0.009946161 0.040078808 -0.019255377 0.03448699 -0.017524226 0.08307019 -0.020613246 -0.023306038
0.036587585 -0.017492924 -0.023802014 0.028048884 0.030850472 -0.029859543 -0.071516134 -0.0015054095
0.0007321337 -0.016033677 -0.046938993 -0.057628218 -0.06561172 0.046787743 -0.03632502 -0.018563356
-0.019831624 0.01550951 -0.023007486 -0.039241754 -0.033428576 0.025303682 -0.05828196 -0.047727026
0.019096637 -0.04059056 -0.021901159 0.011370171 0.056759965 0.03250862 -0.07296707 -0.0012437493
0.008109868 -0.008070361 0.02297427 -0.060789976 -0.040372815 -0.028338877 -0.07631075 -0.09971126
-0.0009897568 -0.057032645 0.0060731126 0.028705291 -0.03559007 -0.0015259618 -0.0465255 -0.030033221
-0.005666835 -0.034004904 -0.022537962 -0.06636749 0.020781493 -0.042419486 -0.0070235394 -0.059866596
-0.08515662 0.021174612 -0.044929165 -0.016698126 -0.006806524 -0.029787995 -0.032397434 -0.03049981
-0.00066529587 0.040594522 -0.0029009676 0.03494695 -0.021973867 -0.048625942 0.030886572 -0.017507879
0.026186872 -0.020012565 -0.02800812 0.018982483 0.0067157857 0.006517735 0.002020264 0.018438006
-0.014208614 0.008948321 -0.004474657 0.00072024803 -0.049391013 0.018506663 0.05386197 -0.0034816933
0.005565287 -0.031526238 -0.02025472 -0.0020430968 0.070817195 0.00805147 -0.04759592 -0.018094143
0.009752081 -0.033069942 -0.032722015 0.06927294 0.027531752 0.022344239 0.042031083 0.039069626
-0.0090946 -0.01969152 0.027808279 0.020009117 0.010176585 0.050661534 0.04182789 0.014746466
-0.012026592 0.031561904 -0.0065753846 0.08021338 0.03671067 0.062968254 0.054217003 -0.04822415
0.04935896 0.013418696 0.049205672 0.00676651 -0.042778123 -0.08806805 0.034620363 -0.02891473
0.010668316 -0.01931579 0.05054986 0.024502104 0.0034337519 0.05700187 0.02128759 -0.008720649
-0.02230329 0.09935264 0.03297942 0.04227827 0.0045053316 0.023339335 0.022019887 0.045985952
0.0525446 0.001507735 0.052972857 0.036288943 0.03363461 0.0046891375 0.008552625 0.030203586
0.000198217 0.04125212 -0.042652633 0.06458376 0.023492232 0.014013388 0.028821385 -0.025007933
-0.0027039743 -0.019416267 0.013749054 0.014696555 0.0019727475 0.044529293 -0.017168371 0.022509286
-0.013957381 0.03762578 -0.01797471 0.008250687 -0.012376303 -0.027572505 0.013232278 0.021145048
0.023606036 0.06969284 0.05158956 0.10018959 0.0066700503 0.007816645 -0.006060919 0.03215348
0.04317927 -0.00870772 0.059523143 -0.021297304 -0.04218432 -0.024703488 0.040437862 -0.05661697
0.01691155 0.021970253 -0.020361632 0.010824582 0.06996108 0.04845231 -0.022026615 0.0034608173
-0.001429406 0.072559446 0.029376237 -0.007335318 -0.0021921487 0.012612123 0.053057123 0.021377282
